results2/model_nn.pth (torch, 125388 bytes, 7 tensors)

fc1.weight f4 [256, 50]
-0.5594809 -0.6575836 -0.5014932 -0.59583515 -0.51162595 -0.47718766 -0.5316405 -0.572168
-0.60633004 -0.51607805 -0.51607907 -0.60966235 -0.6604287 -0.48171335 -0.68002015 -0.46222007
-0.48831236 -0.47274798 -0.6251004 -0.61745864 -0.46516252 -0.42250997 -0.53906417 -0.591582
-0.46170568 -0.53193 -0.63646543 -0.41829953 -0.5188576 -0.66547436 -0.44831777 -0.5457909
-0.582668 -0.41888106 -0.66202563 -0.654382 -0.62736624 -0.5412125 -0.58785975 -0.5914458
-0.483744 -0.5628333 -0.5344848 -0.5910431 -0.6048934 -0.6914759 -0.44322535 -0.48824275
-0.41784826 -0.6008728 -0.6766039 -0.7341123 -0.7729742 -0.7840573 -0.72759193 -0.60742456
-0.58455044 -0.59594464 -0.7192546 -0.6594135 -0.66437715 -0.5764761 -0.7128248 -0.5889726
-0.34873497 -0.7131148 -0.70464176 -0.524666 -0.73983073 -0.627628 -0.64435834 -0.7735853
-0.69058675 -0.75261277 -0.6095154 -0.6658096 -0.7843601 -0.7199521 -0.53152627 -0.7580076
-0.6017205 -0.5881548 -0.66403514 -0.56371325 -0.61664647 -0.75288224 -0.69301033 -0.57922786
-0.7361535 -0.403369 -0.6260267 -0.74957824 -0.77165294 -0.6858039 -0.61873066 -0.5356442
-0.59400076 -0.54589033 -0.5930257 -0.5780426 -0.4641323 -0.406509 -0.5268089 -0.5235336
-0.5348881 -0.40692618 -0.54578394 -0.41661096 -0.5246564 -0.45721582 -0.3288286 -0.48250285
-0.48109177 -0.4891107 -0.43037918 -0.43641818 -0.40099415 -0.51690745 -0.4386133 -0.38599935
-0.37391356 -0.3672946 -0.5431229 -0.50456244 -0.478133 -0.47412553 -0.51256895 -0.413485
-0.53949225 -0.38479954 -0.52817327 -0.48613596 -0.34624538 -0.52506775 -0.4108122 -0.32999003
-0.4412861 -0.53658295 -0.50274545 -0.39705887 -0.43241927 -0.5622257 -0.40061554 -0.43691024
-0.39435717 -0.50728595 -0.5210734 -0.35671115 -0.47249997 -0.45311266 -0.61208844 -0.55209917
-0.56754166 -0.6226553 -0.48263168 -0.513662 -0.69617826 -0.65693176 -0.56685513 -0.4458798
-0.42940196 -0.5299094 -0.55888194 -0.55160457 -0.59181273 -0.4982868 -0.6969211 -0.6675373
-0.5556688 -0.6464885 -0.43162882 -0.45244536 -0.6944107 -0.6501938 -0.6332493 -0.44315937
-0.5239547 -0.63725823 -0.673395 -0.4834398 -0.47747245 -0.44719228 -0.6823148 -0.5545858
-0.5556632 -0.6396334 -0.6560645 -0.56731987 -0.6688136 -0.6339576 -0.47894195 -0.6575847
-0.6078331 -0.42514023 -0.69345015 -0.5639571 -0.61113924 -0.60269165 -0.68409514 -0.6895587
-0.5737304 -0.58881605 -0.32168147 -0.3901354 -0.36520934 -0.52332366 -0.44160444 -0.4203649
-0.3919148 -0.54739165 -0.4725261 -0.38813546 -0.34124205 -0.57506627 -0.5775957 -0.32017988
-0.57813144 -0.49803573 -0.43467796 -0.48788363 -0.38652462 -0.47968543 -0.5362607 -0.41070017
-0.45157757 -0.4723551 -0.35812727 -0.45179307 -0.42273167 -0.3242186 -0.59246063 -0.577288
-0.37416652 -0.4768829 -0.5016408 -0.41385344 -0.39697078 -0.36411917 -0.41031244 -0.5633056
-0.35061505 -0.56428015 -0.37555063 -0.4837142 -0.57745177 -0.33396775 -0.38218722 -0.43245807
-0.44236505 -0.37655032 -0.7156587 -0.47995493 -0.5243131 -0.6343731 -0.64213717 -0.60285074
00000000: 243a 0fbf 6657 28bf dc61 00bf a788 18bf
00000010: ebf9 02bf f151 f4be 9819 08bf 9a79 12bf
00000020: 7238 1bbf b11d 04bf c21d 04bf d512 1cbf
00000030: db11 29bf 22a3 f6be cd15 2ebf 1ca8 ecbe
00000040: 1404 fabe 060c f2be 9406 20bf c511 1ebf
00000050: c829 eebe 3a53 d8be 1c00 0abf eb71 17bf
00000060: b064 ecbe 912c 08bf 66ef 22bf 5b2b d6be
00000070: dad3 04bf 875c 2abf e889 e5be f4b8 0bbf
00000080: bb29 15bf 9477 d6be 837a 29bf 9485 27bf
00000090: 139b 20bf e78c 0abf fa7d 16bf fe68 17bf
000000a0: 4bad f7be d815 10bf ffd3 08bf 9a4e 17bf
000000b0: 4bda 1abf 9104 31bf 6fee e2be f4fa f9be
000000c0: 35f0 d5be cdd2 19bf ea35 2dbf c9ee 3bbf
000000d0: a3e1 45bf fbb7 48bf 7743 3abf 2d80 1bbf
000000e0: 19a5 15bf d48f 18bf 1221 38bf 53cf 28bf
000000f0: 9f14 2abf f093 13bf b07b 36bf e9c6 16bf
00000100: 648d b2be b18e 36bf 6763 34bf 8350 06bf
00000110: 8c65 3dbf 3bac 20bf abf4 24bf b009 46bf
00000120: 4bca 30bf 3bab 40bf 3409 1cbf 7f72 2abf
00000130: d3cb 48bf c84e 38bf 1b12 08bf c90c 42bf
00000140: 5b0a 1abf 5091 16bf 35fe 29bf 834f 10bf
00000150: 8bdc 1dbf e4bc 40bf 2069 31bf 4748 14bf
00000160: 8e74 3cbf 6286 cebe 4943 20bf 5ce4 3fbf
00000170: 0c8b 45bf d890 2fbf 2265 1ebf fa1f 09bf
00000180: 6f10 18bf 78bf 0bbf 88d0 17bf 9afa 13bf
00000190: c0a2 edbe f321 d0be f3dc 06bf 4c06 06bf
000001a0: 6dee 08bf a158 d0be 7fb8 0bbf 084e d5be
000001b0: e24f 06bf 3118 eabe 395c a8be 9d0a f7be
000001c0: a951 f6be b86c fabe a95a dcbe 3472 dfbe
000001d0: 1b4f cdbe 0c54 04bf ec91 e0be b5a1 c5be
000001e0: 9971 bfbe 0a0e bcbe 1a0a 0bbf 012b 01bf
000001f0: d9cd f4be 95c0 f2be b837 03bf 4eb4 d3be
00000200: 2a1c 0abf 7204 c5be 5d36 07bf d0e6 f8be
00000210: 1347 b1be d76a 06bf fa55 d2be 74f4 a8be
00000220: 40f0 e1be 805d 09bf edb3 00bf 4d4b cbbe
00000230: 0f66 ddbe 06ee 0fbf 7b1d cdbe b3b2 dfbe
00000240: 2fe9 c9be 7edd 01bf 1165 05bf d8a2 b6be
00000250: 84eb f1be 62fe e7be d4b1 1cbf 5f56 0dbf
00000260: 694a 11bf 5666 1fbf 801b f7be 5a7f 03bf
00000270: bd38 32bf ae2c 28bf 6b1d 11bf 5b4a e4be
00000280: 93da dbbe 24a8 07bf e312 0fbf f535 0dbf
00000290: 0a81 17bf 731f ffbe 6c69 32bf b9e3 2abf
000002a0: 4f40 0ebf 4580 25bf 74fe dcbe eba6 e7be
000002b0: e6c4 31bf 1a73 26bf a01c 22bf c9e5 e2be
000002c0: e521 06bf 5b23 23bf 9d63 2cbf 6c85 f7be
000002d0: 4577 f4be 63f6 e4be 2fac 2ebf 56f9 0dbf
000002e0: f23f 0ebf 04bf 23bf d8f3 27bf e03b 11bf
000002f0: 5e37 2bbf 0c4b 22bf e137 f5be 7957 28bf
00000300: f39a 1bbf fbab d9be f385 31bf 7e5f 10bf
00000310: 9f73 1cbf 004a 1abf dc20 2fbf eb86 30bf
00000320: ffdf 12bf a6bc 16bf 6fb3 a4be d4bf c7be
00000330: b8fc babe 8af8 05bf fa19 e2be 113a d7be
00000340: 0fa9 c8be dc21 0cbf f1ee f1be b1b9 c6be
00000350: 47b7 aebe 8b37 13bf 50dd 13bf 9eee a3be
00000360: 6c00 14bf 8afe febe 1c8e debe e2cb f9be
00000370: 8ee6 c5be 5499 f5be 6248 09bf 4b47 d2be
00000380: 2d35 e7be 87d8 f1be 755c b7be 6c51 e7be
00000390: 4970 d8be fbff a5be 80ab 17bf 25c9 13bf
000003a0: c192 bfbe ff29 f4be 886b 00bf 99e4 d3be
000003b0: c13f cbbe d46d babe 7914 d2be cc34 10bf
000003c0: d183 b3be aa74 10bf 2c48 c0be 63a9 f7be
000003d0: e1d3 13bf d2fd aabe 0bae c3be 256b ddbe
000003e0: ac7d e2be 34cb c0be 6935 37bf a7bc f5be
000003f0: 6239 06bf 4766 22bf 1a63 24bf 6d54 1abf

fc1.bias f4 [256]
-0.3158605 -0.596271 -0.5619901 -0.34280494 -0.3626193 -0.49095267 -0.35913232 -0.38645265
-0.7087498 -0.6330051 -0.5576913 -1.1760854 -0.4650274 -0.43409055 0.7338522 -0.46390945
-0.4324045 -0.38311931 -0.5827208 -0.5091801 -0.38564152 -0.5286426 -0.4518474 -0.42201573
-0.36495534 -0.6770789 -0.57864314 -0.60272056 -0.4999319 -0.59051055 -0.72799 -0.5378569
-0.35893318 -0.5168277 -0.67229265 -0.481429 -0.5471401 -0.31771094 -0.46761554 -0.5474464
-0.5630703 -0.69288814 -0.31902492 -0.621583 -0.49780247 -0.40210548 -0.6682282 -0.46590975
-0.58116156 -0.5795516 -2.5437806 -0.5157516 -0.20232168 -0.42756718 -0.7161913 -0.59978443
-0.58427227 -0.53594476 -0.7358029 -0.38462353 -0.73294604 -0.5333102 -0.56523055 -0.5688123
-0.45291856 -0.6514348 -0.4877141 -0.5366775 -0.31593558 -0.56682265 -0.56298846 -0.6593431
-0.6983057 -0.65676314 -0.41114554 -0.4031043 -0.64678 -0.7051845 -0.49941164 -0.4296737
-0.56257236 -0.52570456 -0.4366148 -0.58996356 -0.58425236 -0.61015105 -0.6728889 -0.7336345
-0.55182004 -0.5563555 -0.59458154 -0.3235599 -0.62460434 -0.5826874 -0.56452966 -0.57965755
-0.4681241 -0.5179137 -0.47189093 -0.5009811 -0.5873394 -0.32612717 -0.5643497 -0.5311445
-0.45267612 -0.4904458 -0.3620325 -0.712718 -0.47436947 -0.703471 -0.5845286 -0.6708629
-0.39112347 -0.50295216 -0.48864454 -0.38791534 -0.5179123 -0.6254318 -0.59859407 -0.5051436
-0.7386831 -0.3648948 -0.5380393 -0.3423489 -0.49521554 -0.48563927 -0.6042206 -0.5265983
-0.46732062 -0.73500234 -0.589806 -0.50738686 -0.73043346 -1.0845674 -0.66287476 -0.5739857
0.24130054 -0.54787636 -0.54614276 -0.51235497 -0.46678293 -0.7374312 -0.695522 -0.5260985
-0.6506995 -0.6751051 -0.5359154 -0.6924879 -0.5963564 -0.47208503 -0.4880245 -0.3575822
-0.53597 -0.5341587 -0.51793927 -0.3397529 -0.09229267 -0.6535646 -1.0966253 -0.39317936
-0.41343415 -0.47866872 -0.4623988 -0.6582406 -0.5529127 -0.533952 -0.329209 -0.55340886
-0.66496587 -0.6827765 -0.6732528 -0.4754945 -0.6370752 -0.36682445 -0.43778414 -0.495347
-0.46357083 -0.43746898 -0.5122076 -0.5289365 -0.4681588 -0.6816611 -0.6574142 -0.68766886
-0.49132028 -0.46717867 -0.7379931 -0.6926219 -0.50098985 -0.60917586 -0.5201032 -0.5235924
-0.004837364 -0.671894 -0.59107774 0.71778244 -0.5990005 -0.6104433 -0.44510236 -0.57855856
-0.5585312 -0.46514103 -0.5797199 -0.73658514 -0.5101913 -0.7798262 -0.49044928 -0.7273846
-0.59630144 -0.56758916 -0.34686553 -0.41650894 -0.5522082 -0.6265512 -0.76506364 -0.5129676
-0.6709015 -0.5139707 -0.57762545 -0.51942503 -0.39006796 -0.5599789 -0.6921418 -0.5733446
-0.5177147 -0.41247037 -0.354029 -0.5106962 -0.5030274 -0.5196033 -0.6450726 -0.5946294
-0.4969344 -0.5075981 -0.44145393 -0.7400448 -0.51641846 -0.62841094 -0.37114447 -0.44815296
-0.4512781 -0.41858742 -0.45658532 -0.6270344 -0.39390662 -0.52227384 -0.6130153 -0.6633837
-0.70699936 -0.32996544 -0.31395647 -0.31728214 -0.6474891 -0.46718058 -0.49203345 -0.73913974
00000000: 78b8 a1be 37a5 18bf 95de 0fbf 2184 afbe
00000010: 3da9 b9be 265e fbbe 31e0 b7be 1fdd c5be
00000020: a070 35bf 9f0c 22bf dbc4 0ebf f789 96bf
00000030: 1218 eebe 1e41 debe bddd 3b3f 8a85 edbe
00000040: 1f64 ddbe 3728 c4be 312d 15bf a159 02bf
00000050: ce72 c5be 1f55 07bf 8b58 e7be 7212 d8be
00000060: 6ddb babe 0b55 2dbf f521 14bf e54b 1abf
00000070: 13f7 ffbe b32b 17bf 8d5d 3abf fdb0 09bf
00000080: 17c6 b7be d24e 04bf 5f1b 2cbf dd7d f6be
00000090: 6011 0cbf 02ab a2be 4e6b efbe 7325 0cbf
000000a0: 6025 10bf 1e61 31bf 3c57 a3be 1020 1fbf
000000b0: f7df febe c5e0 cdbe 0111 2bbf b98b eebe
000000c0: 01c7 14bf 7e5d 14bf 4dcd 22c0 4c08 04bf
000000d0: 6a2d 4fbe 16ea dabe 5058 37bf 798b 19bf
000000e0: de92 15bf ad33 09bf 945d 3cbf 60ed c4be
000000f0: 5aa2 3bbf 0487 08bf f3b2 10bf af9d 11bf
00000100: f1e4 e7be 6ec4 26bf aab5 f9be b263 09bf
00000110: 4fc2 a1be 4a1b 11bf 0320 10bf b6ca 28bf
00000120: 2ac4 32bf a121 28bf ab81 d2be b063 cebe
00000130: 6093 25bf f986 34bf e2b2 ffbe 31fe dbbe
00000140: be04 10bf 9394 06bf fa8b dfbe da07 17bf
00000150: 9091 15bf dc32 1cbf 7242 2cbf 78cf 3bbf
00000160: 1444 0dbf 506d 0ebf 7f36 18bf a5a9 a5be
00000170: 12e6 1fbf 002b 15bf 0485 10bf 7064 14bf
00000180: f6ad efbe fe95 04bf b09b f1be 4c40 00bf
00000190: e05b 16bf 24fa a6be 3979 10bf 16f9 07bf
000001a0: 2ac5 e7be b61b fbbe 535c b9be b074 36bf
000001b0: 8ee0 f2be ad16 34bf aba3 15bf acbd 2bbf
000001c0: 5641 c8be 79c1 00bf 9e2f fabe d79c c6be
000001d0: e795 04bf 4c1c 20bf 763d 19bf 1751 01bf
000001e0: 561a 3dbf 7ed3 babe f2bc 09bf 5b48 afbe
000001f0: e48c fdbe b6a5 f8be 34ae 1abf 25cf 06bf
00000200: a644 efbe 1d29 3cbf 87fd 16bf 1be4 01bf
00000210: b0fd 3abf 1bd3 8abf 29b2 29bf baf0 12bf
00000220: 7d17 773e a041 0cbf 03d0 0bbf b229 03bf
00000230: 2cfe eebe 4bc8 3cbf bb0d 32bf 64ae 06bf
00000240: 3e94 26bf b0d3 2cbf c031 09bf e346 31bf
00000250: d0aa 18bf 21b5 f1be 59de f9be 0415 b7be
00000260: 5435 09bf a0be 08bf ab97 04bf 18f4 adbe
00000270: f003 bdbd 0250 27bf 385e 8cbf ce4e c9be
00000280: a4ad d3be 1114 f5be 89bf ecbe 7582 28bf
00000290: b08b 0dbf 14b1 08bf 158e a8be 34ac 0dbf
000002a0: 343b 2abf 71ca 2ebf 4c5a 2cbf 0474 f3be
000002b0: 5c17 23bf 6ad0 bbbe 3e25 e0be 1f9e fdbe
000002c0: 2859 edbe effb dfbe 0a20 03bf 6268 07bf
000002d0: 83b2 efbe 5881 2ebf 4c4c 28bf 110b 30bf
000002e0: 558e fbbe 0b32 efbe 1eed 3cbf ab4f 31bf
000002f0: df40 00bf f3f2 1bbf 7c25 05bf 270a 06bf
00000300: c082 9ebb 3f01 2cbf df50 17bf 97c0 373f
00000310: 1958 19bf 0346 1cbf 75e4 e3be 6a1c 14bf
00000320: e7fb 0ebf f726 eebe 8668 14bf d890 3cbf
00000330: e69b 02bf b1a2 47bf 2b1c fbbe e135 3abf
00000340: 36a7 18bf 864d 11bf 5c98 b1be a940 d5be
00000350: 845d 0dbf a965 20bf 36db 43bf d851 03bf
00000360: 33c0 2bbf 9593 03bf 43df 13bf 0af9 04bf
00000370: fdb6 c7be c75a 0fbf 3430 31bf b6c6 12bf
00000380: f388 04bf 512f d3be 4a43 b5be fcbc 02bf
00000390: 67c6 00bf b904 05bf 7a23 25bf a239 18bf
000003a0: 306e febe f3f1 01bf 4006 e2be 9373 3dbf
000003b0: 0034 04bf 8adf 20bf a606 bebe 4e74 e5be
000003c0: ec0d e7be 1751 d6be 8dc5 e9be 5485 20bf
000003d0: 21ae c9be bdb3 05bf 92ee 1cbf 84d3 29bf
000003e0: e9fd 34bf 3bf1 a8be e7be a0be ce72 a2be
000003f0: d8c1 25bf 4b32 efbe cfeb fbbe 4338 3dbf

fc2.weight f4 [64, 256]
-0.58215535 -0.6367968 -0.59926397 -0.56060135 0.65174514 -0.65040624 -0.056177557 -0.5818709
0.61192626 -0.63553077 -0.65713155 -1.0300032 -0.62180954 -0.6567949 -0.6371165 -0.61633056
-0.595595 -0.5892652 -0.63728946 -0.58352333 -0.5935805 -0.61564195 -0.60859394 -0.5775337
-0.5512259 0.54376906 -0.5413124 0.021129504 -0.5924007 0.5723591 0.642249 -0.62734044
-0.6387342 -0.57941186 0.5511833 -0.57781816 -0.59365594 -0.6283296 0.5457947 -0.64984643
-0.5781017 -0.045733094 -0.5973289 -0.554119 -0.636392 0.6531152 -0.5830189 0.6423264
-0.6108156 -0.5978729 -2.3951879 -0.5798889 -0.024424009 -0.5831529 0.6214191 -0.5949726
-0.5391403 0.54864836 -0.5891774 -0.63801825 0.6116605 -0.60171217 -0.58927745 -0.6316805
-0.549115 -0.5810063 -0.6315178 -0.6177497 -0.6463427 -0.576286 0.5800068 -0.6577624
-0.5422747 -0.54897845 -0.5425102 0.61511207 0.6334149 -0.54723054 -0.65386057 -0.5437139
-0.5731789 -0.5442092 -0.59885424 0.025157884 -0.6351983 -0.65334773 -0.5964374 -0.5735524
-0.6147673 -0.5977885 -0.6246093 -0.6106211 -0.6328811 0.02182912 -0.5421492 -0.61187667
-0.57480216 0.5398118 0.017643563 -0.6604763 -0.56562763 -0.5499681 -0.6504566 -0.5702999
0.6378265 -0.5404538 -0.54014283 0.6411644 -0.5476721 -0.59351796 -0.6082063 -0.6561937
-0.54036874 -0.59387743 0.58390236 0.6491349 -0.644702 -0.60659605 -0.65988773 0.6220644
0.627712 -0.5932286 -0.60337824 -0.5883764 -0.6043459 -0.6444877 0.57472795 -0.5608213
-0.5644589 -0.5531029 -0.626289 0.5736313 -0.6476211 -0.00942792 -0.6586665 -0.659859
-0.021380097 -0.64798325 0.6108089 -0.5876564 -0.60561925 -0.56050223 -0.6391482 -0.61940676
-0.599651 0.0032213032 0.6592494 -0.6404764 -0.5533485 -0.5629149 0.58731264 -0.6174851
-0.6629022 -0.64158744 0.594028 -0.65462744 -0.019433975 -0.542146 -0.99968535 -0.5383904
-0.58567095 0.04286635 -0.59086084 -0.5556749 -0.5703303 0.5853423 -0.64585114 0.5622604
0.56695735 0.64320755 -0.57671994 -0.6539569 -0.5381185 0.59600246 -0.58092296 -0.55867827
-0.64662087 0.6215261 0.55069435 -0.55419296 -0.5456852 -0.036521696 -0.6257673 -0.63430214
-0.6341814 -0.59776026 -0.5457199 -0.65475094 -0.6238909 0.008193314 -0.56484646 -0.6372995
-0.008048609 -0.6306069 -0.65676266 -0.56818277 -0.5907115 -0.5551083 -0.6323287 0.63115764
-0.6166308 0.60069656 -0.55491567 -0.622203 -0.5425047 -0.57470524 -0.6098422 0.6034837
-0.5829926 0.63294214 -0.5422386 -0.6614766 0.5469485 -0.591358 -0.6478164 -0.63787025
0.054307774 0.020874754 -0.056882992 -0.6408469 -0.58383167 -0.5841088 0.6182587 -0.6408964
-0.5486698 -0.54432577 0.65760314 -0.5566195 -0.5967806 -0.6014785 -0.65835655 -0.042110704
0.5714662 -0.5806322 -0.64915395 0.038080677 -0.63544387 -0.54952747 -0.6249448 -0.65943193
0.5392889 -0.54410416 -0.57211566 -0.5461446 -0.55451083 0.61075413 0.6258946 -0.008232109
-0.55944234 -0.6092867 -0.5419038 -0.60434175 -0.65675443 -0.6330456 -0.5692843 0.050661072
00000000: 2208 15bf 1d05 23bf 5d69 19bf 9283 0fbf
00000010: c5d8 263f 0681 26bf 701a 66bd 7ef5 14bf
00000020: 33a7 1c3f 25b2 22bf c639 28bf 25d7 83bf
00000030: e92e 1fbf b623 28bf 111a 23bf d7c7 1dbf
00000040: ea78 18bf 16da 16bf 6725 23bf c961 15bf
00000050: e4f4 17bf b69a 1dbf d0cc 1bbf 40d9 13bf
00000060: 241d 0dbf 7334 0b3f 7393 0abf c817 ad3c
00000070: 93a7 17bf 2086 123f 6e6a 243f 6299 20bf
00000080: 1684 23bf 5654 14bf 591a 0d3f e4eb 13bf
00000090: d6f9 17bf 35da 20bf 34b9 0b3f 565c 26bf
000000a0: 79fe 13bf a052 3bbd 8cea 18bf beda 0dbf
000000b0: 96ea 22bf 8f32 273f ba40 15bf 816f 243f
000000c0: 695e 1cbf 330e 19bf c24a 19c0 9973 14bf
000000d0: dc14 c8bc 8249 15bf 5215 1f3f 2050 18bf
000000e0: 1905 0abf 3874 0c3f 55d4 16bf 2a55 23bf
000000f0: c895 1c3f cf09 1abf e3da 16bf d0b5 21bf
00000100: cd92 0cbf d4bc 14bf 27ab 21bf d824 1ebf
00000110: b776 25bf 7b87 13bf 537b 143f 1e63 28bf
00000120: 84d2 0abf da89 0cbf f3e1 0abf fc77 1d3f
00000130: 7b27 223f 4d17 0cbf 6863 27bf d630 0bbf
00000140: dabb 12bf 4b51 0bbf 834e 19bf e817 ce3c
00000150: 5b9c 22bf cc41 27bf 1fb0 18bf 55d4 12bf
00000160: 6461 1dbf ab08 19bf 65e6 1fbf aa51 1cbf
00000170: 7f04 22bf fcd2 b23c 4aca 0abf f3a3 1cbf
00000180: 3c26 13bf 1b31 0a3f 3c89 903c fa14 29bf
00000190: f9cc 10bf b6ca 0cbf 5384 26bf 2dff 11bf
000001a0: 9948 233f 2e5b 0abf cd46 0abf 5a23 243f
000001b0: 3d34 0cbf cbf0 17bf 68b3 1bbf 4ffc 27bf
000001c0: 9b55 0abf 5a08 18bf a07a 153f b42d 263f
000001d0: 310b 25bf e149 1bbf 67ee 28bf 9d3f 1f3f
000001e0: bcb1 203f d4dd 17bf ff76 1abf d69f 16bf
000001f0: 6ab6 1abf 25fd 24bf 5f21 133f fc91 0fbf
00000200: 6180 10bf 2798 0dbf 7a54 20bf 80d9 123f
00000210: 7fca 25bf 9077 1abc 5e9e 28bf 85ec 28bf
00000220: 5025 afbc 3be2 25bf f95d 1c3f a670 16bf
00000230: dd09 1bbf 137d 0fbf 379f 23bf 7191 1ebf
00000240: ba82 19bf 801c 533b 92c4 283f 43f6 23bf
00000250: 3fa8 0dbf 311b 10bf 1f5a 163f 8113 1ebf
00000260: f5b3 29bf 133f 24bf 3812 183f aa95 27bf
00000270: 0034 9fbc 15ca 0abf 61eb 7fbf f4d3 09bf
00000280: 88ee 15bf a094 2f3d a842 17bf b640 0ebf
00000290: 2b01 12bf fed8 153f 8056 25bf 4cf0 0f3f
000002a0: 1e24 113f 40a9 243f eba3 13bf b869 27bf
000002b0: 22c2 09bf 9e93 183f 5eb7 14bf 8a05 0fbf
000002c0: f288 25bf 561c 1f3f 4efa 0c3f 97df 0dbf
000002d0: 06b2 0bbf c697 15bd 4932 20bf a061 22bf
000002e0: b659 22bf d106 19bf 4db4 0bbf c29d 27bf
000002f0: 50b7 1fbf 403d 063c c799 10bf 0f26 23bf
00000300: 50de 03bc 746f 21bf 9921 28bf 6d74 11bf
00000310: de38 17bf 941b 0ebf 4be0 21bf 8c93 213f
00000320: 84db 1dbf 40c7 193f f40e 0ebf b248 1fbf
00000330: 97e1 0abf e21f 13bf 9e1e 1cbf e87d 1a3f
00000340: 013f 15bf 7f08 223f 26d0 0abf 8856 29bf
00000350: d104 0c3f 3d63 17bf 4cd7 25bf 774b 23bf
00000360: d471 5e3d 8801 ab3c 24fe 68bd 8b0e 24bf
00000370: fe75 15bf 2888 15bf 3446 1e3f c911 24bf
00000380: a075 0cbf ef58 0bbf ae58 283f 9e7e 0ebf
00000390: 9dc6 18bf 7ffa 19bf 0e8a 28bf 467c 2cbd
000003a0: 9c4b 123f 50a4 14bf f42e 26bf 7cfa 1b3d
000003b0: 73ac 22bf d5ad 0cbf 62fc 1fbf 88d0 28bf
000003c0: d60e 0a3f 694a 0bbf 2c76 12bf 22d0 0bbf
000003d0: 6cf4 0dbf 625a 1c3f a13a 203f f8df 06bc
000003e0: 9d37 0fbf 37fa 1bbf 35ba 0abf 24b6 1abf
000003f0: 0f21 28bf 470f 22bf 9ebc 11bf fc81 4f3d

fc2.bias f4 [64]
-1.7266512 -1.291126 -0.9672906 -1.8555311 -1.0377365 -0.66184217 -0.4676122 -0.44919997
-0.61991423 -0.4650017 1.1208533 -0.43551135 -0.41639486 -0.70036393 -0.5051207 -0.9459711
-0.8024267 -0.625046 -0.67827535 -0.71563184 -0.41806197 -0.75395334 -0.7064361 -1.7480558
-1.6012893 -0.72164255 -0.66255933 -0.4160544 -2.8727746 -0.40325043 -1.2249118 -0.7691487
-0.3982694 -0.83383906 -1.3036611 -0.4720094 -0.46014693 -0.6367095 -0.94710493 -0.66124535
-0.47985446 -0.7475745 -0.71170336 -0.7368227 0.09180966 -0.49547282 -0.47301835 -0.5894295
-0.8437974 2.274435 -0.42532116 -0.39463758 -0.47913948 -0.8091774 -0.3999301 -0.4963808
-0.4616096 -0.3982702 -1.1294982 -0.39856955 -0.51181006 -0.45050782 -0.4633982 -0.6586526
00000000: e802 ddbf 9e43 a5bf 5ba0 77bf 0b82 edbf
00000010: 8dd4 84bf 7d6e 29bf de6a efbe 8afd e5be
00000020: b3b2 1ebf b414 eebe 1f78 8f3f 58fb debe
00000030: b531 d5be 0d4b 33bf 974f 01bf 292b 72bf
00000040: d66b 4dbf 0403 20bf 74a3 2dbf a633 37bf
00000050: 380c d6be 1603 41bf ffd8 34bf 4bc0 dfbf
00000060: 0cf7 ccbf 91bd 38bf 7d9d 29bf 1505 d5be
00000070: 8adb 37c0 d776 cebe e9c9 9cbf eee6 44bf
00000080: f7e9 cbbe 7a76 55bf 5ede a6bf 37ab f1be
00000090: 6198 ebbe 65ff 22bf 7875 72bf 6047 29bf
000000a0: 7caf f5be 0b61 3fbf 3132 36bf 6aa0 3cbf
000000b0: b406 bc3d 9dae fdbe 762f f2be dae4 16bf
000000c0: 1b03 58bf 5890 1140 b2c3 d9be f00d cabe
000000d0: c551 f5be 4026 4fbf a3c3 ccbe a025 febe
000000e0: 1858 ecbe 12ea cbbe 6693 90bf 4f11 ccbe
000000f0: fc05 03bf f6a8 e6be 8742 edbe 759d 28bf

fc3.weight f4 [16, 64]
-0.65908194 -0.52117306 -0.61292154 -0.50018376 -0.59877735 -0.5392245 -0.6083009 -0.6717504
-0.5114242 -0.59253347 -0.019920006 -0.61027133 -0.52338284 -0.70810914 -0.6507412 -0.524992
-0.5037526 -0.48112336 -0.6537818 -0.50223434 -0.5681037 -0.49629366 -0.49956775 -0.62456405
-0.57236034 -0.49304375 -0.47802898 -0.6113545 -0.6481834 -0.7126689 -0.52701104 -0.4948931
-0.58964777 -0.5385048 -0.5048007 -0.672581 -0.70651376 -0.6272839 -0.58456975 -0.64791554
-0.72457397 -0.61834425 -0.5370905 0.0037750304 -0.7560645 -0.7214189 -0.6573019 -0.6267565
-0.53510034 0.100840405 -0.67677 -0.6403504 -0.48802787 -0.6264066 -0.5763192 -0.6648188
-0.5919878 -0.6451353 -0.50166446 -0.4928057 -0.62744164 -0.7010803 -0.5854195 -0.693929
-0.52218986 -0.63326067 -0.4828629 -0.62686294 -0.60182047 -0.4836046 -0.6445032 -0.66124785
-0.48808566 -0.5658381 -0.46767536 -0.6105789 -0.6456269 -0.5597377 -0.7050544 -0.67225015
-0.6038122 -0.6858653 -0.4894555 -0.66136724 -0.6039149 -0.5417849 -0.6537328 -0.5463456
-0.5098083 -0.48518762 -0.56956303 -0.6771392 -0.59687734 -0.65619797 -0.58175015 -0.6038931
-0.7040974 -0.48435512 -0.6662049 -0.6459911 -0.47707152 -0.5527555 -0.5719963 -0.48528445
-0.643116 -0.47813755 -0.4988917 0.09397137 -0.78578955 -0.51585937 -0.52050364 -0.49798062
-0.4833125 -0.07028748 -0.7207508 -0.5883234 -0.6222371 -0.47624144 -0.6768495 -0.63826364
-0.6362672 -0.6393526 -0.67379665 -0.7232248 -0.5640851 -0.69340336 -0.7159095 -0.51232076
0.6689686 0.86738473 0.9020744 0.9002234 0.7457477 0.62602293 -0.38101283 -0.360783
0.57808113 -0.3537921 -0.70513844 -0.52987015 -0.3406298 -0.4970476 -0.46918413 0.7435601
0.81782234 0.7207677 0.5758455 0.5742583 -0.35425422 -0.34561455 0.75366014 0.60561186
-0.50219864 0.6235516 0.5189304 -0.36530906 -0.46220583 -0.41372526 -0.5582853 0.75090367
-0.5528504 0.5021184 0.5336701 -0.46399507 -0.43097293 0.95032674 0.65473586 0.59028953
-0.4299763 0.7074542 0.710593 -0.51741767 -0.6025526 -0.55814475 -0.5248646 0.6062645
0.8672056 -1.8605839 -0.5076587 -0.572291 -0.4680518 0.66712123 -0.3600882 -0.42100367
-0.3969264 -0.5782316 0.34738675 -0.5125833 -0.41975987 -0.46843573 -0.34976253 -0.5459587
-0.61183214 -0.4781244 -0.4900338 -0.65322 -0.66252935 -0.6943231 -0.6025854 -0.4946098
-0.63260275 -0.53305006 -0.086980656 -0.7246593 -0.5335633 -0.55789506 -0.65795505 -0.5721337
-0.6186062 -0.699064 -0.5673041 -0.56130826 -0.5943963 -0.68713003 -0.63741374 -0.5132859
-0.49858448 -0.5380126 -0.5941909 -0.7169389 -0.66278887 -0.5379358 -0.6948219 -0.6291907
-0.47973943 -0.58207136 -0.6165051 -0.61913526 -0.6595463 -0.7043137 -0.58974427 -0.5764133
-0.72235215 -0.54963475 -0.53448457 0.0820159 -0.0535644 -0.5333556 -0.7217778 -0.6389209
-0.47557473 0.048368886 -0.64488333 -0.5684945 -0.71857184 -0.529227 -0.52008885 -0.6685197
-0.5601466 -0.51543045 -0.48414138 -0.5648326 -0.71351963 -0.5450773 -0.49337393 -0.706281
00000000: 98b9 28bf 996b 05bf 6de8 1cbf 0b0c 00bf
00000010: 7949 19bf 9e0a 0abf 9cb9 1bbf d6f7 2bbf
00000020: b2ec 02bf 46b0 17bf 482f a3bc be3a 1cbf
00000030: 6bfc 05bf a446 35bf fa96 26bf e065 06bf
00000040: eef5 00bf cd55 f6be 3e5e 27bf 6e92 00bf
00000050: 3e6f 11bf 341a febe 58c7 ffbe 6ee3 1fbf
00000060: 3586 12bf 3b70 fcbe 37c0 f4be ba81 1cbf
00000070: 59ef 25bf 7871 36bf 32ea 06bf a162 fdbe
00000080: 28f3 16bf 73db 09bf 9e3a 01bf 452e 2cbf
00000090: 16de 34bf ad95 20bf 5da6 15bf cbdd 25bf
000000a0: ae7d 39bf cf4b 1ebf c37e 09bf 8066 773b
000000b0: 718d 41bf e9ae 38bf f044 28bf 1d73 20bf
000000c0: 56fc 08bf 6a85 ce3d cc40 2dbf 01ee 23bf
000000d0: cade f9be 2f5c 20bf a889 13bf 9131 2abf
000000e0: 838c 17bf 9627 25bf 156d 00bf 0751 fcbe
000000f0: 04a0 20bf 007a 33bf 0dde 15bf 55a5 31bf
00000100: 3cae 05bf 5f1d 22bf ce39 f7be 177a 20bf
00000110: e810 1abf 069b f7be 29fe 24bf 8a47 29bf
00000120: 5de6 f9be c4da 10bf 2573 efbe e64e 1cbf
00000130: ce47 25bf f84a 0fbf 727e 34bf 9618 2cbf
00000140: 7093 1abf de94 2fbf e999 fabe 5d4f 29bf
00000150: 2b9a 1abf 6ab2 0abf 085b 27bf 4edd 0bbf
00000160: cc82 02bf 836a f8be e2ce 11bf ff58 2dbf
00000170: f4cc 18bf 97fc 27bf 94ed 14bf bd98 1abf
00000180: ba3f 34bf 65fd f7be 688c 2abf ac5f 25bf
00000190: b842 f4be 6281 0dbf 596e 12bf 3477 f8be
000001a0: 40a3 24bf 72ce f4be bc6e ffbe 1074 c03d
000001b0: 8129 49bf 5c0f 04bf ba3f 05bf 51f7 febe
000001c0: bc74 f7be e2f2 8fbd 2083 38bf 5d9c 16bf
000001d0: ee4a 1fbf ebd5 f3be 0246 2dbf 3f65 23bf
000001e0: 68e2 22bf 9dac 23bf f07d 2cbf 4325 39bf
000001f0: e267 10bf e282 31bf d845 37bf 7427 03bf
00000200: 8741 2b3f ed0c 5e3f 59ee 663f 0a75 663f
00000210: 52e9 3e3f 0a43 203f 1d14 c3be 8db8 b8be
00000220: 20fd 133f 3d24 b5be f483 34bf 92a5 07bf
00000230: 0767 aebe 067d febe e738 f0be f459 3e3f
00000240: ce5c 513f 3b84 383f 9c6a 133f 9802 133f
00000250: cf60 b5be 64f4 b0be dfef 403f 6109 1b3f
00000260: 1790 00bf 14a1 1f3f 9fd8 043f ca09 bbbe
00000270: 3ea6 ecbe ccd3 d3be c9eb 0ebf 393b 403f
00000280: 9b87 0dbf d58a 003f 9b9e 083f c390 edbe
00000290: 7ca8 dcbe 9d48 733f c59c 273f 371d 173f
000002a0: db25 dcbe b81b 353f 6ce9 353f 7c75 04bf
000002b0: e340 1abf 93e2 0ebf 875d 06bf 2634 1b3f
000002c0: 3001 5e3f 9d27 eebf ecf5 01bf aa81 12bf
000002d0: 7ca4 efbe 75c8 2a3f 7b5d b8be cb8d d7be
000002e0: f039 cbbe fc06 14bf addc b13e a938 03bf
000002f0: c4ea d6be cfd6 efbe 1314 b3be f3c3 0bbf
00000300: 08a1 1cbf b9cc f4be b6e5 fabe 6d39 27bf
00000310: 869b 29bf 29bf 31bf 0943 1abf 7f3d fdbe
00000320: 41f2 21bf f875 08bf ea22 b2bd 4683 39bf
00000330: 9b97 08bf 36d2 0ebf be6f 28bf 5b77 12bf
00000340: fa5c 1ebf dcf5 32bf d73a 11bf e6b1 0fbf
00000350: 5b2a 18bf c1e7 2fbf 8c2d 23bf b466 03bf
00000360: 7746 ffbe 32bb 09bf e51c 18bf 4f89 37bf
00000370: 88ac 29bf 29b6 09bf d9df 31bf a412 21bf
00000380: 68a0 f5be a102 15bf 47d3 1dbf a67f 1ebf
00000390: 07d8 28bf e74d 34bf 7bf9 16bf d28f 13bf
000003a0: 12ec 38bf ddb4 0cbf fbd3 08bf f4f7 a73d
000003b0: 5866 5bbd fe89 08bf 6ec6 38bf 5290 23bf
000003c0: 887e f3be 741e 463d 1317 25bf db88 11bf
000003d0: 53f4 37bf 6c7b 07bf 8b24 05bf 1b24 2bbf
000003e0: c465 0fbf 40f3 03bf 61e1 f7be df98 10bf
000003f0: 39a9 36bf 308a 0bbf 829b fcbe d5ce 34bf

fc3.bias f4 [16]
-0.8153394 -0.57756704 -0.3974313 -0.5629392 -0.803352 -0.7735424 -1.5676727 -1.1750017
-0.57941854 -0.5195876 -0.79839456 -0.51245993 -1.264121 -0.35994226 -1.2870861 -0.8214299
00000000: 15ba 50bf 6fdb 13bf 1e7c cbbe c91c 10bf
00000010: 7aa8 4dbf e006 46bf 80a9 c8bf 7566 96bf
00000020: c654 14bf b103 05bf 9663 4cbf 9330 03bf
00000030: b8ce a1bf 5a4a b8be 3dbf a4bf 3b49 52bf

fc4.weight f4 [1, 16]
-0.3579756 -0.29983884 -0.4195054 0.50438184 -0.36093336 -0.3157133 0.42778987 -0.25837445
0.44913262 -0.2980094 -0.33427474 0.5330644 0.22555561 -0.28572637 -0.1428814 -0.17150709
00000000: 9448 b7be 7a84 99be 69c9 d6be 2b1f 013f
00000010: 42cc b8be 2ca5 a1be 4607 db3e a849 84be
00000020: b6f4 e53e b094 98be 0f26 abbe e976 083f
00000030: 0df8 663e ba4a 92be 804f 12be 8e9f 2fbe
