results/model_lstm.pt (torch, 526306 bytes, 17 tensors)

weight_ih_l0 f4 [256, 50]
0	0x3e87a45a	0.26492578
1	0x3e5c20cf	0.2149689
2	0x3e21782a	0.15768495
3	0x3e5d5e45	0.21617992
4	0x3d125407	0.035724666
5	0x3da62572	0.08112611
6	0x3d9a72d1	0.07541431
7	0x3e232371	0.15931489
8	0x3e1e8a60	0.15482473
9	0x3e260f90	0.16216874
10	0x3e325308	0.17414486
11	0x3e6d76a7	0.23189794
12	0x3d840158	0.06445569
13	0x3dd2a681	0.10285664
14	0x3e17364d	0.14766808
15	0x3e645724	0.22298867
16	0x3e7b17a5	0.24520738
17	0x3db888f8	0.090105
18	0x3e8775ac	0.26456964
19	0x3dd2b57b	0.10288521
20	0x3e408d2c	0.18803853
21	0x3e186b8e	0.14884779
22	0x3e69492c	0.22781819
23	0x3e6954db	0.22786276
24	0x3e89d929	0.26923493
25	0x3e721a75	0.23642905
26	0x3dcdecf8	0.10054964
27	0x3e14bb9c	0.14524692
28	0x3e8cf667	0.2753174
29	0x3cfd2465	0.030901143
30	0x3e86667e	0.2625007
31	0x3e7c03a3	0.24610762
32	0x3dbded22	0.09273745
33	0x3da7e3ae	0.08197723
34	0x3dfab58d	0.12241659
35	0x3e7bddae	0.24596283
36	0x3e28e94d	0.16495247
37	0x3dc68da4	0.096949846
38	0x3d24b461	0.040211085
39	0x3e6deeff	0.23235701
40	0x3d167e7c	0.03674172
41	0x3ddc9b72	0.10771836
42	0x3e49df60	0.19714117
43	0x3e1347e3	0.14382891
44	0x3e1cf767	0.15328752
45	0x3e5cf42c	0.21577519
46	0x3e637178	0.22211254
47	0x3e8975a9	0.2684758
48	0x3dad7ad7	0.084706955
49	0x3e57dbde	0.21079966
50	0x3d3c5900	0.045983315
51	0x3e69f310	0.22846627
52	0x3d0f6dcd	0.035016824
53	0x3d0093fd	0.031391133
54	0x3dfa576f	0.12223708
55	0x3e3020f5	0.17200072
56	0x3d5d2917	0.053994264
57	0x3e423641	0.18966009
58	0x3df7477d	0.12074182
59	0x3c3afb5c	0.011412468
60	0x3dfba1ce	0.12286721
61	0x3e717bf8	0.23582447
62	0x3dd0a29a	0.10187264
63	0x3e0f65e9	0.1400372
64	0x3dd45f88	0.10369784
65	0x3e1211d6	0.14264616
66	0x3d6d6195	0.05795439
67	0x3e4649b4	0.19364053
68	0x3df34936	0.11879198
69	0x3e2b7668	0.16744387
70	0x3d74a585	0.059728164
71	0x3e4411be	0.19147393
72	0x3bbca14c	0.005756533
73	0x3dc03a20	0.093860865
74	0x3dcdf331	0.10056151
75	0x3c08688d	0.008325708
76	0x3e0704b2	0.13185385
77	0x3dc59dd2	0.096492425
78	0x3d22831a	0.03967581
79	0x3e163e9d	0.14672323
80	0x3d4b4b42	0.04963232
81	0x3d90b011	0.07064832
82	0x3e22c401	0.15895082
83	0x3deeb644	0.11655858
84	0x3dcddedb	0.10052272
85	0x3e4f0da6	0.2022005
86	0x3c9b6886	0.01897074
87	0xbc1a57db	-0.00942036
88	0x3e65b6b4	0.22432977
89	0x3e3332ec	0.17499894
90	0x3e670324	0.22559792
91	0x3d896193	0.06708064
92	0x3d75b6cd	0.059988786
93	0x3e2e57d7	0.17025696
94	0x3dac609e	0.08416866
95	0x3e3851e7	0.17999993
96	0xbbf1ae01	-0.007375479
97	0x3e016f27	0.12640058
98	0x3e1c832d	0.15284415
99	0x3e6c4590	0.23073411
100	0x3e58644f	0.21132015
101	0x3e26ce11	0.16289546
102	0x3e2de2c0	0.1698103
103	0x3e821711	0.25408223
104	0x3e5f5f57	0.21813713
105	0x3e67a5ff	0.22621916
106	0x3e235955	0.15952046
107	0x3de889d7	0.11354416
108	0x3d561239	0.052263472
109	0x3c28d8df	0.010305612
110	0x3d4c87c1	0.049934153
111	0x3c9726ef	0.018451182
112	0x3da91897	0.08256643
113	0x3dd9bf05	0.10632137
114	0x3e80e02a	0.25171024
115	0x3dcd61da	0.10028429
116	0x3dd68d23	0.104761384
117	0x3d8d8030	0.069092155
118	0x3e4ce4b3	0.20009117
119	0x3e3ba5af	0.18324922
120	0x3d5b71d5	0.053575356
121	0x3d3f4267	0.046694186
122	0x3e1a0004	0.15039068
123	0x3e0ba374	0.13636571
124	0x3db6e267	0.089299016
125	0x3e1d5ed9	0.15368213
126	0x3d4ad948	0.04952362
127	0x3e24d715	0.16097672
128	0x3de5e27a	0.112248376
129	0x3e5a1a60	0.21299124
130	0x3d2266f1	0.039648954
131	0x3e0b8cc8	0.13627923
132	0x3cabdb53	0.020978605
133	0x3e6a586f	0.22885297
134	0x3d35c97d	0.044381607
135	0x3dd6c957	0.10487621
136	0x3e0eab55	0.13932545
137	0x3d8c845b	0.06861182
138	0x3e6b4996	0.2297729
139	0x3e7d322c	0.2472617
140	0x3e24f574	0.16109258
141	0x3e7d9181	0.24762537
142	0x3d66e40f	0.056369837
143	0x3e1724e8	0.14760172
144	0x3e7a7b50	0.24461102
145	0x3e4df5cf	0.201133
146	0x3c9d21c2	0.019181136
147	0x3e48f100	0.19623184
148	0x3d996c8a	0.07491405
149	0x3e3a11ed	0.181709
150	0xbee91117	-0.4552085
151	0xbefc7dd4	-0.4931475
152	0xbf0fe8ad	-0.5621441
153	0xbebe48c2	-0.37164885
154	0xbf007a55	-0.50186664
155	0xbf014067	-0.50488895
156	0xbf0207fb	-0.5079343
157	0xbf04ce78	-0.51877546
158	0xbeebb212	-0.46034294
159	0xbee749b9	-0.45173433
160	0xbeb01e95	-0.34398332
161	0xbef6244a	-0.4807456
162	0xbebbac63	-0.36654958
163	0xbec04a0e	-0.375565
164	0xbf2a0a24	-0.66421723
165	0xbeb5e0b6	-0.35523003
166	0xbec56d38	-0.3855989
167	0xbefc2c6c	-0.4925264
168	0xbedab787	-0.42718145
169	0xbeef9fb6	-0.46801537
170	0xbed1f8bd	-0.41010085
171	0xbf016eb9	-0.50559574
172	0xbf06476d	-0.5245274
173	0xbea73fe4	-0.32665932
174	0xbf2b5df0	-0.6694021
175	0xbee9f7aa	-0.45696765
176	0xbeb982e6	-0.3623268
177	0xbefc19de	-0.49238485
178	0xbed1c413	-0.40969905
179	0xbef7b24b	-0.48378214
180	0xbecb8259	-0.39747885
181	0xbef0c281	-0.47023395
182	0xbea8caa4	-0.32967103
183	0xbec4b736	-0.3842103
184	0xbeedbe44	-0.46434224
185	0xbeb555c0	-0.35416985
186	0xbf002c45	-0.5006755
187	0xbea9160f	-0.33024642
188	0xbeecbe67	-0.46239015
189	0xbefb4817	-0.49078438
190	0xbf045478	-0.5169139
191	0xbec1e3d1	-0.37869123
192	0xbefb9752	-0.49138886
193	0xbf1138a8	-0.56727076
194	0xbef8e5d5	-0.48612848
195	0xbea515e6	-0.3224327
196	0xbf0b8d00	-0.54512024
197	0xbec7dc54	-0.39035285
198	0xbf11d006	-0.56958044
199	0xbee98b07	-0.45613882
200	0x3c9eb95c	0.019375496
201	0xbdc99677	-0.09843152
202	0xbe15c1ce	-0.14624712
203	0xbc806a1c	-0.015675597
204	0x3c1c1d0c	0.00952841
205	0xbdade511	-0.084909566
206	0xbb12e649	-0.0022415093
207	0xbd2da0d4	-0.042389706
208	0xbd882d6f	-0.06649291
209	0xbde4f501	-0.11179543
210	0xbda47b07	-0.08031278
211	0xbe57748f	-0.21040557
212	0xbe48be05	-0.19603737
213	0xbde22a2e	-0.110432014
214	0xbe0d3747	-0.13790618
215	0xbe18461f	-0.14870499
216	0xbe1440fa	-0.14477912
217	0xbda2fc77	-0.0795831
218	0xbd5cd398	-0.05391273
219	0xbd12b496	-0.03581675
220	0x3c324c3a	0.010882432
221	0xbb42a7d6	-0.0029702089
222	0x3bf66999	0.0075199124
223	0xbcce85e1	-0.025210323
224	0xbe5090f1	-0.20367791
225	0xbe0e0b6f	-0.13871549
226	0xbe1ec119	-0.15503348
227	0xbdb3fcf0	-0.087884784
228	0x3bb6a4b6	0.0055738343
229	0xbdc433ca	-0.095801905
230	0x3ca6f1d1	0.020378979
231	0xbe05c4ff	-0.1306343
232	0xbd7cd28e	-0.061724238
233	0xbc40bfe7	-0.011764503
234	0xbda7e578	-0.081980646
235	0xbbf67a77	-0.007521923
236	0xbe2f98f1	-0.17148186
237	0xbe44e209	-0.1922685
238	0xbc89df4c	-0.016830109
239	0xbe650546	-0.22365293
240	0xbe1cb1bc	-0.15302175
241	0xbdae7342	-0.085180774
242	0xbd6da010	-0.058013976
243	0xbe1e3237	-0.15448843
244	0xbe193af8	-0.14963901
245	0xbda8579a	-0.08219834
246	0xbe1cd5f2	-0.15315989
247	0xbde77d32	-0.11303176
248	0xbd8d16a0	-0.06889081
249	0xbd9e9014	-0.077423245
250	0x3e03df60	0.1287818
251	0x3e3171e2	0.17328599
252	0xbb9e5562	-0.004831956
253	0x3e33eac1	0.1757002
254	0x3e61c572	0.22047976
255	0x3d6fa102	0.05850316

weight_hh_l0 f4 [256, 64]
0	0x3dac7700	0.08421135
1	0x3d500a88	0.050791293
2	0xbd326718	-0.04355535
3	0xbc23af70	-0.009990558
4	0x3dec146e	0.11527334
5	0xbdf1ff7e	-0.118163094
6	0x3c1beb40	0.009516537
7	0xbd4e2afc	-0.05033396
8	0x3df011c6	0.1172214
9	0xbb6e9c40	-0.003640905
10	0x3cd9dfc8	0.026595965
11	0x3b17af00	0.002314508
12	0xbdfdbfae	-0.123900756
13	0x3d155968	0.036462218
14	0x3b88b720	0.004172221
15	0xbdf8dc24	-0.121513635
16	0x3da3784c	0.07981929
17	0x3df76f18	0.12081736
18	0x3d9c8a00	0.07643509
19	0xbde81f02	-0.11334039
20	0x3d3eaa74	0.046549276
21	0x3b2f5cc0	0.0026758164
22	0x3d2f0910	0.042733252
23	0x3dc4b68c	0.096051306
24	0x3cccc310	0.024995357
25	0x3db0e978	0.08638281
26	0xbd8b88ec	-0.06813225
27	0xbddbbe6a	-0.10729678
28	0x3db5cb20	0.08876634
29	0xbdbefd6a	-0.09325679
30	0xbd9633fa	-0.073341325
31	0x3d2171dc	0.039415225
32	0xbce58f20	-0.028022349
33	0xbd90a1ce	-0.07062112
34	0xbd9559d4	-0.07292524
35	0x3dc99584	0.09842971
36	0xbd97704e	-0.07394467
37	0x3ccd8128	0.025086
38	0x3da729ec	0.08162293
39	0xbd39cb60	-0.04535997
40	0xbd1253bc	-0.035724387
41	0x3d9fde60	0.078060865
42	0xbdf53afc	-0.11974141
43	0xbda4cb7e	-0.080466256
44	0x3dd1a538	0.10236591
45	0x3dd393ea	0.10330947
46	0x3c93d298	0.018044755
47	0xbdbecb34	-0.09316102
48	0x3ca73538	0.020411119
49	0x3ca18180	0.01971507
50	0x3d8c6e0e	0.06856929
51	0xbd5e86bc	-0.05432771
52	0xbc7bb9f0	-0.015364155
53	0xbdf6aaea	-0.12044318
54	0x3ddea574	0.108714014
55	0x3d8eacca	0.06966551
56	0x3d0a1494	0.03371103
57	0x3c8f84d8	0.0175194
58	0xbcee0fd0	-0.029060274
59	0xbd877c98	-0.06615561
60	0xbd475314	-0.048663214
61	0x3cd1b718	0.025600001
62	0xbd1a25fc	-0.03763388
63	0x3d371d5c	0.044705734
64	0x3cc9f8d0	0.024654776
65	0xbdb82e22	-0.08993174
66	0x3dd3f9ca	0.10350378
67	0xbda4cf62	-0.08047368
68	0xbd0c5900	-0.034264565
69	0x3d5dac28	0.05411926
70	0xbcdd62c8	-0.027024642
71	0xbd5c56b0	-0.05379361
72	0x3d807476	0.06272213
73	0x3d387180	0.045030117
74	0x3b987580	0.004652679
75	0xbd2d6680	-0.04233408
76	0xbded9966	-0.11601524
77	0x3df669da	0.12031908
78	0xbd7d2e70	-0.061811864
79	0x3dbbeef8	0.09176439
80	0xbdca6066	-0.09881668
81	0xbd39d6f0	-0.045370996
82	0xb94c6400	-0.00019492209
83	0x3d829cca	0.063775614
84	0xbd6c6a14	-0.05771835
85	0x3cdf2ff8	0.027244553
86	0xbdbbd3c2	-0.09171249
87	0x3ddceb96	0.10787122
88	0x3bb129a0	0.0054065734
89	0x3b41c240	0.0029565245
90	0x3c8bea60	0.017079532
91	0xbd7c9628	-0.061666638
92	0xbdb80c44	-0.089867145
93	0xbc5b1fa0	-0.013374239
94	0x3c30c670	0.010789499
95	0xbce6aac0	-0.028157592
96	0xbd0fc04c	-0.035095498
97	0xbd84b804	-0.06480411
98	0x3d64b08c	0.05583243
99	0x3d26a95c	0.040688857
100	0x3d294568	0.041325957
101	0x3df40114	0.11914268
102	0xbd164c80	-0.03669405
103	0x3db40dde	0.087917075
104	0x3dee0c64	0.11623457
105	0x3dd21724	0.1025832
106	0x3da200cc	0.07910308
107	0x3cfc78a0	0.030819237
108	0xbd3c887c	-0.0460286
109	0xbd92f55c	-0.07175705
110	0xbdadf54a	-0.08494051
111	0x3cf07ec8	0.029357329
112	0xbd92360a	-0.071392134
113	0xbd791c68	-0.060818106
114	0x3cae44a0	0.021272957
115	0xbddbff42	-0.10742046
116	0xbcfb9ab8	-0.030713424
117	0x3d604368	0.054751784
118	0x3ce91780	0.028453588
119	0x3d757df8	0.059934586
120	0xbce3e9f8	-0.027821526
121	0x3df97c9a	0.12181969
122	0x3d822b1c	0.06355879
123	0xbd1bfcc0	-0.038082838
124	0xbdc0edb4	-0.09420338
125	0xbdf811ae	-0.12112747
126	0x3de1981c	0.11015341
127	0x3cc63938	0.024197206
128	0x3d577214	0.052599028
129	0xbdb66d92	-0.08907618
130	0x3d8ff0a0	0.070283175
131	0xbc630a60	-0.013857454
132	0xbd16b37c	-0.036792263
133	0xbd50ba98	-0.0509592
134	0xbd067a0c	-0.032831237
135	0xbd1b2914	-0.037880972
136	0xbd9a5768	-0.07536203
137	0xbd0eade0	-0.03483379
138	0xbd7e0bb0	-0.062022865
139	0x3db8b0cc	0.09018096
140	0xbde90710	-0.113783
141	0xbd2f9c1c	-0.042873487
142	0x3d90e134	0.07074204
143	0xbdb47b4e	-0.08812581
144	0xbdc9b44e	-0.098488435
145	0xbda0f84c	-0.07859859
146	0xbd6b868c	-0.05750136
147	0x3dda3dc0	0.10656309
148	0xbd4be74c	-0.04978113
149	0x3ce36f58	0.027763054
150	0x3d3587cc	0.04431896
151	0x3d4876d8	0.048941463
152	0xbd2f19d8	-0.042749256
153	0x3d5aa3b8	0.05337879
154	0xbdee5670	-0.116375804
155	0xbd4d98b8	-0.050194472
156	0xbd6cc020	-0.057800412
157	0x3de30f4e	0.110869035
158	0x3d019a70	0.031641424
159	0x3cbb9410	0.02289775
160	0xbda19f90	-0.07891762
161	0xbd4e2fa4	-0.050338402
162	0x3cab50c8	0.020912543
163	0xbdabc56c	-0.083872646
164	0xbde8674e	-0.11347829
165	0x3cdfabb0	0.027303547
166	0x3ccffec0	0.025390029
167	0xbd6c54fc	-0.057698235
168	0x3d3ced78	0.046124905
169	0x3dc239b2	0.09483661
170	0xbdf278a8	-0.118394196
171	0xbcbbfaf8	-0.02294682
172	0x3c63c540	0.0139020085
173	0x3d9d4d6c	0.07680783
174	0x3dea105a	0.114289
175	0x3d85a82c	0.06526217
176	0xbb1e3080	-0.0024137795
177	0xbcd1d4f0	-0.025614232
178	0x3dc01556	0.093790695
179	0xbba11660	-0.0049159974
180	0x3c8eceb8	0.017432556
181	0xbd68697c	-0.056741223
182	0xbcbea250	-0.023270756
183	0x3df343fc	0.11878201
184	0x3df72258	0.120670974
185	0x3deca620	0.11555123
186	0x3bd075e0	0.006361708
187	0x3abeb700	0.0014550388
188	0xbdd17636	-0.10227625
189	0xbcf04480	-0.029329538
190	0xbc932488	-0.017961755
191	0x3cd9ff20	0.02661091
192	0x3c0dc5e0	0.008653134
193	0xbd99a824	-0.075027734
194	0x3d862102	0.065492645
195	0xbd87111a	-0.06595059
196	0xbd79acf0	-0.06095594
197	0xbd045f14	-0.032317236
198	0x3c5c9c20	0.0134649575
199	0xbd38dc6c	-0.045132086
200	0xbdbd2c34	-0.09236947
201	0xbce45eb0	-0.027877182
202	0xbdb41f56	-0.08795039
203	0x3df22f60	0.11825442
204	0xbdca7884	-0.09886268
205	0x3df83142	0.1211877
206	0x3d6269e4	0.055276766
207	0x3c8aa8b8	0.016926154
208	0xbd71a1c8	-0.058992177
209	0x3d472310	0.048617423
210	0xbd82051e	-0.06348632
211	0x3df6f682	0.120587364
212	0xbd8f447c	-0.06995484
213	0xbdf77c4c	-0.120842546
214	0xbd71a7a8	-0.05899778
215	0x3d580bd4	0.052745655
216	0x3ca121d8	0.019669458
217	0x3d9a500c	0.07534799
218	0x3df4ed1c	0.119592875
219	0x3dfba1f8	0.122867525
220	0xbda98a0e	-0.08278285
221	0xbbb77a40	-0.00559929
222	0xbd984636	-0.07435267
223	0x3c0cb670	0.008588418
224	0xbba2da40	-0.004969865
225	0xbd5825e4	-0.05277051
226	0xbc3fc470	-0.011704549
227	0x3d73cd00	0.059521675
228	0x3dbe0d90	0.092799306
229	0xbdc0303c	-0.093842
230	0x3dd27f9c	0.10278246
231	0xbdccdc22	-0.100029245
232	0x3dce8c44	0.10085347
233	0x3cee6c20	0.029104292
234	0x3c3c9850	0.0115109235
235	0x3d5acb20	0.05341637
236	0x3dfae4f8	0.122507036
237	0xbd9f9d32	-0.077936545
238	0x3d776390	0.060397685
239	0xbde447fc	-0.111465424
240	0x3ddada38	0.10686153
241	0xbd57390c	-0.05254464
242	0x3dc80e36	0.097683355
243	0x3d0daedc	0.034590587
244	0xbd3b7700	-0.045767784
245	0x3d7a7730	0.061148822
246	0xbd1e9fb0	-0.03872651
247	0x3d2bd818	0.04195413
248	0xbde98d78	-0.11403936
249	0x3d2ec2a8	0.042666107
250	0x3c90e7e8	0.017688707
251	0xbdce1db0	-0.10064256
252	0x3c5aa730	0.013345525
253	0x3da1b96c	0.078966945
254	0x3dbddb06	0.09270291
255	0xbdc60526	-0.09668951

bias_ih_l0 f4 [256]
0	0x3e8db803	0.27679452
1	0xbf781e36	-0.969211
2	0xbf99c739	-1.2013923
3	0xbedf72e5	-0.43642345
4	0x3dd9298f	0.1060363
5	0xbf7388ab	-0.95130414
6	0x3ecd9bad	0.40157834
7	0x3e41ae1d	0.18914075
8	0xbf8762e8	-1.0577059
9	0xbd4c40a9	-0.049866352
10	0x3e170a04	0.14749914
11	0xbf3eff23	-0.7460806
12	0xbf789d44	-0.9711497
13	0xbf8a8c0a	-1.0823987
14	0xbf8fcc29	-1.123418
15	0x3ec09ca3	0.37619504
16	0x3e064978	0.13113964
17	0x3d1f5264	0.038896933
18	0x3f0e3b95	0.55559665
19	0xbf92bf84	-1.1464696
20	0xbf2bb21a	-0.67068636
21	0xbdfbb9f2	-0.12291326
22	0x3ea97498	0.33096766
23	0xbeeadf82	-0.45873648
24	0x3d9e257c	0.07721993
25	0x3c5f0f09	0.0136144245
26	0x3ee63ec9	0.44969776
27	0xbf556d19	-0.83369595
28	0xbf071443	-0.5276529
29	0xbe213a3c	-0.15744871
30	0xbf867063	-1.0503048
31	0xbf903e1c	-1.1268954
32	0xbf2016c6	-0.6253475
33	0x3edc0508	0.4297259
34	0x3ce08f0c	0.02741196
35	0xbf71e00d	-0.944825
36	0xbf8b773b	-1.0895761
37	0x3eef6222	0.46754557
38	0x3dcbc161	0.099489935
39	0xbeca0e82	-0.39464194
40	0xbfa75c58	-1.3075056
41	0x3e54c237	0.20777212
42	0xbee735fc	-0.45158374
43	0xbf4a8a03	-0.7911684
44	0x3eaa38a4	0.33246338
45	0x3ea9df19	0.33178023
46	0xbe92a932	-0.2864471
47	0x3c9bd156	0.019020718
48	0xbeed7174	-0.4637562
49	0x3edd46f1	0.43218186
50	0xbf5b3e6f	-0.8564214
51	0x3e998091	0.299809
52	0x3ebafd86	0.36521548
53	0x3ea42581	0.32059863
54	0xbf69f4f2	-0.9138938
55	0xbf818d1a	-1.0121186
56	0xbf86f38d	-1.0543076
57	0xbf5d7c8a	-0.86518157
58	0x3ed1aee4	0.40953743
59	0x3e941861	0.2892485
60	0xbf9e311a	-1.2358735
61	0x3edac0f5	0.4272534
62	0xbf12501e	-0.571535
63	0xbf64f3d9	-0.8943458
64	0xbd6dc4bc	-0.05804895
65	0xbb1111c0	-0.0022135824
66	0x3ddace3a	0.10683866
67	0x3da82938	0.08210987
68	0xbddcb4b8	-0.10776657
69	0x3d5c97f0	0.053855836
70	0x3d7ab878	0.06121108
71	0x3d8d3090	0.06894028
72	0xbda6798c	-0.08128652
73	0x3cae3a60	0.02126807
74	0xbda479f2	-0.08031072
75	0xbca61ae8	-0.020276502
76	0xbdc8367a	-0.097760156
77	0xbd298cfc	-0.04139422
78	0xbdf6e8d0	-0.12056124
79	0xbdafac3a	-0.085777715
80	0x3df88980	0.12135601
81	0x3dd9ab54	0.10628381
82	0x3a835900	0.0010021031
83	0xbd8686c0	-0.0656867
84	0xbdd92190	-0.10602105
85	0x3d23d59c	0.039998636
86	0xbbc84420	-0.0061116368
87	0x3dc8790c	0.09788713
88	0x3df015e2	0.11722924
89	0x3c09f0b0	0.008419201
90	0xbd914b14	-0.07094398
91	0xbd871ec6	-0.065976664
92	0xbc8539c0	-0.016262889
93	0xbda8f868	-0.08250505
94	0x3d2bbe94	0.041929796
95	0x3da0b2b2	0.078465834
96	0xbde1b5b0	-0.11020982
97	0x3ddd1d8c	0.10796651
98	0xbcc1b458	-0.023645565
99	0x3dc6730e	0.09689914
100	0xbdf260d8	-0.11834878
101	0xbdd92202	-0.106021896
102	0xbd2e7b80	-0.042598248
103	0x3d0c72a8	0.034289032
104	0xbd9fe3f0	-0.078071475
105	0xbd324268	-0.04352036
106	0xbdf6a738	-0.12043613
107	0x3dad5e64	0.08465269
108	0xbd1ea4a0	-0.038731217
109	0x3d90c2de	0.07068418
110	0x3d57a06c	0.052643225
111	0x3d22e25c	0.039766654
112	0xbc381bd0	-0.0112371
113	0x3d7fe428	0.062473446
114	0xbdc9ffae	-0.0986322
115	0xbc15bcd0	-0.009139255
116	0x3dc12896	0.09431569
117	0x3cc76290	0.02433899
118	0xbddebe10	-0.10876095
119	0xbddecd18	-0.10878962
120	0x3dfd68ca	0.123735026
121	0x3dd11110	0.102083325
122	0xbdfaac10	-0.122398496
123	0xbdb1ca36	-0.08681147
124	0x3d2e7920	0.042595983
125	0x3d82c1e6	0.063846394
126	0xbdc9c902	-0.09852792
127	0x3d9e4ed8	0.07729882
128	0x3f1b17bd	0.60583097
129	0x3e8944b5	0.26810232
130	0x3e2f2bec	0.17106599
131	0x3ea22be4	0.3167411
132	0x3f0ec328	0.55766535
133	0xbdd5ade5	-0.104335584
134	0xbfa1171e	-1.258518
135	0x3f2dbee8	0.67869425
136	0xbe36aa1a	-0.17838326
137	0xbf5b83e5	-0.8574813
138	0x3ef29c9a	0.47385103
139	0x3e744aeb	0.23856704
140	0x3e6c3dbb	0.23070423
141	0x3e2acf79	0.16680707
142	0x3e91ce3e	0.28477663
143	0xbf8e8bae	-1.1136377
144	0xbee987cb	-0.45611414
145	0x3edd18ec	0.43183076
146	0x3f4ee0ba	0.80811656
147	0x3b56a42b	0.003275166
148	0x3e1d0598	0.15334165
149	0x3eec86e0	0.4619665
150	0x3f2e8781	0.6817551
151	0xbea8a31a	-0.32936937
152	0xbefe609d	-0.49683085
153	0xbf0d2c37	-0.5514559
154	0xbf153174	-0.58278584
155	0x3eace5d6	0.337691
156	0xbe20721e	-0.15668532
157	0x3ec1b927	0.37836573
158	0xbe0d0aac	-0.13773602
159	0x3e55efca	0.20892254
160	0xbead5236	-0.33851784
161	0x3f31cbab	0.694514
162	0xbef2cdf9	-0.4742277
163	0x3e10b945	0.14133175
164	0x3e24ccc2	0.16093734
165	0x3f2690ed	0.6506489
166	0xbefb353d	-0.49064055
167	0x3f019883	0.5062334
168	0x3da8c5fb	0.08240887
169	0x3f22f01a	0.63647616
170	0x3ed19ab3	0.4093834
171	0xbe815f7a	-0.25268155
172	0x3f30cc5d	0.69061834
173	0x3f0dd68d	0.55405504
174	0xbefe3820	-0.49652195
175	0x3f03c496	0.5147184
176	0x3ee7c151	0.45264676
177	0xbf2f4b2f	-0.68474096
178	0xbeb832b6	-0.3597619
179	0x3eea030a	0.45705444
180	0xbf49b931	-0.78798205
181	0xbf273fd5	-0.65331775
182	0x3e391fa6	0.18078479
183	0xbe087435	-0.1332558
184	0xbeb0167d	-0.34392157
185	0xbe37b219	-0.17939033
186	0x3f010222	0.5039388
187	0x3f07d0f2	0.530532
188	0x3e58b239	0.21161737
189	0xbf1ef46f	-0.62091726
190	0xbe67ecab	-0.22648875
191	0xbe622efd	-0.22088237
192	0x3dd62b43	0.1045747
193	0xbf73ab5c	-0.9518335
194	0xbf87518b	-1.057176
195	0xbf01adbf	-0.5065574
196	0x3e716e06	0.23577127
197	0xbf85200e	-1.0400407
198	0x3ed19935	0.409372
199	0x3e509fe4	0.20373493
200	0xbf86451c	-1.048984
201	0x3be39ff9	0.0069465605
202	0x3dc932d2	0.09824146
203	0xbef2aaac	-0.47395837
204	0xbf8add78	-1.0848837
205	0xbf7ab113	-0.97926444
206	0xbf8e5103	-1.1118473
207	0x3f02b01a	0.5104996
208	0x3ddc8b31	0.10768736
209	0xbe5de8f8	-0.21670902
210	0x3f072374	0.5278847
211	0xbfa2fd21	-1.2733499
212	0xbf50e786	-0.81603277
213	0xbe6c198a	-0.23056617
214	0x3ec3fc4d	0.38278428
215	0xbf25e1c0	-0.6479759
216	0x3c34905d	0.011020747
217	0xbb7d808d	-0.0038681359
218	0x3ec89fff	0.39184567
219	0xbf37da48	-0.71817446
220	0xbf14f671	-0.5818854
221	0xbea1c599	-0.31596068
222	0xbf8c9336	-1.0982425
223	0xbf842f3f	-1.0326918
224	0xbf189f1c	-0.5961778
225	0x3f070936	0.5274843
226	0xbe096c2f	-0.13420175
227	0xbf80bf08	-1.0058298
228	0xbf86399a	-1.0486329
229	0x3e8c4b3d	0.27401152
230	0x3e2952e1	0.16535522
231	0xbf333ef9	-0.70017964
232	0xbf86a90e	-1.0520341
233	0x3edd78bd	0.43256178
234	0xbf1bc15a	-0.60841906
235	0xbf3d4eca	-0.7394835
236	0x3e85a8d8	0.2610538
237	0x3e86be7b	0.263172
238	0xbec19286	-0.378071
239	0x3d06ff4c	0.032958314
240	0xbec72649	-0.38896397
241	0x3e8dae9f	0.27672288
242	0xbf1828d1	-0.5943728
243	0x3eb217e4	0.34783852
244	0x3eaea364	0.34109032
245	0x3e890efd	0.26769248
246	0xbf79f3c1	-0.97637564
247	0xbf76512f	-0.96217626
248	0xbf891b65	-1.0711485
249	0xbf29eb27	-0.6637444
250	0x3e87dad2	0.26534134
251	0x3e259f3a	0.16174021
252	0xbf95101b	-1.164554
253	0x3f066116	0.5249189
254	0xbf085198	-0.532495
255	0xbf5d5175	-0.8645242

bias_hh_l0 f4 [256]
0	0x3def2e83	0.11678793
1	0xbf8f64c6	-1.1202629
2	0xbf90c991	-1.1311513
3	0xbf1cc82f	-0.61242956
4	0x3db3bb03	0.08775904
5	0xbf8e5b80	-1.1121674
6	0x3ec1fea0	0.37889576
7	0x3e8f6009	0.28002957
8	0xbf5cb763	-0.86217326
9	0x3e06fb1c	0.13181728
10	0x3d5b3319	0.053515527
11	0xbf224718	-0.6338973
12	0xbf85297a	-1.0403283
13	0xbfa4650a	-1.2843335
14	0xbf8bd7db	-1.0925249
15	0x3eebd9e5	0.46064678
16	0x3d4e7bd7	0.05041107
17	0xbdca13ea	-0.098670796
18	0x3f178c3f	0.59198374
19	0xbf994924	-1.1975446
20	0xbf6170af	-0.88062567
21	0xbe0919e4	-0.13388783
22	0x3e9083c0	0.28225517
23	0xbf1e0e21	-0.6174031
24	0x3c9bb297	0.019006057
25	0x3db7f42b	0.08982118
26	0x3ebf26df	0.37334344
27	0xbf7169ff	-0.9430236
28	0xbf0916c9	-0.5355039
29	0xbdcb805d	-0.09936593
30	0xbf8a2836	-1.0793521
31	0xbf87c0d5	-1.0605723
32	0xbf0eb93f	-0.55751413
33	0x3eeb9a7e	0.46016306
34	0xbdc7e416	-0.09760301
35	0xbf86cabe	-1.0530622
36	0xbf719a73	-0.94376296
37	0x3ea8d493	0.3297468
38	0x3e537798	0.2065109
39	0xbf088361	-0.5332547
40	0xbf94e593	-1.163256
41	0x3e6375c3	0.22212891
42	0xbf148f65	-0.580313
43	0xbf296d49	-0.6618238
44	0x3e935c78	0.28781486
45	0x3ecb849f	0.3974962
46	0xbe83e1e7	-0.25758287
47	0x3d37f8de	0.044915073
48	0xbf2f5b0f	-0.6849832
49	0x3ed51ead	0.41624966
50	0xbf495b85	-0.7865527
51	0x3e49cbf7	0.19706713
52	0x3ecfffa2	0.4062472
53	0x3edd8a7f	0.43269727
54	0xbf7d6122	-0.9897634
55	0xbf5dbcfd	-0.866165
56	0xbf8875db	-1.0660967
57	0xbf495ce2	-0.7865735
58	0x3e830a0f	0.25593612
59	0x3e728c90	0.23686433
60	0xbf96f95a	-1.1794846
61	0x3e73108d	0.23736782
62	0xbf172a09	-0.59048516
63	0xbf90dfff	-1.1318358
64	0xbd36d480	-0.04463625
65	0x3dc0dd28	0.09417182
66	0x3dc27220	0.09494424
67	0x3d8cf59e	0.06882785
68	0x3d59fc6c	0.053219244
69	0xbd04b520	-0.032399297
70	0xbc9de510	-0.019274265
71	0x3dd0150e	0.10160266
72	0xbd24e444	-0.040256754
73	0xbdb89b42	-0.09013988
74	0x3d31f394	0.043445185
75	0x3d5e4bd8	0.05427155
76	0x3ce7fdf0	0.028319329
77	0xbc2b3ff0	-0.010452256
78	0x3da54b1c	0.080709666
79	0xbdd9a126	-0.1062644
80	0xbd0b6528	-0.034032017
81	0xbdc4ffb0	-0.09619081
82	0x3df7413e	0.12072991
83	0xbdf1df5e	-0.11810182
84	0xbd47d1ac	-0.048783943
85	0xbd453b5c	-0.048152313
86	0xbb465bc0	-0.003026709
87	0x3d5511a0	0.05201876
88	0xbdf05bb0	-0.11736238
89	0x3cfb1280	0.03064847
90	0xbd67c4bc	-0.056584105
91	0x3d3eedf8	0.046613663
92	0xbdd387ae	-0.10328613
93	0x3b6770c0	0.0035315007
94	0x3db1727c	0.08664414
95	0x3ddcc08e	0.107789144
96	0xbd6114c0	-0.05495143
97	0x3d8c303e	0.06845139
98	0x3d4e54d0	0.050373852
99	0xbd66d68c	-0.05635695
100	0xbc72dea0	-0.014823586
101	0x3b2c4280	0.0026284754
102	0x3c318dc0	0.0108370185
103	0x3cc6d018	0.024269149
104	0xbdc39c68	-0.095513165
105	0xbdb94b9a	-0.09047623
106	0x3c809520	0.015696108
107	0xbde1eabc	-0.110311
108	0xbdc3d752	-0.095625535
109	0xbdd35044	-0.10318044
110	0x3ddc7c40	0.10765886
111	0xbab88180	-0.001407668
112	0x3d7fa42c	0.062412426
113	0x3d93700c	0.071991056
114	0x3d67b674	0.056570485
115	0x3cbb40a8	0.022857979
116	0x3de16ba2	0.110068575
117	0x3ccbc988	0.024876371
118	0xbc282400	-0.010262489
119	0x3d862fc6	0.06552081
120	0xbd24be0c	-0.040220305
121	0xbd8eaac4	-0.06966165
122	0xbd829134	-0.063753515
123	0xbcf04c30	-0.029333204
124	0xbce78f88	-0.028266683
125	0x3cbb9860	0.022899806
126	0x3d7ba5d0	0.061437428
127	0xbd9db9ac	-0.0770143
128	0x3ee4fd7a	0.44724637
129	0x3e9a564b	0.3014396
130	0x3da1088d	0.07862959
131	0x3f015a8b	0.5052878
132	0x3f0a660f	0.5406198
133	0xbe82d603	-0.25553903
134	0xbf97e72c	-1.1867423
135	0x3eece8cf	0.4627137
136	0xbe80cec0	-0.25157738
137	0xbf66584b	-0.89978474
138	0x3f0cac4d	0.5495041
139	0x3df20e06	0.11819081
140	0x3e1e2d66	0.15447006
141	0x3e198fd3	0.14996271
142	0x3e69af96	0.22820887
143	0xbf892382	-1.0713961
144	0xbf06fda5	-0.5273078
145	0x3efbcce2	0.4917975
146	0x3f81a0a1	1.0127145
147	0x3da84fcd	0.08218346
148	0x3e65e390	0.2245009
149	0x3ee6a0b2	0.45044476
150	0x3f07e5dd	0.5308512
151	0xbecc2a29	-0.39875916
152	0xbef1d2c9	-0.4723113
153	0xbedb6afc	-0.4285506
154	0xbf19d481	-0.6008988
155	0x3e8ba7e4	0.27276528
156	0xbe571110	-0.21002603
157	0x3ef43e7a	0.47703916
158	0xbe1d72ce	-0.15375826
159	0x3e0d5c29	0.13804688
160	0xbe542ab6	-0.20719418
161	0x3f1ed3e8	0.62042093
162	0xbeff1367	-0.4981949
163	0x3e36560d	0.17806263
164	0x3ce40476	0.027834158
165	0x3f296533	0.6617004
166	0xbf15e88c	-0.58557963
167	0x3ee734bf	0.4515743
168	0x3db96fbb	0.09054514
169	0x3f029f3d	0.5102423
170	0x3eadcf86	0.3394739
171	0xbe63b224	-0.22235924
172	0x3f089b32	0.5336181
173	0x3f140ab6	0.57828844
174	0xbeb1ca6b	-0.34724745
175	0x3efc3400	0.49258423
176	0x3f01f281	0.50760657
177	0xbf118ed6	-0.56858575
178	0xbe88a3a9	-0.26687363
179	0x3f26b572	0.65120614
180	0xbf5b52a1	-0.85672957
181	0xbf1c295b	-0.61000603
182	0x3e43174c	0.19051856
183	0xbe4fc135	-0.20288546
184	0xbea18ad9	-0.31551245
185	0xbe8003d7	-0.2500293
186	0x3f2b3678	0.6687999
187	0x3eff9ea7	0.4992573
188	0x3dbca7b0	0.09211671
189	0xbf238fd5	-0.63891345
190	0xbe65986a	-0.22421423
191	0xbe2f9121	-0.17145206
192	0x3e100800	0.14065552
193	0xbf9549f3	-1.1663193
194	0xbf8df70b	-1.1091017
195	0xbf0796f0	-0.5296469
196	0x3d6ee53c	0.058324084
197	0xbf916faa	-1.1362202
198	0x3ec8fa95	0.3925368
199	0x3ed1f689	0.41008404
200	0xbf8b2dae	-1.0873315
201	0x3dd7d42e	0.10538517
202	0x3d323619	0.043508623
203	0xbf00b469	-0.50275284
204	0xbf6ef322	-0.9333974
205	0xbf85891a	-1.0432465
206	0xbf94b25e	-1.1616933
207	0x3eca51e8	0.39515615
208	0x3d8125bd	0.06306026
209	0xbd29d253	-0.041460346
210	0x3f226a95	0.6344388
211	0xbfa05dc3	-1.2528614
212	0xbf524392	-0.82134354
213	0xbe7c5f0a	-0.2464563
214	0x3ebf2c13	0.37338313
215	0xbf06c880	-0.5264969
216	0x3df8cb59	0.121481605
217	0x3d829012	0.063751355
218	0x3ed39a97	0.4132888
219	0xbf30834c	-0.68950343
220	0xbf157e4d	-0.58395845
221	0xbea81043	-0.32824907
222	0xbf7d68cf	-0.9898805
223	0xbf6daf83	-0.92845935
224	0xbf2ebb90	-0.6825495
225	0x3efde3e3	0.49587926
226	0xbe1936b7	-0.14962278
227	0xbf893305	-1.0718695
228	0xbf930e50	-1.1488743
229	0x3e80d1b7	0.2516
230	0x3dc5b5ff	0.096538536
231	0xbf1ced79	-0.61299855
232	0xbf8d6d3f	-1.1048964
233	0x3e7634b5	0.24043544
234	0xbefeec4f	-0.49789664
235	0xbf1d8892	-0.61536515
236	0x3e73bcfd	0.23802562
237	0x3e80ffc2	0.25195128
238	0xbea159a1	-0.31513694
239	0xbc960f78	-0.018317923
240	0xbeab6f16	-0.3348319
241	0x3ee4d989	0.44697216
242	0xbf1b6743	-0.6070444
243	0x3ea99598	0.33121943
244	0x3ea701c4	0.32618535
245	0x3ed0f189	0.40809277
246	0xbf6bc89f	-0.92103
247	0xbf886d33	-1.0658325
248	0xbf896ed6	-1.073695
249	0xbf558848	-0.83411074
250	0x3e8148d0	0.25250864
251	0x3e4f384b	0.20236318
252	0xbf877301	-1.0581971
253	0x3ee0137c	0.43764865
254	0xbf334537	-0.7002749
255	0xbf74c728	-0.9561639

weight_ih_l1 f4 [256, 64]
0	0xbd86f408	-0.06589514
1	0x3e2727af	0.16323732
2	0xbd821ab4	-0.063527495
3	0x3eea3879	0.4574621
4	0x3f02596b	0.5091769
5	0xbf0ec058	-0.55762243
6	0xbf92fb77	-1.1482991
7	0x3dcdbdc5	0.10045961
8	0x3e088f8c	0.13336009
9	0xbf6bf051	-0.9216357
10	0x3ea1a872	0.31573826
11	0x3f608106	0.87696874
12	0xbda2dff6	-0.079528734
13	0xbe5504f4	-0.2080267
14	0xbdd036ed	-0.10166726
15	0xbf922bf3	-1.1419662
16	0x3d91bd79	0.07116217
17	0xbddb8fae	-0.10720764
18	0x3fa0222e	1.2510431
19	0xbdde702f	-0.10861241
20	0x3f181c32	0.5941802
21	0x3e8a79e3	0.27046117
22	0xbd623e3a	-0.055235125
23	0xbedabba0	-0.42721272
24	0xbe119ad3	-0.14219217
25	0x3dd51dfd	0.104061104
26	0xbc938a4e	-0.018010285
27	0xbdb2131a	-0.086950496
28	0xbf77ff03	-0.9687349
29	0xbcac4190	-0.021027356
30	0x3e5578d0	0.20846868
31	0xbc2973cf	-0.010342552
32	0xbf68607e	-0.90772235
33	0x3e1806f5	0.14846404
34	0xbecb438e	-0.39699978
35	0x3e94993e	0.29023165
36	0xbe338a1a	-0.1753315
37	0x3cd1b1d8	0.025597498
38	0x3d06a58d	0.032872725
39	0x3f40dadc	0.7533395
40	0x3f1660c8	0.58741426
41	0x3d98e83f	0.074661724
42	0x3f3e798d	0.7440422
43	0xbf360aa8	-0.7111001
44	0xbdac8a67	-0.08424836
45	0x3e039f66	0.12853774
46	0xbda6499d	-0.08119509
47	0xbd5b2052	-0.05349762
48	0x3f2564fa	0.64607203
49	0xbb635bba	-0.0034692124
50	0xbd3f8905	-0.04676153
51	0x3d31869f	0.043341275
52	0xbf6cd1c1	-0.9250756
53	0x3d03d086	0.032181285
54	0x3f04b2e6	0.5183548
55	0xbf1426e1	-0.57871825
56	0xbe804973	-0.25056037
57	0xbee38f6b	-0.44445357
58	0xbd3e56af	-0.046469387
59	0x3e048582	0.12941554
60	0x3f05c76f	0.52257437
61	0xbe24ae50	-0.1608212
62	0xbf77425b	-0.96585625
63	0xbeab6631	-0.33476403
64	0xbe7b0a26	-0.2451559
65	0xbeac0a29	-0.33601502
66	0xbe9a2e5c	-0.30113494
67	0x3ea29b37	0.31759045
68	0x3ee83bf7	0.4535825
69	0xbf2734e5	-0.65315086
70	0xbe8d7e7b	-0.2763556
71	0xbde0abed	-0.10970292
72	0x3ea45995	0.32099596
73	0xbd4f0e9c	-0.050551042
74	0x3e6c1b75	0.23057349
75	0xbd49f1e0	-0.049302936
76	0xbe116171	-0.14197327
77	0xbe968a2c	-0.29402292
78	0xbef9e9c9	-0.48811176
79	0xbe2c9b3a	-0.16856089
80	0x3e026a62	0.12735894
81	0xbe61dde6	-0.22057304
82	0x3e3e6af7	0.18595491
83	0xbe93e571	-0.28885987
84	0xbe74cf72	-0.23907259
85	0x3e6ddda3	0.23229079
86	0xbe1d80f2	-0.1538122
87	0xbeeb73d2	-0.459868
88	0x3e81fa46	0.25386256
89	0x3e594b3e	0.21220109
90	0x3e094af4	0.13407499
91	0xbe1e3986	-0.15451631
92	0x3e6285d0	0.22121358
93	0xbd936033	-0.07196083
94	0x3e6eebef	0.23332189
95	0xbef3b3a0	-0.4759798
96	0xbe5c4841	-0.21511938
97	0x3b17ddda	0.0023173005
98	0xbee2e657	-0.4431636
99	0xbe9dbdec	-0.3080896
100	0xbec76905	-0.3894731
101	0xbe26dd8a	-0.16295448
102	0x3df651a9	0.12027294
103	0x3e1436fe	0.14474103
104	0x3f1ec3c5	0.6201747
105	0xbe965167	-0.2935898
106	0x3e16fc12	0.14744595
107	0xbd90e8f1	-0.0707568
108	0xbd86cb06	-0.065816924
109	0xbe7ab584	-0.24483305
110	0xbd38de8c	-0.045134112
111	0xbe3614ad	-0.17781325
112	0x3ebc6f88	0.36803842
113	0x3e2bb515	0.16768296
114	0x3e4e38ff	0.2013893
115	0x3d0483c3	0.03235222
116	0x3e487b02	0.19578174
117	0x3e943a9e	0.2895097
118	0x3f154e08	0.5832219
119	0xbef719e2	-0.48261935
120	0x3db00406	0.085945174
121	0x3dfe4a89	0.1241656
122	0xbde6c84c	-0.11268672
123	0xbe861393	-0.2618681
124	0x3f1d08c2	0.6134149
125	0x3df683af	0.120368354
126	0x3c62c216	0.013840219
127	0x3ea57ff1	0.32324174
128	0xbdf4d2f2	-0.11954297
129	0xbe936608	-0.2878878
130	0xbe62009a	-0.22070542
131	0x3ea855d6	0.32877988
132	0x3edf5d64	0.4362594
133	0xbf1f6bcf	-0.6227388
134	0xbeb5cb5b	-0.3550671
135	0xbda448fa	-0.08021732
136	0x3e9a183a	0.30096608
137	0xbd5ca40f	-0.053867396
138	0x3e92d2a4	0.2867633
139	0x3e503e2a	0.20336214
140	0xbe7559e9	-0.23960079
141	0xbe9fa928	-0.31183743
142	0xbea17d71	-0.31541017
143	0xbd30d906	-0.04317572
144	0x3e34282f	0.17593454
145	0xbddd4db8	-0.10805839
146	0x3edf7fa4	0.4365207
147	0xbe65beda	-0.22436085
148	0xbdfa2c7d	-0.12215517
149	0x3eaa2a4d	0.33235398
150	0xbe625bf1	-0.22105385
151	0xbea61c28	-0.32443357
152	0x3db45c94	0.088067204
153	0x3d973170	0.07382476
154	0x3dc0a225	0.094059266
155	0xbe80e864	-0.251773
156	0x3e0036ae	0.12520859
157	0xbe95fdf9	-0.29295328
158	0x3e296358	0.16541803
159	0xbeec5062	-0.46155077
160	0xbe26e011	-0.16296412
161	0x3d4c6367	0.049899485
162	0xbecb0aa5	-0.3965656
163	0xbead46a5	-0.3384296
164	0xbf0a66bc	-0.5406301
165	0xbdcccb8d	-0.09999762
166	0x3d822e18	0.06356448
167	0x3e4fb124	0.20282418
168	0x3f0c2a61	0.54752165
169	0xbe4f1522	-0.20222905
170	0x3eac5edf	0.3366613
171	0x3cb95a85	0.02262617
172	0xbd91937b	-0.07108208
173	0xbd43b0f2	-0.04777617
174	0x3d3a2a0a	0.045450248
175	0xbd9008ee	-0.07032953
176	0x3e613a3a	0.21994868
177	0x3d81c260	0.06335902
178	0x3e2ef6f1	0.17086388
179	0xbb91efea	-0.004453649
180	0xbbb5425d	-0.0055315928
181	0x3dc76089	0.097352095
182	0x3f1ae0be	0.6049918
183	0xbedfb513	-0.43692836
184	0x3e06f39a	0.13178864
185	0xbddc77cc	-0.10765037
186	0xbd85372d	-0.065046646
187	0xbd63e0d2	-0.055634327
188	0x3ee330a7	0.44373056
189	0x3d922bae	0.071372375
190	0xbe88c55e	-0.2671308
191	0x3e4a03f4	0.1972807
192	0xbcdc03d6	-0.026857298
193	0xbe16d302	-0.1472893
194	0xbe3ffc89	-0.18748678
195	0x3f05bb74	0.52239156
196	0x3eeb9bbe	0.4601726
197	0xbf2922b8	-0.660686
198	0xbf6873b3	-0.90801543
199	0xbd019528	-0.031636387
200	0x3e1f4a49	0.15555681
201	0xbf657199	-0.8962646
202	0x3e059a3c	0.13047117
203	0x3f4e8d70	0.80684566
204	0xbe47aec4	-0.19500262
205	0xbe08c0f3	-0.13354854
206	0xbe9794a2	-0.29605585
207	0xbf466c1a	-0.775087
208	0x3e06bbdf	0.13157605
209	0xbc5819c4	-0.013189737
210	0x3f858e99	1.0434142
211	0xbe0a874e	-0.13528177
212	0x3e7862b5	0.24256404
213	0x3ec75e55	0.38939157
214	0xbe1d968f	-0.15389465
215	0xbf08c762	-0.53429234
216	0x3d97c01c	0.07409689
217	0x3c528685	0.012849455
218	0x3dcfdfa1	0.10150076
219	0xbdd9e3fd	-0.106391884
220	0xbf470854	-0.7774708
221	0xbe4ed929	-0.20200028
222	0x3e95b5a1	0.29240134
223	0xbd9ab9f9	-0.07555003
224	0xbf28a61e	-0.65878475
225	0x3da45e95	0.080258526
226	0xbf2d6c08	-0.6774297
227	0xbe9743db	-0.29543957
228	0xbe929158	-0.28626513
229	0xbde8bada	-0.11363764
230	0x3e246466	0.16053924
231	0x3f3a6fb2	0.72826684
232	0x3ed53f3a	0.416498
233	0xbdab7621	-0.08372141
234	0x3f31354b	0.69221944
235	0xbf16f018	-0.58960104
236	0xbd8d7e42	-0.069088474
237	0xbd9e8a49	-0.077412196
238	0x3d0daf05	0.03459074
239	0xbddc7fa4	-0.10766533
240	0x3ea92782	0.33037955
241	0x3e8777f3	0.26458701
242	0x3d35b091	0.04435784
243	0xbe1d214f	-0.15344737
244	0xbec52e7b	-0.38512024
245	0x3d69e376	0.05710169
246	0x3f15393c	0.5829046
247	0xbe8a28a0	-0.2698412
248	0x3ca45c0f	0.020063428
249	0xbee26563	-0.44217977
250	0xbdf1c3d3	-0.11804929
251	0xbda223e2	-0.07917
252	0x3f0848ec	0.5323627
253	0x3bbf423c	0.005836753
254	0xbf452700	-0.77012634
255	0x3d83ca89	0.06435115

weight_hh_l1 f4 [256, 64]
0	0x3dd95816	0.10612504
1	0x3d4a49f0	0.04938692
2	0xbdc1db6e	-0.09465681
3	0xbd0906bc	-0.033453688
4	0x3c3becf0	0.0114700645
5	0xbd096ddc	-0.033552036
6	0xbdbc5870	-0.091965556
7	0x3d8e3dc4	0.069453746
8	0xbd56d820	-0.052452207
9	0xbc965228	-0.018349722
10	0xbb423a80	-0.002963692
11	0x3c3743c0	0.011185586
12	0x3d1afd1c	0.03783904
13	0xbd14609c	-0.036224946
14	0x3cb42f50	0.021995217
15	0xbd999846	-0.07499747
16	0xbd961b80	-0.07329464
17	0x3dcddd90	0.10052025
18	0x3d80a6fe	0.06281851
19	0x3dd5d038	0.10440105
20	0xbceb1c68	-0.028700069
21	0xbc9fa338	-0.019487008
22	0xbd5a1278	-0.05324027
23	0xbc525b70	-0.012839183
24	0xbd8a7002	-0.06759645
25	0xbdd9bc22	-0.106315866
26	0xbdae2122	-0.08502413
27	0xbdefcf34	-0.11709443
28	0x3d766984	0.06015922
29	0xbde567c4	-0.11201432
30	0x3d1ef5b8	0.038808554
31	0x3dce65fe	0.10078047
32	0x3df0cf7e	0.11758326
33	0xbd1556f8	-0.036459893
34	0x3cae0820	0.021244109
35	0xbd9d525a	-0.07681723
36	0x3c945c88	0.018110529
37	0x3d57c2a4	0.05267586
38	0xbc2cf5a0	-0.010556608
39	0x3d7bad44	0.061444536
40	0xbd81ede0	-0.06344199
41	0xbd91c548	-0.071177065
42	0x3dd860e8	0.105653584
43	0x3d996390	0.07489693
44	0x3dd9bd6a	0.10631831
45	0x3db92974	0.0904111
46	0xbd72ad5c	-0.05924736
47	0x3dac8124	0.08423069
48	0x3dbe2714	0.09284797
49	0xbca3b2d0	-0.019982725
50	0xbd3e4340	-0.046450853
51	0x3dfde4e4	0.12397173
52	0x3c8746b8	0.016513214
53	0xbda8d454	-0.082436234
54	0x3c6507b0	0.013978884
55	0xbdd808da	-0.10548563
56	0xbdacb418	-0.08432788
57	0x3db50b50	0.08840048
58	0x3d112594	0.035436228
59	0x3de5ea88	0.11226374
60	0x3d325c98	0.043545336
61	0xbd8219ca	-0.06352575
62	0xbdb6598c	-0.089037985
63	0x3c8d06d8	0.017215177
64	0x3dbdb1f6	0.09262459
65	0xbd25c1ac	-0.040467903
66	0x3df88776	0.12135212
67	0x3b8c3f20	0.004279986
68	0x3dc69fda	0.09698458
69	0x3d960088	0.0732432
70	0xbcc66d58	-0.024222061
71	0xbcc9c5f8	-0.024630532
72	0xbd71a78c	-0.058997676
73	0x3de997e4	0.11405924
74	0xbd866666	-0.065625
75	0xbd68b124	-0.05680956
76	0x3d98f328	0.074682534
77	0x3deb4578	0.114878595
78	0x3d7be25c	0.06149517
79	0x3d304af4	0.04304023
80	0x3d05135c	0.032489166
81	0x3dd9d9c0	0.10637236
82	0xbd8f9c74	-0.07012263
83	0x3decf00c	0.11569223
84	0x3dc05268	0.09390718
85	0xbdd90ff8	-0.10598749
86	0xbdd36fee	-0.10324083
87	0x3d88bc26	0.066765115
88	0xbd6a3858	-0.05718264
89	0xbd6ee840	-0.05832696
90	0x3d850ad0	0.06496203
91	0x3dfda6fc	0.12385365
92	0xbd484c3c	-0.048900828
93	0xbdbe05aa	-0.09278424
94	0x3dc6be24	0.09704235
95	0xbdf77020	-0.12081933
96	0x3d9a30ee	0.07528864
97	0xbd8096de	-0.06278776
98	0x3d09ebb0	0.033672035
99	0xbdcb1990	-0.09916985
100	0x3dc65df0	0.09685886
101	0x3db01fa6	0.085997865
102	0xbd9d7ffc	-0.07690427
103	0x3dd524a8	0.10407382
104	0xbdeb473e	-0.11488198
105	0xbd8fb506	-0.07016949
106	0xbc85e7f8	-0.016345963
107	0xbd24013c	-0.04004024
108	0xbd6ee7a0	-0.058326364
109	0x3d9b87bc	0.07594249
110	0xbbc13500	-0.0058962107
111	0x3dafb87e	0.08580111
112	0x3d384ff4	0.044998124
113	0xbdcd035e	-0.10010408
114	0x3d483988	0.04888299
115	0xbd70f4b4	-0.058827117
116	0xbd47c918	-0.048775762
117	0xbcbe6448	-0.023241177
118	0x3cb02b30	0.021504968
119	0x3dd88522	0.10572268
120	0xbca3e3a8	-0.020006016
121	0x3d92f3c6	0.07175402
122	0xbda70c44	-0.08156636
123	0x3daa9922	0.08329989
124	0xbce950e0	-0.028480947
125	0x3df4ea58	0.1195876
126	0xbbe60400	-0.00701952
127	0x3ceec968	0.029148772
128	0xbd13dfb4	-0.03610201
129	0xbda3fa26	-0.080066964
130	0xbcf49d88	-0.029860273
131	0xbd9ceb4c	-0.07662067
132	0xbc814970	-0.015782088
133	0x3cba74d8	0.022760794
134	0x3d0292f8	0.03187844
135	0x3dfe1460	0.1240623
136	0xbd3e4074	-0.046448186
137	0xbddf16cc	-0.1089302
138	0xbd48d2c4	-0.049029127
139	0xbd95392a	-0.07286294
140	0x3cd0f4a0	0.025507271
141	0x3c1dcbc0	0.009631097
142	0x3ca1ccf8	0.019751057
143	0x3d8bfc78	0.06835264
144	0x3ddd38c6	0.10801844
145	0x3db46dde	0.08810018
146	0x3d389284	0.045061603
147	0xbdcceaea	-0.10005744
148	0x3c09e7a0	0.00841704
149	0xbda402dc	-0.08008358
150	0x3def7fc0	0.11694288
151	0x3dafb61a	0.08579655
152	0x3b4b1580	0.0030988157
153	0x3d8b95cc	0.06815681
154	0xbd88fb76	-0.06688587
155	0x3b3c0200	0.0028687716
156	0xbc8a0828	-0.016849592
157	0x3d3561f0	0.044282854
158	0xbdbb553a	-0.09147115
159	0x3d65b6c4	0.056082502
160	0x3d9428a4	0.07234314
161	0x3de92c52	0.113854066
162	0xbd9a2170	-0.07525909
163	0x3cbce788	0.023059621
164	0x3d0c9030	0.034317195
165	0x3ab75300	0.0013986528
166	0x3da1159e	0.07865451
167	0xbd83120a	-0.06399925
168	0xbde10840	-0.10987902
169	0x38b43000	8.5920095e-05
170	0xbd7832a4	-0.06059517
171	0x3d0a4b48	0.0337632
172	0x3d16d078	0.036819905
173	0xbd9214ea	-0.07132895
174	0xbc23cae0	-0.0099971
175	0x3d3daae8	0.046305567
176	0xbd313eec	-0.043272898
177	0xbd12f624	-0.03587927
178	0xbcf44850	-0.029819638
179	0xbd65c488	-0.05609563
180	0xbc8bf500	-0.017084599
181	0x3ac2ee00	0.0014871955
182	0x3c79d1d0	0.015247777
183	0xbcfe50e0	-0.031044424
184	0xbd7fdfcc	-0.06246929
185	0x3d6952e8	0.05696383
186	0x3b039480	0.0020077527
187	0xbbd32420	-0.0064435154
188	0x3d921e8a	0.07134731
189	0xbdc06eca	-0.09396131
190	0xbd8b7b8e	-0.068106756
191	0xbdd9c58a	-0.10633381
192	0xbd41558c	-0.047200724
193	0x3ccbbfa8	0.024871662
194	0xbdda213e	-0.10650872
195	0x3dd35efa	0.1032085
196	0xbd84f8b0	-0.06492746
197	0xbd28c530	-0.041203678
198	0xbcb17430	-0.021661848
199	0x3dedd1ac	0.11612257
200	0x3dcde372	0.100531474
201	0xbd379050	-0.04481536
202	0xbdd0d852	-0.1019751
203	0x3dc47878	0.0959329
204	0x3c066f70	0.00820528
205	0xbd9ed1b8	-0.077548444
206	0x3dfb59ae	0.122729644
207	0x3c3e5fa0	0.011619478
208	0xbdcb412e	-0.099245414
209	0xbded6af0	-0.11592662
210	0x3d305980	0.043054104
211	0x3bf05860	0.007334754
212	0x3dafb440	0.08579302
213	0x3d88d8ae	0.06681953
214	0xbd0425bc	-0.03226255
215	0x3de718e0	0.112840414
216	0xbd49b108	-0.049241096
217	0x3d676358	0.056491226
218	0xbc8d3cc8	-0.017240897
219	0xbb7c1a40	-0.0038467795
220	0xbd9534ea	-0.07285483
221	0xbd9c0916	-0.076189205
222	0xbd684f4c	-0.05671625
223	0xbb95a680	-0.0045669675
224	0xbd8ea0cc	-0.06964263
225	0xbd0bab84	-0.034099117
226	0xbc8a4430	-0.016878217
227	0x3c051780	0.008123279
228	0x3ddb6a4c	0.10713634
229	0xbdf2c040	-0.11853075
230	0xbc9a7040	-0.018852353
231	0xbdd2ee4e	-0.10299359
232	0xbddca6a0	-0.10773969
233	0xbdf9d6c8	-0.121991694
234	0x3db79ae8	0.08965093
235	0xbdea11a0	-0.11429143
236	0x3d06f0d4	0.032944515
237	0x3dcfceea	0.101468876
238	0x3dbd94f4	0.09256926
239	0x3bd11d20	0.006381646
240	0xbdac4c28	-0.08412963
241	0x3ce593e8	0.028024629
242	0xbca71468	-0.020395473
243	0x3da01514	0.0781652
244	0xbdef0a80	-0.116719246
245	0xbcf052f0	-0.029336423
246	0xbbbf8a20	-0.005845323
247	0xbcdf4fd0	-0.027259737
248	0xbd37e090	-0.044891894
249	0xbdaec648	-0.08533913
250	0xbd9bcc20	-0.07607293
251	0x3d97e24c	0.074162096
252	0xbdd996bc	-0.106244534
253	0x3b872de0	0.004125342
254	0x3dd76a80	0.1051836
255	0xbd6bf10c	-0.057602927

bias_ih_l1 f4 [256]
0	0x3f58c67a	0.8467785
1	0x3e908fee	0.2823481
2	0x3ec80f8f	0.3907437
3	0x3eb720df	0.35767266
4	0xbf527c55	-0.82220966
5	0x3f0067ff	0.50158685
6	0x3eb3c641	0.35112193
7	0x3e9a0446	0.30081385
8	0x3ed43b86	0.41451663
9	0x3f24e9b9	0.6441913
10	0x3f02ed12	0.5114299
11	0x3eae4b4c	0.34041822
12	0x3f552c80	0.83271027
13	0x3ee80613	0.45317134
14	0x3f1fc9dc	0.6241739
15	0x3e92161f	0.28532502
16	0x3eef6468	0.4675629
17	0x3f007965	0.50185233
18	0x3f0896ae	0.5335492
19	0x3ee93784	0.45550168
20	0x3f046d95	0.5172971
21	0x3ee3b2a7	0.44472238
22	0x3ec80224	0.39064133
23	0x3ecc9cdc	0.39963424
24	0x3eefd5d5	0.46842828
25	0x3e9dbfb0	0.30810308
26	0x3eab2004	0.33422863
27	0x3ed8cadf	0.42342278
28	0x3efc3015	0.49255434
29	0x3efa4ea5	0.48888126
30	0x3f13e2cb	0.57767934
31	0x3ed9d855	0.4254786
32	0x3f0033d0	0.5007906
33	0x3f28fc4f	0.6600999
34	0x3f05efb1	0.52318865
35	0x3e48e6c2	0.19619277
36	0x3ee9ac49	0.45639256
37	0x3ed97d3e	0.42478365
38	0x3ebbf074	0.3670689
39	0x3efed535	0.4977204
40	0x3f45d42e	0.77276886
41	0x3effac42	0.4993611
42	0x3f185a79	0.5951305
43	0x3ecaf1ae	0.39637512
44	0x3f24fde5	0.6444991
45	0x3ea57b5f	0.32320687
46	0x3f19145d	0.59796697
47	0x3f0c3d50	0.54781055
48	0x3f3e0720	0.7422962
49	0x3f0383e0	0.513731
50	0x3f15ebc1	0.58562857
51	0x3f683211	0.90701395
52	0x3eef2930	0.4671111
53	0x3f1296c1	0.5726128
54	0x3f55a63c	0.8345678
55	0x3f046dac	0.51729846
56	0x3f2982a5	0.6621497
57	0x3f09686d	0.53674966
58	0x3ef4660e	0.47734112
59	0x3f5ef32f	0.8708982
60	0x3f529a60	0.8226681
61	0x3f4203a8	0.7578683
62	0x3ed22d6e	0.41050285
63	0x3edeb39f	0.43496415
64	0x3db8a068	0.0901497
65	0x3dbe08aa	0.09278996
66	0xbdf4f72c	-0.11961207
67	0xbd20e534	-0.039281085
68	0xbd9d6df0	-0.076869845
69	0x3ce1b140	0.02755034
70	0xbd1e0fb0	-0.03858918
71	0xbd98a664	-0.074536115
72	0xbd9d3a72	-0.07677163
73	0x3d6d696c	0.057961866
74	0xbdc2464c	-0.09486064
75	0xbcedd980	-0.029034376
76	0x3df01458	0.1172263
77	0x3dbc71c0	0.092013836
78	0x3d9959e6	0.0748785
79	0x3d5caf1c	0.053877935
80	0xbbf37b20	-0.007430449
81	0x3d7b8e0c	0.061414763
82	0xbcde9600	-0.027171135
83	0xbdfbecd8	-0.12301034
84	0xbdf07b22	-0.11742236
85	0xbdf26656	-0.11835925
86	0xbd820196	-0.06347959
87	0xbd261178	-0.040544003
88	0x3d9f8872	0.07789697
89	0x3c08c1b0	0.00834696
90	0xbde2cf0a	-0.11074646
91	0xbaaadc80	-0.0013035685
92	0x3db205aa	0.086924866
93	0x3bacff40	0.0052794516
94	0xbddb7e3a	-0.10717435
95	0x3d95b406	0.07309727
96	0xbc3b1fe0	-0.011421174
97	0x3d51cb48	0.051219255
98	0xbd5865d8	-0.0528315
99	0x3de5713a	0.11203237
100	0x3deed37c	0.11661431
101	0x3d0fa59c	0.035070047
102	0xbd92170c	-0.07133302
103	0x3d12e59c	0.035863504
104	0x3ddb85aa	0.10718854
105	0xbd8ce4d0	-0.0687958
106	0x3da8e086	0.082459494
107	0x3dd8754c	0.105692476
108	0x3d1edc64	0.0387844
109	0xbd9c2f10	-0.07626164
110	0x3dd76606	0.10517506
111	0x3d0011a8	0.03126684
112	0xbdfdc67a	-0.12391372
113	0xbd9d80f6	-0.07690613
114	0xbc0366f0	-0.008020148
115	0xbd584f40	-0.052809954
116	0x3c2cf050	0.010555342
117	0xbca58230	-0.02020368
118	0x3d9cfcc8	0.07665402
119	0x3dd4aa9e	0.10384105
120	0x3da2240a	0.0791703
121	0x3d481208	0.04884532
122	0x3d69f5b0	0.05711907
123	0xbdc694dc	-0.096963614
124	0xbdd3c522	-0.103403345
125	0xbdc63dbc	-0.09679744
126	0xbd98402e	-0.07434116
127	0xbd9ac892	-0.07557787
128	0xbedf0caf	-0.43564364
129	0xbdf6cdbe	-0.12050961
130	0xbe52ceee	-0.2058675
131	0xbe3d2927	-0.1847273
132	0xbf15d247	-0.5852398
133	0xbe8e1be4	-0.27755654
134	0x3e38105b	0.17974989
135	0xbebd417d	-0.36964026
136	0xbea96571	-0.33085206
137	0xbed8c028	-0.42334104
138	0x3e2dae9e	0.16961142
139	0xbea4f735	-0.32219854
140	0xbee2b77f	-0.4428062
141	0xbe24e8fd	-0.16104503
142	0xbe96d143	-0.2945653
143	0xbe69fab6	-0.22849545
144	0x3e83cefa	0.25743848
145	0xbe02c36e	-0.12769863
146	0x3e5661d0	0.2093575
147	0x3e6974c6	0.22798452
148	0xbe4065ab	-0.18788783
149	0xbe445335	-0.19172366
150	0xbe6682e2	-0.22510865
151	0x3e77debe	0.24206063
152	0x3e456c77	0.19279657
153	0x3e788e54	0.24273044
154	0xbea689fa	-0.32527143
155	0xbe1c2b29	-0.1525084
156	0x3ea535b8	0.32267547
157	0xbe62beb2	-0.22143057
158	0x3ed91c44	0.42404377
159	0xbe976a38	-0.29573226
160	0xbe410da6	-0.18852863
161	0xbe70bc01	-0.23509218
162	0x3e39b147	0.18134032
163	0xbe87071b	-0.2637261
164	0x3e3763a3	0.17909102
165	0xbdf9b747	-0.121931605
166	0x3ea00526	0.31253928
167	0x3e3aab6e	0.18229458
168	0xbed0c539	-0.4077547
169	0xbe87dc3b	-0.2653521
170	0xbee2e854	-0.44317877
171	0xbe19f53b	-0.15034954
172	0xbf6fae5d	-0.9362543
173	0x3e0eca0d	0.13944264
174	0xbe9557ed	-0.29168645
175	0x3ed57127	0.4168789
176	0xbe8846f9	-0.26616648
177	0x3e6e12ab	0.23249309
178	0x3ec3384e	0.38128895
179	0x3eb24e89	0.34825543
180	0xbdf4136d	-0.11917768
181	0x3e95fe36	0.2929551
182	0x3f5d71d4	0.8650181
183	0x3e2be31e	0.16785857
184	0xbeecc5b9	-0.462446
185	0xbed629b6	-0.41828698
186	0xbdd09d68	-0.10186273
187	0x3efc95b9	0.4933298
188	0x3e8979ff	0.26850888
189	0xbf1a9b77	-0.6039347
190	0x3d924992	0.07142939
191	0xbe88646d	-0.2663912
192	0x3f5942fd	0.8486784
193	0x3e811713	0.25212917
194	0x3eca91b9	0.39564303
195	0x3ee72b09	0.4515002
196	0xbf358697	-0.7090849
197	0x3eb41148	0.35169435
198	0x3eba5e9c	0.36400306
199	0x3f06cf5f	0.52660173
200	0x3ee8ccd5	0.45468774
201	0x3f05a826	0.522097
202	0x3f035dba	0.5131489
203	0x3f04586b	0.51697415
204	0x3f355944	0.70839334
205	0x3e957d34	0.29197085
206	0x3f29945a	0.6624199
207	0x3e7ac93d	0.24490829
208	0x3f0a5605	0.54037505
209	0x3ea4b239	0.32167223
210	0x3ef7340f	0.48281905
211	0x3f13ad01	0.5768586
212	0x3ec8c093	0.39209422
213	0x3ec6a202	0.38795477
214	0x3ec17973	0.3778797
215	0x3edd142c	0.43179452
216	0x3f1c88b3	0.61146086
217	0x3e958424	0.29202378
218	0x3ee04efe	0.43810266
219	0x3e4c28a1	0.19937374
220	0x3ec07f5a	0.37597162
221	0x3eced774	0.40398753
222	0x3f54beba	0.83103526
223	0x3f0dceed	0.5539387
224	0x3e8dad1d	0.27671137
225	0x3f3b41e9	0.73147446
226	0x3ee6ce14	0.450791
227	0x3e5d193b	0.21591656
228	0x3eca2990	0.39484835
229	0x3eacc02d	0.33740368
230	0x3e1f574a	0.15560642
231	0x3eadbdf9	0.33934
232	0x3f2aa32a	0.6665522
233	0x3f0e2636	0.55527055
234	0x3ec62565	0.38700405
235	0x3eb0ee31	0.34556726
236	0x3f21e1e3	0.632353
237	0x3ea80342	0.32814986
238	0x3ed0650f	0.40702102
239	0x3f098e9d	0.53733236
240	0x3f0f4540	0.5596504
241	0x3f25e852	0.6480762
242	0x3f3f9110	0.7483072
243	0x3f5f7d0b	0.87300175
244	0x3e5db80d	0.21652241
245	0x3efdc72f	0.49566028
246	0x3f39dacc	0.7259948
247	0x3ecc1f09	0.39867428
248	0x3f003d48	0.5009351
249	0x3f1a3a3a	0.60245097
250	0x3ec47d2d	0.38376752
251	0x3f5f12bf	0.8713798
252	0x3f26d3f8	0.6516719
253	0x3f60e26d	0.878455
254	0x3e966522	0.29374033
255	0x3ed58b63	0.41707906
