results/model_nn.pth (torch, 125388 bytes, 7 tensors)

fc1.weight f4 [256, 50]
00000000: 5edf 74bd ea43 263c fdb6 51be 2c2b d7bd
00000010: 066f 85be ad4e 08be c3a1 70be e058 2ebd
00000020: a1b8 543c 878a e0bd 8ecb fabd 5ac9 6dbe
00000030: 7e5e dfbd 1bf0 14be ad81 67be 0d53 11be
00000040: 005d 4bbb 6265 63be 0176 26be ab0d 6fbe
00000050: ed08 48be 1f74 59be 260c 82be 2b5a cf3b
00000060: b97c 55be fd31 19bc 1e45 d9bb 875f 57bd
00000070: 603f 42be 5e2c 05bd 4dc6 3fbd 76d1 3dbe
00000080: 4927 9e3c eb17 bebd 8a22 8abd ced6 aabd
00000090: 0d45 64be a7ae 22be aea1 2abe c859 00be
000000a0: ab05 68be 7b6b 1fbe d1d0 c1bd 84c6 03be
000000b0: 8df4 0dbe 2d45 1cbe 61fe 80be f5cc 83be
000000c0: a2e5 c8bd 9d7a 73bd 899d 12be 1d70 58bd
000000d0: 47e9 86bd 60f4 6fbe 2487 8fbe 4452 8ebd
000000e0: 0429 3bbe 3918 79be bea9 79be 2ec0 8abe
000000f0: 5d3d 7fbe b7a0 1bbe 015b 66be c5d2 57be
00000100: e556 77be e5d2 04be 6edd 7abe 34cd 33be
00000110: cdbb 36be dd3b 81be 66a2 42be c01c 25be
00000120: 2d21 24be 5382 79bd 0a01 a2bd b76f 19be
00000130: cf4f 1bbe a4e3 72be 81cf 2cbe f095 6fbe
00000140: 5d70 34bd 19ab d7bd 1805 d5bd 2c8c 03be
00000150: 37e2 56be a652 14bd 32b7 93be c02e 05be
00000160: 83fe 8bbe dce9 6fbe 0b4c 81be 26dc 49bd
00000170: 3cb5 6bbe d5c3 c9bd 3f43 48be f94c c4bc
00000180: 60d6 a0bd 573b 16be 7a31 10be ca61 84be
00000190: 2c90 4abe 7ddf 17be 9bb7 ab3c 86f7 b8bd
000001a0: c1c0 68be 65d4 be3c 78a1 723a c82a efbd
000001b0: 2f69 3e3c a4ed 8b3c 035d 2c3c 43ef 4bbe
000001c0: c20f 313d 75ad 61bd 0934 de3c e4b5 a9bd
000001d0: e73b 5fbb 7940 94bd 5ba0 14be 3a62 3abe
000001e0: 689d 6fbe 0ff8 50be 2f99 0fbe 65f7 68be
000001f0: c614 41be a5e9 043d 8fa0 4ebe f1b0 193d
00000200: 0785 4abe 1a42 1d3c ba9f e2bb cd80 a23c
00000210: 6494 38be ee17 0f3d f80b 1bbe 99ee 14bd
00000220: 670b 283d c96f 93bd 000d 16be 5fbf 09be
00000230: a70f 62be 8c94 d8bc 0215 13bd 69f4 c8bc
00000240: bf13 ddbd 4f95 1a3d e229 303d 638b 64be
00000250: 14f5 e1bd 7a80 11be 3cc8 7cbe ee63 1dbe
00000260: 270e 8abe 90cc 85be 872f 93be 7272 33be
00000270: 033b 5abd 4412 8cbc d9c5 19bd 0ce2 a8bc
00000280: 654f bfbd 5fe8 21be e565 7dbd c8ba d4bd
00000290: f3cb 17be 192f 76bc f4da 57be 8f5f edbd
000002a0: 7330 91bd d782 d2bd 9579 71be faa4 30be
000002b0: 977b 4cbc 355a 47be 7282 53be 3ee6 c8bd
000002c0: 9fea 6ebe c55a 07bd 95cb 6dbe be7f 35be
000002d0: e99d 6abe a2ec c1bc 73d1 8abe fd60 acbd
000002e0: 6f37 22be 2977 f5bd f9bd 78be c431 bfbd
000002f0: 1d4d 0cbe c5c8 f0bd 152f ebbd a5d4 3dbe
00000300: d64d 33be ab7a 7ebe 97aa 7fbe 2d35 5dbe
00000310: f47e dabc f1eb 2bbe 8af8 4fbe 05e6 3dbe
00000320: 33d6 2fbe d735 12bd 3ad4 61bd 9737 0ebe
00000330: 80a7 94be 1c33 8ebe 7835 22bd fcb2 01be
00000340: e6de 4ebe e1c0 90be 7fb3 09be 1839 44be
00000350: b4ab 27bd 28a0 29bd a329 32bd 0205 7dbe
00000360: 12ed 7abe 2462 a8bd d9b4 3bbd 37fd 9abd
00000370: 827a 20be 6208 abbd 7107 01be 5f62 91be
00000380: add0 6dbe 515e 35be 5899 8abe 7b85 19be
00000390: b8fa 4abe 655c cebd d750 4dbe 78b8 80be
000003a0: b551 84be 7637 02bd a0e4 0dbe 0b5c f9bc
000003b0: 7df9 adbd 2970 99bd e550 79bd bd63 44be
000003c0: 0ec2 02bd 68ac 4dbe c5f2 d6bd a762 ebbc
000003d0: 6a76 99be 2509 e0bd 6f70 babc 126f 6fbe
000003e0: 5c70 25bd 6b38 61be f2fe 3bbe 309f 9dbd
000003f0: 4b26 c03b 9f06 8b3a 9f4a 08be b13c dcbd
-0.059783332 0.010148028 -0.2047996 -0.10506281 -0.26061267 -0.13311262 -0.23499207 -0.042565227
0.012983472 -0.10963922 -0.12245856 -0.23221341 -0.10906695 -0.14544718 -0.22608061 -0.14191838
-0.0031030774 -0.22206643 -0.16255952 -0.23345058 -0.19534655 -0.21235703 -0.25399894 0.0063278875
-0.20848359 -0.009350297 -0.006630554 -0.052581336 -0.18969488 -0.032513015 -0.046819974 -0.18536934
0.019305842 -0.09281906 -0.06744869 -0.08341752 -0.22291966 -0.15886937 -0.16663238 -0.12534249
-0.22658412 -0.15568344 -0.09463657 -0.12868696 -0.1386282 -0.15260763 -0.25194076 -0.25742307
-0.09809424 -0.059443105 -0.14317907 -0.052841295 -0.06587463 -0.23433065 -0.28032792 -0.06949285
-0.18277365 -0.24325646 -0.24381158 -0.27099746 -0.24925752 -0.15198027 -0.22495653 -0.21076496
-0.24154241 -0.12971075 -0.24498531 -0.17558748 -0.17845078 -0.25240985 -0.19007263 -0.16124249
-0.1602828 -0.060915302 -0.079103544 -0.14984022 -0.15167163 -0.2371965 -0.16876031 -0.2339704
-0.04405247 -0.10530681 -0.10401362 -0.1284644 -0.20984732 -0.036211632 -0.28850704 -0.13006115
-0.27342615 -0.23429054 -0.2525333 -0.049282216 -0.23018354 -0.09851805 -0.19556902 -0.023962485
-0.07853389 -0.14671074 -0.14081374 -0.25855857 -0.1978156 -0.14831348 0.020961573 -0.09031586
-0.2272978 0.023294637 0.0009255628 -0.11678082 0.011621757 0.01708109 0.010520223 -0.1991549
0.04322792 -0.055097062 0.027124422 -0.08286646 -0.0034062804 -0.0723886 -0.14514296 -0.18201533
-0.2339989 -0.20407127 -0.14023279 -0.22750624 -0.1885558 0.032449383 -0.20178436 0.03752226
-0.19777308 0.009598279 -0.0069160135 0.019836808 -0.18025357 0.03493493 -0.15141284 -0.036360357
0.0410265 -0.07199056 -0.14653397 -0.13451909 -0.22076283 -0.02643802 -0.035908706 -0.024530606
-0.10794782 0.037740048 0.043008693 -0.22318797 -0.11033073 -0.14209166 -0.24685758 -0.15370151
-0.26963922 -0.2613263 -0.28747198 -0.17524126 -0.053278934 -0.017098553 -0.037542198 -0.0206156
-0.09341315 -0.15811299 -0.061864752 -0.10387188 -0.14823894 -0.015025877 -0.21079618 -0.11590492
-0.07089319 -0.10278862 -0.23581536 -0.17250434 -0.012480638 -0.19468005 -0.2065523 -0.0980954
-0.23331688 -0.03304555 -0.23222192 -0.17724511 -0.229118 -0.023672406 -0.27112922 -0.084169365
-0.15841459 -0.119856186 -0.24291219 -0.09335664 -0.13701291 -0.11757044 -0.114835896 -0.18538149
-0.17510161 -0.24851482 -0.24967419 -0.21602316 -0.026671864 -0.16789223 -0.20309654 -0.18544777
-0.17171554 -0.035695877 -0.055134036 -0.13888393 -0.29034042 -0.27773368 -0.039601773 -0.12665933
-0.20202217 -0.28272155 -0.13447379 -0.19162405 -0.040935233 -0.041412503 -0.04349674 -0.24708942
-0.24504498 -0.08221844 -0.045826767 -0.07567828 -0.15671733 -0.08351208 -0.12600495 -0.28395364
-0.23224135 -0.1771176 -0.27070117 -0.14992325 -0.19822204 -0.100762166 -0.20050369 -0.25140738
-0.25843588 -0.031791173 -0.13856745 -0.030439397 -0.08494852 -0.07492096 -0.060868163 -0.19178672
-0.031923346 -0.20085299 -0.10495523 -0.028733565 -0.29973155 -0.10939244 -0.02275869 -0.23382214
-0.040390357 -0.21994178 -0.18358973 -0.07696378 0.00586394 0.0010606832 -0.13309716 -0.107537635

fc1.bias f4 [256]
00000000: fac0 3dbe 4b1c c2bd 433d 9abd e9ee 06be
00000010: 6643 0cbe 4213 37bd 3bcb 28be 105b eebd
00000020: 36c2 f6bd 8079 2f3d 93b6 2042 3c86 05be
00000030: dbda 64be 57bc 19be f5bd 7fbe 08fd 1a41
00000040: 9b8d 22be 3651 5dc0 1d42 e53d abaf 373e
00000050: 5ced 1fbe 93dc 30bd fe3c b1bd d153 cc3e
00000060: 6f93 863e 5bf2 67bd 942b c8bd 4206 39be
00000070: bfa8 ddbb 2801 8abd a747 a8bd f7a5 88be
00000080: d31e 34be 3fbb 85be 6a1d 6ebd 0e8f 69be
00000090: 9a0d 0b40 edc0 c2bd 02ab 2ebd 2f29 2bbd
000000a0: 024b e4bd 0941 62be 4a8e c8bd e102 8bbd
000000b0: 1344 7141 e1a8 38be 0afc 973d 360d 59be
000000c0: 03b5 a3bd 726a 4bbe 6eca a7bd c785 17be
000000d0: 9a6e c1bd a199 75be dd88 68bd a512 0fbe
000000e0: f976 0dbe 3318 34be 04e0 65be 6c21 4cbe
000000f0: e530 acbd 0b82 91bc 2a58 c0bd 855c d0bd
00000100: ddef cabd f7ac f5bd 71bc d4bd 5b2c 2cbe
00000110: 83a1 d1bd 1959 1abe 8965 9abd 7193 87be
00000120: 2baf 3cbe 5304 a63f ada7 33be 82d1 d8bd
00000130: 93c7 1dbe fd84 4fbe 8395 a1bc 2a6e 80be
00000140: 44ac 64be 8be0 0fbe 463a 15be 2e72 49c0
00000150: 4e86 89be 8ecc b5c0 3b1e 09be 394d a3bc
00000160: 495b ffbd 836c 98be 76b8 c7bc bd4e 49bd
00000170: cc84 abbd 7cc6 e0bd c003 f0bd 65e2 25bd
00000180: 7384 94bc 228c e23d e497 83bd e5c0 41be
00000190: e5c9 6c3c 9afa 80be 68dd 54be 236a 71be
000001a0: b903 8fbc 3b29 5fbe 0b08 4dbe 7ba9 8040
000001b0: 0877 5341 7e2b 79be 76ae 10be a6db 5cbe
000001c0: c73d 5f3f bd2d 53bd e063 2bbe cf1e afbd
000001d0: b8a5 93be 16e4 83be 6b51 16be 5fee e7bd
000001e0: cbaf 3cbe 2c26 a1bd d696 13be 9300 0fbe
000001f0: 54ce 72bd 55a0 57be 0e30 73bd 2f6f 883e
00000200: 125c fa40 e914 1abe 9ecb 45be 7058 1ebe
00000210: b3e9 3cbe d1cb ecbd d8ac 82bd 31bc 8cbd
00000220: b146 2bbe bc57 2dbb d135 5dbd 7a61 69be
00000230: 4915 a2bd d7e2 a7c0 8fad e5bd d2ad b33e
00000240: ac93 8fbe d05c 91bd 48c3 45be 9758 aa3e
00000250: 7ad5 5abe f10c 74bd 51b1 4fbd 0472 18be
00000260: 69e3 fd40 e356 07be 3e38 4d40 3c97 b740
00000270: 4d10 4dbe 5dc8 9dbc 60f1 8fbe 2eb2 35be
00000280: 14ca 08be b428 fabb eee9 66be 1356 613d
00000290: c973 3b3f b0b0 963e bf16 08be f05d 503d
000002a0: 2616 bbbd 58e0 81be 2089 48be 5474 1fbe
000002b0: 0c07 92be 6e68 76bc e08d 69be 4dd0 dbc0
000002c0: 5de1 edbd a4f2 3ebe 2f32 c63d 1c60 1fbe
000002d0: 5e08 f83e 81ae d9bd d6ec 2dbe 0ab2 2fbe
000002e0: 1fbd e1bd 0454 1ebe 9522 1e42 c02c 4ebe
000002f0: 381b 5cbd ed71 31be c6a5 6bbe 24b8 21bb
00000300: ac4f d13d 1b74 5bbe 0449 a3bd 1327 2dbe
00000310: 7cf5 74bc 9c63 6abe de40 46be 4563 9ebd
00000320: 1389 dfbd 66bf a23e 494a 21be 6288 95bd
00000330: 2e0a 50be 8292 cbbd 48eb 76be 3afc a2bc
00000340: b4c5 c640 cbfb 79be bf5d febd 6b48 83be
00000350: ee77 0cbe eb93 2cbe 9f15 c8bd a88d 63be
00000360: d6d6 b4bd bca7 06be 2bba 96bd e7ec 44be
00000370: ddab 3940 fd41 193e e8b2 51bd 8a87 173f
00000380: 6f5c 49be 3514 97c0 2b52 1cbc 3686 b9bd
00000390: 3b2e 1fbc 6519 80bf 52a9 66bd 28f6 8bbe
000003a0: 7bd9 2dbe cee7 2042 85d4 34be 9534 06be
000003b0: 2eab bb40 f78e 8bbe 79b0 45be 62b3 723d
000003c0: 1eaa bfbc 587e 27be b290 13c1 6ec9 81be
000003d0: dde4 853f 9c58 2abd 56e8 0bc1 5f30 bb40
000003e0: 9051 41bf ff37 72bd e1e7 46be cc5d 7c3d
000003f0: 1357 683d 1da6 c6bc 36d8 a5bb d623 fb40
-0.18530646 -0.09478053 -0.07531216 -0.13177074 -0.13697585 -0.0446961 -0.16483776 -0.116384625
-0.120487615 0.04284048 40.178295 -0.13039488 -0.22349112 -0.15013252 -0.24974807 9.686775
-0.1587433 -3.4580817 0.11194251 0.17938106 -0.15617889 -0.043179106 -0.086542115 0.39907697
0.26284358 -0.056627613 -0.09773937 -0.18068793 -0.006764501 -0.06738502 -0.082167916 -0.2668912
-0.17589884 -0.2611942 -0.05813352 -0.22808477 2.1727052 -0.09509454 -0.042643555 -0.041787323
-0.11147119 -0.22095121 -0.097927645 -0.067876585 15.07912 -0.18033172 0.074211195 -0.21196446
-0.079935096 -0.19864824 -0.08192907 -0.14797126 -0.09444924 -0.23984386 -0.056771148 -0.13971956
-0.13814916 -0.17587356 -0.22448736 -0.19934624 -0.084077634 -0.017762205 -0.09391816 -0.10173897
-0.099090315 -0.11995881 -0.10387505 -0.16813795 -0.10235884 -0.1507305 -0.075388975 -0.26479676
-0.18426196 1.297007 -0.17544432 -0.105868354 -0.15408163 -0.20265575 -0.019724613 -0.25084049
-0.22331339 -0.140505 -0.14573011 -3.147594 -0.2686028 -5.68122 -0.13390438 -0.019934284
-0.12468583 -0.29770288 -0.02437995 -0.049147356 -0.08374938 -0.10975358 -0.11719465 -0.04049911
-0.018129563 0.110618845 -0.06425455 -0.1892124 0.014452432 -0.25191194 -0.20787585 -0.23575644
-0.01745783 -0.21793072 -0.200226 4.0206885 13.21656 -0.24332997 -0.14129052 -0.21568164
0.8720364 -0.05155729 -0.16737318 -0.08550798 -0.2883737 -0.25759953 -0.14679496 -0.113247626
-0.18426435 -0.07868609 -0.14413008 -0.13965063 -0.0592788 -0.21057256 -0.059372 0.26647326
7.823739 -0.15047039 -0.19315955 -0.15463424 -0.18448524 -0.115623124 -0.063806236 -0.06871832
-0.16726185 -0.002645 -0.0540064 -0.2279109 -0.07914216 -5.2464404 -0.11214744 0.35093552
-0.28042352 -0.07097781 -0.19312775 0.33270714 -0.21370497 -0.059582654 -0.05070621 -0.14887244
7.93401 -0.13216738 3.2065578 5.737211 -0.2002575 -0.01926058 -0.28113842 -0.17743751
-0.13358337 -0.0076342467 -0.22550175 0.055013727 0.7322355 0.29431677 -0.13289927 0.050870836
-0.09135084 -0.25366473 -0.19583559 -0.1557172 -0.28521 -0.015039546 -0.22808027 -6.8691773
-0.1161525 -0.18647248 0.096775405 -0.15564007 0.48443884 -0.10628987 -0.16984877 -0.1715776
-0.110224 -0.15461737 39.53377 -0.20134258 -0.053736895 -0.17328615 -0.23012456 -0.0024676407
0.10220274 -0.2143101 -0.07972911 -0.16909437 -0.014951106 -0.2288956 -0.19360682 -0.07733778
-0.10914817 0.3178665 -0.15750994 -0.073014036 -0.20316383 -0.099400535 -0.2411319 -0.019895662
6.2116337 -0.24412458 -0.124202244 -0.25641188 -0.13717625 -0.16853301 -0.09769749 -0.22222006
-0.08830039 -0.13149923 -0.073597275 -0.19230996 2.9011147 0.14966579 -0.05119601 0.5919119
-0.19664167 -4.7212167 -0.009541075 -0.09058802 -0.009715612 -1.000775 -0.05631382 -0.2733624
-0.16977493 40.22637 -0.17659195 -0.13105996 5.864646 -0.2725751 -0.193056 0.059253104
-0.023396548 -0.1635679 -9.222826 -0.2534899 1.0460469 -0.04158841 -8.744223 5.8496547
-0.7551508 -0.059135433 -0.19424392 0.06161289 0.056723665 -0.02424913 -0.0050611747 7.8481245

fc2.weight f4 [64, 256]
00000000: a2c8 0d3d e876 e8bc 7848 333c b955 b4bd
00000010: 2025 2ebc 4b78 86bd c8a1 3fbc 5ac1 f7bd
00000020: b01c fbbd b2ab 12be f7f4 02bf 7783 cebd
00000030: 3a1a 2dbe 4eeb d4bd 8a46 26be 5c5f 3abe
00000040: 208f 74bb 01e4 43bf 184d afbd 497d 03bf
00000050: 047e 9dbc 8eae 5bbd 5ad4 4a3d 24c4 75bd
00000060: 1180 fdbd a03f 98bc 9085 693d 419a 90bd
00000070: 3fdb 09bf 4475 5fbd 0cb2 aebd b96f 6dbd
00000080: 5879 e3bc ed15 84bd 60c0 2b3b 1577 1cbe
00000090: 6264 0dbf 5654 16be 19f4 303e c423 1cbe
000000a0: b675 0dbd d54f acbd 30a8 873b ecd1 e9bd
000000b0: ec24 05bf 1a0f 1abe 7495 90be 264d 3ebd
000000c0: 2e2a 95bd 7c57 3ebd 50f8 e3bb 27e7 05be
000000d0: 3d23 8ebd 9438 15be ff39 1ebe 80d6 633d
000000e0: 284d 093c 74aa 30be a63f 35be 89bb 10be
000000f0: e6b2 81bd 0087 d2bd 0eb6 65bd 00fc 41bb
00000100: 466e c03d d521 14be 9d6d b0bd 0d1c 2abe
00000110: 70bf b9bb 79f5 7cbd 5412 3d3d 5e1c f6bd
00000120: b293 73bd 22ca d1bd 00fa f5bd e885 09be
00000130: f80d a5bd 3248 323d 431e 18be a0dc 463b
00000140: 3681 05bd deaf 32be 41e1 6fbd 1f75 2ebe
00000150: e609 6ebd 8ba4 083e fc34 0cbd b0fe 0dbe
00000160: a97e 26be e036 9bbd c9d8 03be 1de5 44bf
00000170: aa7e 2bbe b076 113d 3615 9fbd db4d 15be
00000180: 24a5 f33c e87e 08bf 2058 29bd 703e 80bd
00000190: 850e eb3e 38bb 77bd 3071 793d df1d 04be
000001a0: 6d31 34be 4caa a2bd 315a 0fbe ac47 01bf
000001b0: 92b5 58be e10c b53d 0c94 fcbc 32d4 0cbe
000001c0: 248f 23bf 6601 12be c22d 983d 1657 adbd
000001d0: e6b9 d3bd 44bc 1bbe bb31 8dbd 0e41 5fbd
000001e0: 4307 20be a963 80bd 5c7b 1e3f 9b01 debd
000001f0: 0aea 383d 4b9a 9ebd 76bc 7bbd dbc1 41be
00000200: c550 9dbe 9b94 1dbe 7373 3abe 6858 16bd
00000210: b49c 09bd 0856 4fbc eb15 18be 4f8e aa3e
00000220: 831c 2cbe 6530 14be 5b7e 24be c44e 56bd
00000230: cf1d 8dbd 7d55 95bf 54c9 463d 2340 123d
00000240: 24dc ef3c 70a1 ffbd f4c4 943c eba8 a1be
00000250: 50f0 863b 1a34 5c3d 46e1 d9bd 083a 52bc
00000260: 3ff9 f0bd 8a97 acbd 147b f4be fab8 8fbe
00000270: c8c1 bbbc 109c 933b e3a7 9dbd e582 c73d
00000280: 6cd5 7cbd ab4f 13be 6275 17be 8558 a4bd
00000290: 151f 2dbe 0f08 0bbf b84a 1e3d d451 09bf
000002a0: b89a 3bbc 32c8 80bd 6fe8 80bd 389f 18be
000002b0: 8323 c73d 4bc1 b9bd 4cc8 22be 2875 77bc
000002c0: 0f9f c6bd 8a75 cabd 4a68 04bf 2b5f adbd
000002d0: 8eb6 f9be 261c 163e 0875 ae3c 7c51 19be
000002e0: 3b99 34be 9bfd 17be cb3a 04bf e284 17be
000002f0: a8ae 693c 3340 2abe 4910 3abe 8540 34be
00000300: 973d 00be 20e7 d93c 9aa6 083d 300e 7ebd
00000310: 262a 76bd d193 c1bd eaff 613d 507b 373e
00000320: b3de 23bf 26cb 09bf 5f47 08be b0a6 20bc
00000330: 2788 11be 308b 2d3c 817e 88bd 902a 0fbe
00000340: 7dac 3dbe c055 93bc fcc6 593d ef05 8f3d
00000350: 18e5 27be cf5c 32be 3b85 02be 4c9c afbc
00000360: 2901 06be 8c4a 9ebd e721 2dbe 524f 0ebe
00000370: 87b4 adbe 7da4 0ebf fa91 03be e054 98bd
00000380: 44db db3d fa46 dfbd 3988 3abe 3d4d 70bd
00000390: bc89 53bd 8c3b 1abd 3c2d 5f3d 37f3 c9bd
000003a0: 95ac 16be e6c8 d3bd cec7 efbd 565b a2bd
000003b0: fb2d a2be d204 24be cac4 93bd f1bd 35be
000003c0: 40c2 7cbc 0ab1 48bd 8558 12bf bbac 1ebe
000003d0: f5e8 3bbe e747 15be e038 d3bc 117b ecbe
000003e0: c82c 463c 3e63 9dbd d449 2d3f b548 bbbd
000003f0: 9802 fdbe d79e e0bd 50c6 25be 171c 3a3d
0.034615166 -0.028377011 0.010942571 -0.08805413 -0.0106289685 -0.06565913 -0.0116962865 -0.12097426
-0.12261331 -0.14323309 -0.51155037 -0.10083669 -0.16904536 -0.10396443 -0.16237846 -0.18200439
-0.0037316754 -0.7651978 -0.08559626 -0.51363045 -0.019225128 -0.053633265 0.04951892 -0.060001507
-0.12377942 -0.018585026 0.05701214 -0.070606716 -0.5385017 -0.054555193 -0.085300535 -0.057967875
-0.027767822 -0.064494945 0.0026207194 -0.15279801 -0.55231297 -0.14680609 0.17280616 -0.15248019
-0.034536086 -0.08413664 0.0041399226 -0.114169925 -0.52009463 -0.15044823 -0.28239024 -0.046460293
-0.07283436 -0.04647015 -0.0069570914 -0.13076459 -0.06940315 -0.14572364 -0.15451811 0.055624485
0.008380212 -0.17252523 -0.17700061 -0.14134039 -0.0633295 -0.102796555 -0.056081824 -0.0029599667
0.09396033 -0.14466031 -0.08614657 -0.16612263 -0.005668573 -0.06175754 0.046160057 -0.12017129
-0.059467025 -0.10243632 -0.12010574 -0.13429987 -0.08059305 0.043525882 -0.14855294 0.0030343905
-0.03259393 -0.174499 -0.05856443 -0.17036866 -0.05811491 0.13344018 -0.034230217 -0.13866687
-0.16259255 -0.07578826 -0.12875666 -0.769121 -0.16747537 0.03551358 -0.077677175 -0.14580481
0.029741831 -0.53318644 -0.04134381 -0.06261909 0.45909515 -0.06048128 0.06089896 -0.1290202
-0.1759698 -0.07942638 -0.13999249 -0.5049999 -0.21163014 0.08840347 -0.030832313 -0.13752821
-0.6389029 -0.14258346 0.074306026 -0.08463876 -0.10338192 -0.15208536 -0.06894251 -0.0545054
-0.1562777 -0.06269009 0.6190698 -0.1084015 0.045145072 -0.07744273 -0.061459027 -0.18921606
-0.30725685 -0.1538872 -0.18208103 -0.036705405 -0.03359671 -0.012654789 -0.14852111 0.33311698
-0.16807751 -0.14471586 -0.16063826 -0.05232121 -0.06890451 -1.1666714 0.048531845 0.035705697
0.029279776 -0.12481964 0.01816032 -0.31574187 0.004118003 0.053760625 -0.106386706 -0.012831219
-0.1176629 -0.08427341 -0.4775015 -0.28070813 -0.02291955 0.004504688 -0.076980375 0.09741763
-0.061726972 -0.1438586 -0.14790872 -0.08024696 -0.16906388 -0.5430917 0.038645476 -0.53640485
-0.011450462 -0.06288184 -0.06294333 -0.14904487 0.0972357 -0.09070071 -0.1589672 -0.015103616
-0.09698307 -0.098857 -0.5172163 -0.084654175 -0.4877209 0.14659175 0.02129604 -0.1497249
-0.17636578 -0.14842837 -0.5165221 -0.14796785 0.014262833 -0.16626053 -0.18170275 -0.17602737
-0.12523495 0.026599467 0.03336201 -0.06202525 -0.06009879 -0.09452022 0.0551757 0.17918134
-0.6401169 -0.53825605 -0.13308476 -0.009805366 -0.14212094 0.010592267 -0.06664754 -0.1398108
-0.1852283 -0.017985225 0.053168282 0.069835536 -0.16395986 -0.17418216 -0.12746136 -0.021436833
-0.1308638 -0.077290624 -0.16907464 -0.13897446 -0.33926794 -0.5571974 -0.12848654 -0.074380636
0.10735181 -0.109022096 -0.18216027 -0.05866741 -0.051645026 -0.037654445 0.0544865 -0.09860843
-0.14714272 -0.10341053 -0.117080316 -0.07927577 -0.31675705 -0.16017464 -0.07215269 -0.17748238
-0.015427172 -0.048996963 -0.5716632 -0.15495579 -0.18350585 -0.1457821 -0.025783956 -0.46187642
0.012095638 -0.076849446 0.6769078 -0.09144727 -0.4941604 -0.10967796 -0.16188931 0.045436945

fc2.bias f4 [64]
00000000: 0697 adbd 466e a2bd dbce 30bf f01a b841
00000010: 81df 623d 0e1d 08be f6f8 10be 5003 fcbd
00000020: a2ca 6441 32fc 3ebf bfdc 6cbd 18c7 c7bd
00000030: 4750 4dbe ed6a a8bd c09f 0abe 7cc7 0bbe
00000040: 9be1 1bbe aaa1 04bf 7926 84bd 9e1f 0fbe
00000050: 8d2e 00be 9a23 f3bd 7a69 92bd bc69 29bd
00000060: 635c 0fbf 28f7 9ebd 6c3d f7bd 0350 90bd
00000070: 3b1d c2bc e878 10be 1e38 ef40 009b 0dbe
00000080: 030b f4be 3d6b 09be eb39 00be 7862 f6bd
00000090: 6ad6 12bf df6e 0ebe f404 c4bd 4e8e a2bd
000000a0: 44f3 4ebf f536 2940 9577 dd3f a4d9 79bf
000000b0: aa3f 2ebd 2ef3 aabd d518 1ebe 84b2 2bbe
000000c0: 810e 2c3d ee7a e1bd 8346 53be 41e0 44be
000000d0: 3a61 afbd 4dde 97be 5141 dbbd 379a 18be
000000e0: 96c6 cac0 36b9 1abe 746f cabd 5df0 bfbd
000000f0: b354 16be 53c4 03bf 099e dabd ee92 06be
-0.08476071 -0.07931189 -0.69065636 23.013153 0.05538893 -0.13292333 -0.14157471 -0.12305319
14.299471 -0.7460357 -0.057827707 -0.09754771 -0.20050155 -0.082235195 -0.13537502 -0.13650316
-0.1522278 -0.5180918 -0.064526506 -0.13976905 -0.12517758 -0.11872025 -0.07149024 -0.0413606
-0.56000346 -0.07761985 -0.12072262 -0.07046511 -0.023695579 -0.14108622 7.4756002 -0.13828659
-0.4766465 -0.13419814 -0.12522094 -0.120305 -0.5735842 -0.13909481 -0.09571257 -0.07937299
-0.80839944 2.6439793 1.7302119 -0.9759772 -0.042541184 -0.08347164 -0.1543916 -0.16767317
0.04200602 -0.11009775 -0.20632367 -0.19226171 -0.08563466 -0.2966179 -0.107058175 -0.14902578
-6.3367414 -0.15109715 -0.09884539 -0.093720175 -0.14680748 -0.5147144 -0.10674674 -0.13141987

fc3.weight f4 [16, 64]
00000000: e2f3 a13d 1c71 26be 14c2 e1bd 0a95 94bd
00000010: 4fca c53c db1d 0b3d 45c2 323d 49da 42be
00000020: 58a6 5bbe fa95 b6bd 884a b73b 4dd6 c63d
00000030: d997 433e ed56 d1bc 4ae2 d3bc 6ce7 8e3c
00000040: a2bd 873c 444e 70be 32a2 e3bd f8d9 91bd
00000050: 7089 3fbe 6f75 17be 9fb7 30be 91eb 1cbe
00000060: c41e fdbd df64 703e c8e5 a43c 4d79 8ebd
00000070: fe30 8e3d fdae 96bb 62f0 d63c eb66 333d
00000080: 0df5 bb3c 3500 243e dabe 29be 7b66 c73b
00000090: c875 97bd f28f 4e3b 3459 cc3d c06e d4bd
000000a0: 53ec 54be 5b86 53bd 5382 51be 2e25 8fbc
000000b0: db86 4abd dc58 493d 4c4f 343e ac30 bd3d
000000c0: 407a f53b e36e 073d e7d5 ffbd f43b 5dbd
000000d0: a8de 24be fc95 ebbd fd49 f7bd 084c 413e
000000e0: 3447 b0bd 087b 663e b2e7 a03d 5c8b 713e
000000f0: 801c edbc f82b e73d 8082 d23b 9f0d 4c3e
00000100: 00f5 87be 0df1 173d edf4 0c3e ed28 973d
00000110: df1b c8be e212 093e 86c2 4a3e f428 393d
00000120: 65a8 123d 565b b63e bc40 ea3d 82b3 3d3e
00000130: f9b8 023e 2f0d 8a3c 803f 213d c002 053e
00000140: e7b9 a03d c19b 013f 73e1 493e c4d6 803c
00000150: ead3 4a3d d94e 723d b5d8 db3d f679 fc3a
00000160: 5663 dcbe b7ae e33c 4ca4 063f 0d31 c6bb
00000170: ac8d 79bd 5eb9 233e b2dd 373d 90ce 8b3c
00000180: 87bc d4be 102c 7dbd f6e7 1c3e 4e2e cb3d
00000190: ba4d 02bf 248e 003e 5004 3b3e f6a2 123f
000001a0: 2a55 0cbe 3486 bfbc 8fed 04be dfec e6bc
000001b0: a686 23be 9ad9 abbd e41d 96bd b0b2 56bc
000001c0: 0ef3 f3bd b872 803d 86ab bd3d d8ba 073e
000001d0: f084 663e 9452 f33d 0ac3 963c 0887 cc3e
000001e0: ac2e 133d 0243 9c3d f0c1 7dbc 8468 f63d
000001f0: 6298 773e a544 10bf 442e 5e3e 38d3 c8be
00000200: b65f 17bc ea3f 51be 9f25 e4bd 7a60 67be
00000210: 0ff3 43bd 58e1 28be a6cf babd 808d 59be
00000220: e49f 35be da82 063b d324 dcbc 4506 d0bc
00000230: bc29 07be 1a8b 39be d87a f6bd 894f 64be
00000240: ca0e 3ebd b7e2 66bc fba5 cebc 1849 5dbe
00000250: 0cf9 0cbe 8171 4ebd df31 713b 7c83 5dbd
00000260: 9008 28be aefe 8fbd a41e f63a a477 55be
00000270: e0a7 acbb 15fd 39be f13e 44be 54e5 b7bd
00000280: ff73 bbbd 3d0a ffbd 0b79 c8bd 4b8d fbbd
00000290: 7e8e 83bc db44 a4bd 0585 04be fc2e 04bd
000002a0: 5f04 a9bd 29f7 4ebe d72c 65be 858d 3fbe
000002b0: 9b27 0fbd 8818 67be 209a 613b 14c5 4dbd
000002c0: 7c8f ff3d 4b0c 35bc f0cb 5bbe f8d6 87bd
000002d0: 763d adbd bd0d 97bc 75be b5bb 14a0 9abd
000002e0: f1e1 23be 7ce7 ffbd d353 12be c23f 59bd
000002f0: 44d1 9ebc e61d a1bc f9b6 74bd 8a18 323b
00000300: 1001 013c f50a c63c b01d 21bc c58f 07bd
00000310: a041 9f3c 2a0b e8bd bec7 9c3d 163f 4abd
00000320: adbb 69be 586e 91bd 3a43 233e 5f35 163c
00000330: 3a39 9c3d ce55 b3bd bc94 3dbd 1ec5 1fbe
00000340: 473b 0c3d b134 9a3d 2160 96bc da57 5cbd
00000350: e478 c2bd f613 a5bc 3a20 3bbe 937a 59be
00000360: 9a64 bebd 36a6 063e a4bc 5bbe 9fa5 bcbd
00000370: c012 583d af70 d8bd f9c2 10be 3e18 1fbe
00000380: eaca cdbd cc7a 203e 6698 60be fb98 333e
00000390: 30c3 eabe 9c50 693d 5aed 8d3d 9676 393e
000003a0: 638b cfbc e166 48be a8c0 12be 50e8 dcbd
000003b0: 159c 4fbd 344c 2cbd 143e 893d 0008 653e
000003c0: fc36 afbd 0d90 94bd e6b5 5fbd bd68 f7bc
000003d0: b1ae 64be 96a0 2a3c ea21 14be a3f5 423e
000003e0: f41f c8bd a0ac f93d fa90 9a3d 4141 053e
000003f0: e7f6 733d dabc 1fbf 60be 95bd 23ef 9b3d
0.07907845 -0.16254085 -0.110233456 -0.072549894 0.02414432 0.03396402 0.0436423 -0.19028582
-0.21450174 -0.089153245 0.0055936016 0.097088434 0.19100894 -0.025554145 -0.025864739 0.017444335
0.016569916 -0.23467356 -0.11114921 -0.07121652 -0.18704772 -0.14790891 -0.17257546 -0.15324236
-0.12359384 0.2347598 0.0201291 -0.0695673 0.06942938 -0.004598497 0.02623767 0.043799322
0.022943998 0.16015704 -0.1657671 0.0060852147 -0.07395512 0.0031518904 0.09977952 -0.103726864
-0.20793276 -0.051641803 -0.20459871 -0.017473783 -0.049445014 0.04915701 0.17608374 0.09237799
0.00749138 0.033064734 -0.124919705 -0.054012254 -0.16100562 -0.115032166 -0.12074659 0.1887666
-0.08607331 0.2250787 0.078566924 0.23588318 -0.028944254 0.11287683 0.006424248 0.19927071
-0.26554108 0.03709512 0.13765307 0.07380853 -0.39083764 0.1338611 0.19800767 0.04520507
0.035805125 0.3561656 0.11438128 0.18525508 0.12765874 0.01685199 0.0393672 0.1298933
0.07847958 0.50628287 0.19714908 0.015727408 0.049518503 0.059157226 0.10734693 0.0019262421
-0.43044537 0.027793271 0.5259445 -0.006048328 -0.060926124 0.1598868 0.04488916 0.01706627
-0.41550085 -0.0618096 0.15322861 0.09920941 -0.5089985 0.12554222 0.18263364 0.5727991
-0.13704363 -0.023379423 -0.12981246 -0.02818912 -0.15969333 -0.083911136 -0.0732992 -0.013104126
-0.119115934 0.06271881 0.09261231 0.13254869 0.22511649 0.11880985 0.018403549 0.3994677
0.03593318 0.07629968 -0.015488133 0.120316535 0.24179223 -0.56354743 0.21697336 -0.39223647
-0.009239128 -0.20434538 -0.11139988 -0.22595397 -0.04783922 -0.16492212 -0.09121637 -0.21245384
-0.17736775 0.002052477 -0.026873028 -0.025393615 -0.13199514 -0.1811947 -0.12035149 -0.22295965
-0.046400823 -0.014092139 -0.02522563 -0.21609914 -0.13766879 -0.050401215 0.0036803407 -0.05408047
-0.16409516 -0.07030998 0.0018777442 -0.2084642 -0.0052690357 -0.1816295 -0.19164635 -0.08979288
-0.09152984 -0.12453125 -0.09788712 -0.12282809 -0.016059157 -0.08020946 -0.12941368 -0.03227137
-0.08252787 -0.20211472 -0.22380386 -0.18706329 -0.03494988 -0.22567952 0.003442414 -0.050236776
0.12478539 -0.011050294 -0.21464515 -0.06632799 -0.08458988 -0.018439168 -0.005546386 -0.07550064
-0.16004159 -0.12495324 -0.14289789 -0.05303932 -0.019386895 -0.019667577 -0.05974481 0.002717527
0.0078737885 0.024175147 -0.009833738 -0.033096094 0.019440472 -0.113302544 0.07655285 -0.04937657
-0.22825499 -0.071011245 0.15943614 0.009167998 0.076281026 -0.087566 -0.046284422 -0.15602538
0.03423622 0.07529581 -0.018356385 -0.05379472 -0.09495714 -0.02015112 -0.18274012 -0.21238165
-0.09296532 0.13149342 -0.2145868 -0.09211277 0.052752256 -0.10568368 -0.14136876 -0.15536591
-0.100484684 0.15671843 -0.21933135 0.17538826 -0.4585204 0.05696164 0.06930037 0.18111643
-0.02533502 -0.19570495 -0.14331305 -0.107864976 -0.05068596 -0.04206486 0.067012936 0.22366333
-0.08555409 -0.07254038 -0.05461683 -0.03020131 -0.22332264 0.010414263 -0.14466062 0.19039015
-0.097717196 0.12191129 0.07547183 0.13013174 0.059561636 -0.6239754 -0.07311702 0.07613971

fc3.bias f4 [16]
00000000: 5c89 1fbe 763d 1e42 93d3 dfbc 022a b3bd
00000010: 2d68 f6bd a3bf 2ebe e8dc 07be 70a3 5cbe
00000020: 36bb 8fbe 30cb 40bf 25c8 b3ba a5e9 53be
00000030: 9d1f c7ba 0909 21c0 067a 5cbb 909a 8abd
-0.15579742 39.56002 -0.027322566 -0.08748247 -0.12031589 -0.17065291 -0.13267863 -0.21546721
-0.28072518 -0.7531004 -0.0013716264 -0.20694597 -0.0015191917 -2.5161765 -0.0033642068 -0.06767762

fc4.weight f4 [1, 16]
00000000: 4979 583d a63e 303e 216f 953c ba28 ee3b
00000010: 8388 85bc 3732 56bd 313e c6bd 4b48 693c
00000020: 8239 a3bb 58f0 04bf 063a 13bd 9829 ea3d
00000030: cf2a 2fbd 7384 92bd 4eaf 1d3d 2b00 bc3d
0.05285004 0.17211398 0.018241467 0.0072680386 -0.016300445 -0.052293982 -0.09679831 0.014238427
-0.0049812207 -0.51929235 -0.035944007 0.11433715 -0.042765435 -0.07154169 0.03849726 0.091797195
