results/model_rnn.pt (torch, 137356 bytes, 17 tensors)

weight_ih_l0 f4 [64, 50]
-0.4370514 -0.47305784 -0.4394206 -0.40514272 -0.05114874 -0.5334163 -0.32828006 -0.36034182
-0.36445585 -0.16352335 -0.30775476 -0.4130335 -0.5214245 -0.37109807 -0.27677697 -0.52092165
-0.3594716 -0.4963633 -0.45595342 -0.18430378 -0.31162444 -0.46500233 -0.52927047 -0.53677803
-0.14761016 -0.3304884 -0.43045896 -0.41294453 -0.3075683 0.13763402 -0.5073072 -0.54765743
-0.33572957 -0.3716338 0.1133031 -0.39549962 -0.4397093 -0.50922865 -0.43086728 -0.0314462
-0.46474224 -0.40761504 -0.4772757 -0.48389694 -0.10483659 -0.32661438 -0.46778348 -0.3556015
-0.5456092 -0.059220854 0.040250953 -0.1908683 -0.056399316 -0.09290844 -0.06327409 -0.09748281
-0.019147666 -0.07735402 -0.15839851 -0.091541946 0.0015498104 -0.022246141 -0.08300009 -0.18735833
-0.169451 -0.005388458 -0.12426303 -0.022813635 0.050040033 -0.15223885 -0.05012795 -0.033322636
-0.10696298 -0.16583435 -0.15218917 -0.18219449 -0.06391794 -0.1594639 -0.09989167 -0.22912033
0.033480477 -0.15391967 0.040318996 -0.06853546 -0.08984379 -0.16233812 -0.008642321 -0.19431162
-0.17564905 -0.06540693 -0.10865872 -0.13710727 -0.095736645 -0.18218353 -0.035329707 -0.06867794
-0.00018806288 -0.09053519 -0.1045289 -0.09975391 0.013492166 -0.0057770894 0.015810786 -0.07409131
-0.1528197 0.041508295 -0.101439625 -0.068142325 -0.19196896 0.041172836 0.03561794 0.005316846
-0.093366854 0.015842427 -0.122959375 0.021585485 -0.124133185 0.00668199 -0.06474272 -0.071470544
-0.07859991 -0.11945932 -0.16406374 -0.14040504 -0.1319555 -0.02878448 -0.121249504 -0.11118643
-0.06466147 -0.030087555 -0.15018749 -0.11453332 -0.025360972 -0.114772685 -0.059027147 -0.12893371
-0.09767297 -0.12833479 -0.1090222 -0.12781292 -0.15955807 -0.113673404 0.03688054 -0.053909525
-0.029792152 0.053763688 -0.0042212 -0.046603665 -0.0033884568 -0.102089666 -0.21505004 -0.03107677
-0.06940493 0.009356085 -0.00610572 0.0028325245 0.0058492436 -0.032653168 -0.028548028 -0.13096282
-0.22713387 -0.040230714 -0.09904317 -0.11303597 -0.22223924 -0.03509489 -0.105140224 -0.12555861
0.016586948 -0.23250891 0.003103325 -0.19563918 -0.08196096 -0.10625062 -0.20815378 -0.18047623
-0.12252852 -0.17064987 -0.16821645 -0.105466954 -0.1361679 -0.03626896 -0.1791623 -0.12786716
0.008959296 -0.14958225 -0.22754009 -0.049254872 -0.15135267 -0.06892965 -0.11258694 -0.08199476
0.0009209267 -0.15949163 -0.0127679715 -0.12821881 -0.16256928 0.01827033 -0.055611618 -0.12032663
-0.14844757 -0.1461265 -0.08019729 0.016727684 -0.1461727 -0.15642652 -0.054605965 -0.13089988
0.047487084 -0.105593234 -0.054457683 0.015924681 -0.14890997 0.0006961857 -0.014494187 -0.07597253
-0.10049265 -0.13210765 0.025828633 -0.06516841 -0.039329596 0.043800946 -0.17024425 -0.00023398192
-0.15877508 0.03743705 -0.060458485 -0.065192945 -0.015482264 -0.14789003 -0.08513929 -0.09369573
-0.11481956 -0.16492747 -0.09996363 -0.17359602 -0.09770252 -0.1326193 -0.09419376 -0.04436646
-0.11241142 -0.14905675 -0.059611198 -0.01448038 -0.18494935 0.058198724 -0.1883179 -0.013493125
-0.041987803 -0.11431533 -0.20235164 -0.118071645 -0.21414025 -0.11576308 -0.1939863 -0.010220152
00000000: 33c5 dfbe a334 f2be bdfb e0be de6e cfbe
00000010: 5781 51bd f88d 08bf 5314 a8be b97e b8be
00000020: f599 babe aa72 27be 0892 9dbe 2079 d3be
00000030: 137c 05bf 9100 bebe b6b5 8dbe 1f5b 05bf
00000040: a90c b8be 5523 febe ba72 e9be 21ba 3cbe
00000050: 3d8d 9fbe c914 eebe 457e 07bf 496a 09bf
00000060: 1e27 17be c735 a9be 1e65 dcbe 776d d3be
00000070: 9879 9dbe efef 0c3e e2de 01bf 4733 0cbf
00000080: bfe4 abbe c946 bebe 750b e83d ed7e cabe
00000090: 9421 e1be cf5c 02bf a39a dcbe bbcd 00bd
000000a0: b2f2 edbe ebb2 d0be 7b5d f4be 57c1 f7be
000000b0: 91b4 d6bd 003a a7be 5181 efbe 6611 b6be
000000c0: 0bad 0bbf 9191 72bd 2fde 243d fb72 43be
000000d0: f802 67bd c846 bebd d995 81bd 11a5 c7bd
000000e0: 91db 9cbc c96b 9ebd 3833 22be 587a bbbd
000000f0: 0223 cb3a 8a3d b6bc f4fb a9bd ddda 3fbe
00000100: 9084 2dbe a991 b0bb 9e7d febd a9e3 babc
00000110: c7f6 4c3d 80e4 1bbe f752 4dbd 517d 08bd
00000120: 680f dbbd 7bd0 29be 7ad7 1bbe 3191 3abe
00000130: 69e7 82bd 814a 23be 0194 ccbd 859e 6abe
00000140: d322 093d 1e9d 1dbe 8825 253d 525c 8cbd
00000150: 0500 b8bd f73b 26be 8698 0dbc a0f9 46be
00000160: 58dd 33be 12f4 85bd 7788 debd d965 0cbe
00000170: 9311 c4bd 528e 3abe e2b5 10bd 05a7 8cbd
00000180: bf32 45b9 846a b9bd 3f13 d6bd c74b ccbd
00000190: 3f0e 5d3c bd4d bdbb 9f85 813c 2fbd 97bd
000001a0: c47c 1cbe 9a04 2a3d 94bf cfbd 348e 8bbd
000001b0: 8393 44be d9a4 283d 1ee4 113d f038 ae3b
000001c0: 1f37 bfbd fac7 813c 20d2 fbbd 0bd4 b03c
000001d0: 8a39 febd 98f4 da3b d597 84bd 265f 92bd
000001e0: fdf8 a0bd 17a7 f4bd 5300 28be 57c6 0fbe
000001f0: 581f 07be 6ecd ebbc a951 f8bd b6b5 e3bd
00000200: 3c6d 84bd 2d7a f6bc c0ca 19be 7290 eabd
00000210: d0c1 cfbc f10d ebbd 73c6 71bd 3307 04be
00000220: c408 c8bd 326a 03be 0847 dfbd 64e1 02be
00000230: 3163 23be 9acd e8bd 0d10 173d 3cd0 5cbd
00000240: ac0e f4bc 5037 5c3d fe51 8abb 7ce3 3ebd
00000250: df10 5ebb 6314 d1bd 1436 5cbe b694 febc
00000260: 2c24 8ebd 444a 193c 7e12 c8bb e0a1 393b
00000270: 03ab bf3b 54bf 05bd 8edd e9bc 1e1b 06be
00000280: c895 68be f6c8 24bd 25d7 cabd 677f e7bd
00000290: af92 63be a9bf 0fbd c253 d7bd 7092 00be
000002a0: 5ae1 873c d116 6ebe 2761 4b3b a355 48be
000002b0: 26db a7bd ed99 d9bd 4426 55be c3ce 38be
000002c0: 3cf0 fabd d7be 2ebe ef40 2cbe 0fff d7bd
000002d0: 996f 0bbe c38e 14bd 5276 37be 9cef 02be
000002e0: 03ca 123c 172c 19be 4500 69be 7abf 49bd
000002f0: 32fc 1abe fd2a 8dbd fb93 e6bd deec a7bd
00000300: 586a 713a c651 23be c130 51bc cb4b 03be
00000310: 9078 26be a9ab 953c 02c9 63bd cf6d f6bd
00000320: a402 18be 2fa2 15be 7a3e a4bd 7f08 893c
00000330: 4cae 15be 462e 20be 81aa 5fbd 9e0a 06be
00000340: d181 423d 4441 d8bd 050f 5fbd 7a74 823c
00000350: db7b 18be 3b80 363a 0779 6dbc 7c97 9bbd
00000360: 17cf cdbd 3a47 07be 9296 d33c 0477 85bd
00000370: 1218 21bd 9f68 333d 8254 2ebe 0b59 75b9
00000380: ef95 22be 9857 193d 51a3 77bd e183 85bd
00000390: 52a9 7dbc 7c70 17be 825d aebd 8ce3 bfbd
000003a0: 8426 ebbd bfe2 28be bbb9 ccbd 28c3 31be
000003b0: 4218 c8bd 5bcd 07be a8e8 c0bd 9bb9 35bd
000003c0: f537 e6bd 55a2 18be df2a 74bd 1e3f 6dbc
000003d0: 5d63 3dbe c961 6e3d 68d6 40be 4512 5dbc
000003e0: 67fb 2bbd 281e eabd 4535 4fbe 8ccf f1bd
000003f0: 9547 5bbe 3215 edbd 58a4 46be 6d72 27bc

weight_hh_l0 f4 [64, 64]
-0.031170204 0.052971184 -0.021853372 0.019829199 0.06347634 -0.057814375 -0.07028724 -0.042222932
0.0893005 -0.014277041 -0.10386604 -0.09747952 -0.047059283 -0.031073198 -0.039632782 -0.10885447
0.020468935 -0.08364394 -0.06062077 -0.1120559 0.06444353 0.0855536 0.12187743 -0.018584639
-0.026581705 0.07786222 -0.075869665 0.02917014 0.075739995 0.104867965 -0.013386443 0.01595135
0.06617385 0.06359337 0.08927715 -0.117460325 -0.004859641 -0.08059238 0.01041171 -0.11959423
0.08923228 0.02059777 -0.053070053 -0.11274403 0.113588095 0.0055429935 0.03173782 -0.008204594
-0.106991276 -0.053582966 0.073235005 -0.021037132 -0.07565735 0.10263157 0.09087603 0.06640874
0.019677803 0.0021250844 -0.07542822 -0.058825284 0.015651122 -0.08470397 0.08534902 -0.0551012
-0.09437336 -0.011373892 -0.075774655 0.030508995 -0.02625908 0.11947918 0.054799154 -0.05432293
0.05066608 0.0560053 -0.018563956 0.03320706 -0.118116125 0.09148519 -0.03028746 -0.040748164
-0.09470023 0.10969785 0.059608504 -0.012353927 -0.12127498 0.006412789 -0.008120567 0.10475919
0.08653931 -0.016132146 -0.05209121 -0.11404064 -0.08195557 0.07053091 -0.098797396 -0.024955913
0.12329964 -0.0035115927 0.093606174 -0.09128544 -0.076461375 0.0015421808 0.043715328 -0.009664625
0.10717867 0.006882176 -0.07569066 -0.07207763 -0.11603701 0.10714789 -0.045627594 -0.052197024
-0.08706136 -0.03466992 0.0076883584 -0.060997263 0.032830417 -0.011304855 -0.11727455 -0.030149907
0.09647487 -0.1077244 -0.084094286 0.07140967 -0.059509337 0.08655457 -0.077874556 -0.067232296
-0.106582314 -0.099500954 0.093266726 0.053407013 0.016379088 -0.09785272 -0.11389224 -0.05129105
-0.04625404 -0.05499184 0.040133744 -0.06004964 0.087749645 -0.12258719 -0.10332163 0.04784751
-0.031498566 -0.020159125 0.076404974 -0.00025504827 0.114690736 -0.044608355 0.012626335 0.08900714
0.12029658 0.042794302 0.02054134 -0.09628159 -0.08569664 0.061155304 0.10505308 0.10615894
0.020956427 -0.022398055 0.072647646 -0.1096454 -0.0019016564 -0.006809637 0.04460901 0.11327025
0.00911732 -0.070297986 0.107718855 0.12357432 -0.118041486 -0.0743026 -0.08525188 0.11594334
-0.05191563 0.09138386 0.08286628 0.050474316 0.04745768 0.11661379 0.10885906 0.10431187
0.08801912 -0.099083185 -0.120126024 0.09592916 0.08694564 -0.103589684 0.044234186 0.050799802
-0.07040037 -0.08775784 0.021055132 0.031780437 0.010887742 -0.10199502 0.04585202 0.090970114
-0.036657438 0.031318158 0.12143606 0.037934765 0.02384691 -0.0013104975 0.10815577 0.11666958
-0.09103249 -0.09296574 0.072023734 -0.01956658 -0.09229419 0.00601016 -0.02644281 0.08717403
0.008445978 -0.0018831044 0.06457977 0.1093687 0.022184521 -0.02250722 -0.057751626 0.004327178
0.08950214 -0.037995934 -0.06984763 -0.06364025 -0.021275997 0.03743249 -0.014453158 0.051536858
-0.08462548 -0.09847048 0.1137034 -0.055657133 -0.11334133 -0.109468326 -0.1150918 -0.06841029
-0.09326996 0.040258154 0.01679933 0.10175674 0.060693383 0.09784374 -0.101441935 -0.0548245
0.0636379 -0.00021326542 -0.070963666 -0.11780235 0.04061705 0.08034134 0.07435736 0.108894035
00000000: a858 ffbc 50f8 583d d805 b3bc d870 a23c
00000010: e2ff 813d c4ce 6cbd c2f2 8fbd f4f1 2cbd
00000020: 2ee3 b63d 40ea 69bc b8b7 d4bd 58a3 c7bd
00000030: 3cc1 40bd 388d febc fc55 22bd 18ef debd
00000040: 78ae a73c 844d abbd 7c4d 78bd 907d e5bd
00000050: f8fa 833d ba36 af3d e09a f93d d03e 98bc
00000060: e0c1 d9bc 3a76 9f3d 8e61 9bbd 38f6 ee3c
00000070: 921d 9b3d 04c5 d63d d052 5bbc 68ac 823c
00000080: 2886 873d 3e3d 823d f0d6 b63d 0a8f f0bd
00000090: a03d 9fbb 9e0d a5bd e095 2a3c d2ed f4bd
000000a0: 6abf b63d a8bc a83c fc5f 59bd 58e6 e6bd
000000b0: e0a0 e83d 00a2 b53b 84ff 013d 906c 06bc
000000c0: 3e1e dbbd d079 5bbd 3cfc 953d 1056 acbc
000000d0: 3ef2 9abd 8030 d23d 361d ba3d 4e01 883d
000000e0: 5833 a13c 0045 0b3b 1c7a 9abd c8f2 70bd
000000f0: c836 803c 4679 adbd 78cb ae3d ccb1 61bd
00000100: d246 c1bd 9059 3abc be2f 9bbd 00ee f93c
00000110: 481d d7bc 80b1 f43d 1475 603d b881 5ebd
00000120: 3c87 4f3d d065 653d 7013 98bc 2004 083d
00000130: dee6 f1bd 965c bb3d 681d f8bc 8ce7 26bd
00000140: 32f2 c1bd 44a9 e03d 0c28 743d 2068 4abc
00000150: 045f f8bd 6022 d23b 200c 05bc fc8b d63d
00000160: 863b b13d 9027 84bc 985d 55bd 248e e9bd
00000170: 52d8 a7bd 8272 903d 4a56 cabd 5870 ccbc
00000180: 8684 fc3d c022 66bb 98b4 bf3d dcf3 babd
00000190: c897 9cbd 0023 ca3a d80e 333d 6058 1ebc
000001a0: 7e80 db3d e083 e13b b403 9bbd 709d 93bd
000001b0: d0a4 edbd 5a70 db3d 00e4 3abd 8ccc 55bd
000001c0: 3a4d b2bd 0c02 0ebd a0ee fb3b 44d8 79bd
000001d0: 3079 063d 0038 39bc a42d f0bd f0fc f6bc
000001e0: 9e94 c53d 9c9e dcbd a039 acbd 3c3f 923d
000001f0: 10c0 73bd 8643 b13d b27c 9fbd 16b1 89bd
00000200: d447 dabd 28c7 cbbd a002 bf3d 50c1 5a3d
00000210: 702d 863c 0267 c8bd 5640 e9bd 9016 52bd
00000220: e074 3dbd 203f 61bd 4863 243d 9cf6 75bd
00000230: 16b6 b33d fe0e fbbd 4a9a d3bd c0fb 433d
00000240: a404 01bd c024 a5bc 367a 9c3d 00b8 85b9
00000250: fae2 ea3d 40b7 36bd b0de 4e3c 6049 b63d
00000260: 0e5e f63d 1449 2f3d 5046 a83c 482f c5bd
00000270: b881 afbd fc7d 7a3d 1226 d73d dc69 d93d
00000280: d0ac ab3c 207c b7bc 4ac8 943d c48d e0bd
00000290: 0041 f9ba 6023 dfbb f0b7 363d 3cfa e73d
000002a0: d060 153c 64f8 8fbd b49b dc3d 8814 fd3d
000002b0: bcbf f1bd f62b 98bd 8a98 aebd b473 ed3d
000002c0: 7ca5 54bd 7627 bb3d ccb5 a93d 28be 4e3d
000002d0: fc62 423d 36d3 ee3d 80f1 de3d 76a1 d53d
000002e0: 5e43 b43d 20ec cabd a204 f6bd 8276 c43d
000002f0: 8e10 b23d d426 d4bd e82e 353d 7413 503d
00000300: 122e 90bd 62ba b3bd d07b ac3c 342c 023d
00000310: 8062 323c c4e2 d0bd 54cf 3b3d 8a4e ba3d
00000320: 1c26 16bd 7847 003d 78b3 f83d 7c61 1b3d
00000330: 985a c33c 00c5 abba c680 dd3d 76f0 ee3d
00000340: 3e6f babd d264 bebd 2e81 933d 184a a0bc
00000350: bc04 bdbd e0f0 c43b 989e d8bc 4c88 b23d
00000360: 0061 0a3c 80d2 f6ba 6642 843d b2fc df3d
00000370: 50bc b53c 1061 b8bc f88c 6cbd 00cb 8d3b
00000380: e64c b73d a0a1 1bbd 460c 8fbd d255 82bd
00000390: 004b aebc d052 193d f0cc 6cbc 5018 533d
000003a0: 2050 adbd e4aa c9bd 54dd e83d bcf8 63bd
000003b0: 801f e8bd ee30 e0bd 40b5 ebbd b21a 8cbd
000003c0: 5204 bfbd bce5 243d c09e 893c d665 d03d
000003d0: a099 783d 4c62 c83d cac0 cfbd a88f 60bd
000003e0: 9654 823d 00a0 5fb9 6655 91bd 5c42 f1bd
000003f0: 105e 263d 008a a43d ac48 983d d603 df3d

bias_ih_l0 f4 [64]
-0.31368336 -0.1340058 -0.031440057 -0.17431144 -0.01084772 -0.05025075 0.62224525 0.086058445
-0.1520517 -0.14846334 -0.039522488 -0.08523077 -0.18066597 -0.25281873 -0.02980758 0.012346394
-0.25270757 -0.28275722 0.29534072 -0.031735886 -0.25293323 -0.20534934 0.4391113 -0.015247534
-0.027188387 -0.12783095 -0.09875636 -0.0336091 0.010175634 -0.012150557 -0.15885398 -0.11817522
-0.1599495 -0.06857544 -0.020571738 -0.15114893 -0.11969027 -0.15029529 -0.14492282 -0.14907038
-0.010689146 -0.26338568 3.156846 -0.14300594 -0.037028313 -0.03840815 -0.31959182 -0.14782108
-0.19063857 -0.12571485 0.0011089115 0.9175614 -0.10021821 -0.005083349 -0.14605708 -0.16427502
-0.15233594 -0.16332798 -0.11568055 0.5621502 -0.09367628 -0.14571774 -0.122120984 3.7847114
00000000: 1b9b a0be d138 09be 4ac7 00bd b37e 32be
00000010: a3ba 31bc bbd3 4dbd 774b 1f3f 693f b03d
00000020: 71b3 1bbe c606 18be 55e2 21bd 788d aebd
00000030: 8000 39be 7571 81be 072f f4bc 8848 4a3c
00000040: e362 81be 8ec5 90be e636 973e 7dfd 01bd
00000050: 7780 81be 1947 52be 32d3 e03e cbd0 79bc
00000060: 2eba debc 1ee6 02be c640 cabd b2a9 09bd
00000070: b4b7 263c 2113 47bc 9eaa 22be da05 f2bd
00000080: cdc9 23be 4871 8cbd 1086 a8bc c9c6 1abe
00000090: 2c20 f5bd 02e7 19be a666 14be e8a5 18be
000000a0: 8721 2fbc 7dda 86be c409 4a40 2670 12be
000000b0: 00ab 17bd dd51 1dbd 8aa1 a3be 695e 17be
000000c0: c236 43be 65bb 00be e558 913a 4ee5 6a3f
000000d0: 343f cdbd 3992 a6bb fd8f 15be b637 28be
000000e0: f4fd 1bbe 733f 27be ede9 ecbd 13e9 0f3f
000000f0: 59d9 bfbd 0837 15be 911a fabd b638 7240

bias_hh_l0 f4 [64]
-0.40695068 -0.06934965 -0.19193423 -0.02642573 -0.0038235437 -0.046542536 0.73248386 0.23233597
-0.2479028 -0.17046806 -0.19088736 -0.15003921 -0.19439292 -0.065350994 -0.12560084 -0.1561995
-0.2674664 -0.19342513 0.37759623 -0.23727441 -0.18819027 -0.08804846 0.33392933 -0.09872298
-0.08806997 0.04399098 -0.087957025 -0.048622847 -0.15848087 -0.056239713 -0.16778997 -0.10536597
-0.04464286 -0.037253644 -0.0677551 -0.01646053 0.004368364 -0.16638821 -0.08578875 -0.046629198
-0.2191153 -0.1508754 3.0817027 -0.15290892 -0.033591636 -0.13787259 -0.48293284 -0.24414007
-0.101049066 -0.012481346 -0.11415313 0.9515301 0.0033089342 -0.13527642 -0.045515053 -0.16989225
-0.20740521 0.035430506 -0.22311927 0.65398866 -0.13793477 -0.034148365 -0.07394958 3.5857816
00000000: d75b d0be 3007 8ebd 688a 44be c67a d8bc
00000010: 6b94 7abb 63a3 3ebd 1084 3b3f 7be9 6d3e
00000020: 3bda 7dbe 2e8f 2ebe fa77 43be e1a3 19be
00000030: f00e 47be bed6 85bd 829d 00be c3f2 1fbe
00000040: 5bf1 88be 3d11 46be 4b54 c13e 10f8 72be
00000050: f3b4 40be c052 b4bd c9f8 aa3e 462f cabd
00000060: 075e b4bd e32f 343d d022 b4bd c028 47bd
00000070: cf48 22be 9d5b 66bd 22d1 2bbe 1dca d7bd
00000080: 6edb 36bd 4797 18bd 30c3 8abd 3cd8 86bc
00000090: 7e24 8f3b ac61 2abe 03b2 afbd 42fe 3ebd
000000a0: c35f 60be 157f 1abe 9e3a 4540 2894 1cbe
000000b0: 6297 09bd 792e 0dbe f942 f7be dbff 79be
000000c0: d0f2 cebd 8f7e 4cbc 1ec9 e9bd 7a97 733f
000000d0: b4da 583b e785 0abe fe6d 3abd 3cf8 2dbe
000000e0: 0862 54be 941f 113d 6179 64be cd6b 273f
000000f0: c63e 0dbe 28df 0bbd e172 97bd 727d 6540

weight_ih_l1 f4 [64, 64]
-0.09777577 -0.08002556 -0.046297085 -0.25568196 -0.14232899 -0.082712784 -0.14363313 -0.08678848
-0.20568897 0.16819637 -0.1963512 -0.062303476 -0.06687344 -0.20621736 -0.01883869 0.014818695
-0.1855632 -0.1677714 -0.20837331 -0.21704882 -0.092049435 0.09265815 -0.10122119 -0.21206032
-0.17178361 -0.15640882 -0.12721997 0.030583808 -0.004580882 -0.09585286 -0.22346805 -0.016755002
0.1091186 -0.15149033 -0.16361141 -0.094761506 0.2332512 -0.105723545 -0.09565443 -0.07849037
-0.011155753 -0.047734525 -0.16022557 -0.2773935 -0.11184651 -0.1038948 -0.011998952 0.009584234
-0.12167064 -0.11437871 -0.046918646 -0.14466378 -0.21112427 -0.109790176 -0.19417953 -0.036926046
-0.0017946064 -0.026835935 -0.053463846 -0.12196799 -0.1608284 -0.14688657 -0.23828518 -0.09669728
-0.6920421 -0.20946439 -0.17306778 -0.1680611 0.019334663 -0.14576714 -0.19638324 -0.4142029
-0.7701273 0.11348164 -0.07681232 -0.07982599 -0.23052855 -0.0469628 -0.12733138 -0.19546351
-0.1814142 -0.047473416 -1.0688591 -0.016325328 -0.2358976 0.07063753 -0.3961928 -0.09019548
-0.25622696 -0.13036232 -0.06242498 0.036263682 -0.07865278 -0.24225734 -0.03637696 -0.077565454
-0.18348557 -0.10173279 -0.15108433 -0.048744984 -0.14710747 -0.049613435 -0.08597029 -0.1701214
-0.16285783 -0.10110155 0.004419943 -0.024597427 -0.105343275 -0.06868868 -0.6409514 -0.24928558
-0.012299889 -0.072186194 -0.10716755 -0.0361327 0.050656047 -0.047933657 -0.13816534 -0.08849644
0.022711841 -0.109162726 -0.0029101223 -0.6072473 -0.15195873 -0.23178628 -0.19974986 -0.012779094
0.2569121 0.07317936 -0.22213201 0.1440078 -0.2380383 -0.14190067 -0.81622404 -0.17141978
-1.0583904 0.07198647 0.09627047 -0.08652905 0.10135276 -0.10374661 0.050692137 -0.20429899
-0.07500278 -0.2108814 -0.48085466 -0.037831794 -0.1839048 -0.1428226 -0.97409177 -0.20959267
-0.07897073 -0.16207477 -0.0416083 0.10148019 -0.1481915 -0.22528103 -0.10009008 -0.09280426
-0.097779386 -0.1150686 -0.17199992 -0.17124726 -0.08244234 -0.09515212 -0.007876796 0.0067637516
-0.035316445 -0.08783832 0.03502865 -0.13834965 0.10247163 -0.092056505 -0.0026245867 -0.22099043
0.06669597 -0.20382603 -0.13651173 -0.1130328 0.03521716 -0.109809056 -0.15006408 -0.21521768
0.051977094 0.11923009 0.12301834 -0.6142182 -0.24843948 -0.042647947 -0.13023144 -0.22277735
-0.16926716 -0.23793289 -0.11430369 -0.06680935 -0.18705885 -0.20833836 -0.77581036 -0.09919761
-0.14779972 -0.05934741 -0.15789945 -0.04012043 -0.048544373 -0.18019456 -0.14106433 -0.11981249
-0.06631151 -0.03082026 -0.11797236 -0.20764865 -0.1717995 -0.035838123 -0.42117086 -0.15124266
-0.16615 -0.13957497 -0.18890975 -0.17777833 -0.048503436 -0.25354838 -0.02992943 -0.03432601
-0.014437511 -0.1596804 0.02842952 -0.07029944 -0.15559825 -0.1325442 -0.05647417 -0.11192617
-0.21297619 -0.21839646 -0.08628228 -0.108580776 0.23410055 -0.15775312 -0.042389452 -0.02407932
-0.13264443 -0.028850364 -0.111566775 -0.011265448 0.42462474 -0.20013435 -0.026123665 -0.16772057
0.05320767 -0.21934526 -0.048743606 -0.12733501 -0.132833 -0.048685163 -0.1121504 -0.17891073
00000000: aa3e c8bd 71e4 a3bd 03a2 3dbd bfe8 82be
00000010: b1be 11be 5265 a9bd 9014 13be 29be b1bd
00000020: 21a0 52be ab3b 2c3e 4a10 49be ee31 7fbd
00000030: f1f4 88bd a52a 53be 9953 9abc 1dca 723c
00000040: 4804 3ebe 44cc 2bbe d05f 55be 0c42 5ebe
00000050: 6a84 bcbd 8ec3 bd3d 0e4d cfbd 5726 59be
00000060: 0be8 2fbe a229 20be f445 02be e58a fa3c
00000070: 391b 96bb 814e c4bd cfd4 64be c941 89bc
00000080: 9379 df3d 4820 1bbe c089 27be 5212 c2bd
00000090: 67d9 6e3e 9685 d8bd 78e6 c3bd 8fbf a0bd
000000a0: 9fc6 36bc 4785 43bd 2c12 24be 8506 8ebe
000000b0: c80f e5bd ccc6 d4bd 4197 44bc 3107 1d3c
000000c0: 752e f9bd 633f eabd c42d 40bd be22 14be
000000d0: f630 58be acd9 e0bd 00d7 46be c43f 17bd
000000e0: 0039 ebba 09d7 dbbc e8fc 5abd 5bca f9bd
000000f0: 33b0 24be 6f69 16be 0801 74be 3909 c6bd
00000100: ac29 31bf d57d 56be ae38 31be 3618 2cbe
00000110: ba63 9e3c fb43 15be b018 49be 6712 d4be
00000120: 1027 45bf 1069 e83d c74f 9dbd cf7b a3bd
00000130: ad0f 6cbe 115c 40bd 2863 02be 9627 48be
00000140: a5c4 39be 7c73 42bd 60d0 88bf b2bc 85bc
00000150: 248f 71be 69aa 903d c8d9 cabe 68b8 b8bd
00000160: 2e30 83be b37d 05be 56b1 7fbd 3a89 143d
00000170: b514 a1bd 4f12 78be 0200 15bd a3da 9ebd
00000180: a4e3 3bbe 4859 d0bd dab5 1abe d2a8 47bd
00000190: 57a3 16be 7537 4bbd 3111 b0bd 4e34 2ebe
000001a0: 34c4 26be 540e cfbd 2bd5 903b 8b80 c9bc
000001b0: 37be d7bd a7ac 8cbd 6415 24bf b844 7fbe
000001c0: 7985 49bc 5bd6 93bd a97a dbbd e2ff 13bd
000001d0: b77c 4f3d 1556 44bd 377b 0dbe 9f3d b5bd
000001e0: 2f0e ba3c b590 dfbd c0b7 3ebb 8f74 1bbf
000001f0: 129b 1bbe 6259 6dbe 3a8b 4cbe 685f 51bc
00000200: fc89 833e 0fdf 953d 9376 63be c876 133e
00000210: 50c0 73be 694e 11be 0ff4 50bf ab88 2fbe
00000220: 5679 87bf a46d 933d 7429 c53d 2436 b1bd
00000230: 0992 cf3d 1a79 d4bd 8fa2 4f3d c133 51be
00000240: 0f9b 99bd 4bf1 57be 9532 f6be 83f5 1abd
00000250: 8a51 3cbe 1640 12be 145e 79bf 769f 56be
00000260: 68bb a1bd eef6 25be 776d 2abd d9d4 cf3d
00000270: 83bf 17be 12b0 66be 07fc ccbd 2910 bebd
00000280: 8f40 c8bd 16a9 ebbd bf20 30be 715b 2fbe
00000290: 88d7 a8bd 1ddf c2bd ad0d 01bc 76a2 dd3b
000002a0: faa7 10bd 94e4 b3bd 347a 0f3d 88ab 0dbe
000002b0: a5dc d13d 1f88 bcbd 4201 2cbb 514b 62be
000002c0: e697 883d c5b7 50be bbc9 0bbe be7d e7bd
000002d0: de3f 103d 92e3 e0bd 66aa 19be 0662 5cbe
000002e0: efe5 543d e82e f43d 0af1 fb3d 673d 1dbf
000002f0: eb66 7ebe 9daf 2ebd 645b 05be bf1f 64be
00000300: 5f54 2dbe aea4 73be 0e18 eabd 57d3 88bd
00000310: 5b8c 3fbe a756 55be 829b 46bf 1e28 cbbd
00000320: cf58 17be 4516 73bd 65b0 21be 5255 24bd
00000330: 77d6 46bd ec84 38be 2b73 10be 4060 f5bd
00000340: 54ce 87bd c57a fcbc 7e9b f1bd d9a1 54be
00000350: 35ec 2fbe ffca 12bd b5a3 d7be 5bdf 1abe
00000360: 3a23 2abe beec 0ebe 8f71 41be 860b 36be
00000370: 8aab 46bd 18d1 81be 902e f5bc 6e99 0cbd
00000380: 4f8b 6cbc 4283 23be 06e5 e83c 27f9 8fbd
00000390: 2655 1fbe abb9 07be 7651 67bd 8c39 e5bd
000003a0: 6e16 5abe 52a3 5fbe c4b4 b0bd 995f debd
000003b0: 0eb8 6f3e 098a 21be 90a0 2dbd fe41 c5bc
000003c0: f1d3 07be 9957 ecbc 1f7d e4bd b792 38bc
000003d0: 6a68 d93e 05f0 4cbe 4c01 d6bc f1be 2bbe
000003e0: 49f0 593d 0b9c 60be 60a7 47bd 1c64 02be
000003f0: 6005 08be 186a 47bd 1caf e5bd 6034 37be

weight_hh_l1 f4 [64, 64]
-0.008812219 -0.033462584 0.05811909 0.0071169436 -0.017075673 0.10337067 0.080772564 0.08597548
-0.03950599 0.032392353 -0.050414354 -0.0029005408 0.10349958 -0.089316264 -0.00903669 0.037221447
0.07289791 0.10583873 0.108861044 0.0672982 -0.011295095 -0.10295725 0.02676323 -0.048876733
-0.11353296 0.095051646 -0.015807152 -0.0065742284 -0.02349782 -0.12021385 -0.061697602 -0.082488745
0.026794255 0.101907566 0.009633869 0.09138733 -0.114319056 -0.04856211 -0.10148975 0.06526202
0.07369909 -0.06920056 0.12386793 -0.07269199 -0.0012914389 0.05134879 -0.019045338 0.032146007
0.018854305 -0.0248487 -0.11544402 0.08105521 0.057529643 -0.097280785 -0.09219186 -0.07208493
0.1226449 0.028744787 -0.107645124 -0.0888551 -0.039038017 -0.12235071 -0.09951219 0.049928844
0.021123067 0.08982827 0.09171939 -0.1117257 0.09873095 -0.0917062 0.11296709 0.026727095
0.02951546 0.076004446 -0.012093589 -0.0030605495 -0.019717917 -0.05374913 0.106354415 -0.007858977
-0.04825054 -0.05449067 0.049924597 0.007079378 0.023918986 -0.0096271485 -0.05077842 0.09470369
-0.025935858 -0.045235634 -0.08653338 -0.04995641 -0.089081556 0.028081745 -0.03963211 0.12200253
-0.081779405 0.006676674 -0.11964993 -0.07530448 -0.07829034 0.06862992 0.056013346 0.07138243
0.083151266 0.051037595 0.12416759 -0.017463744 -0.018158466 0.0997134 -0.032601684 0.06704296
0.09825125 -0.08281854 0.016069978 -0.05428937 -0.024429023 0.059461966 -0.09092477 0.032721728
0.019411057 -0.10408704 0.06500904 -0.086168826 0.0014363527 0.09514898 0.077606454 -0.09229328
-0.10616928 0.013891742 -0.03678237 0.021648377 -0.0068621337 -0.098703355 -0.111972034 -0.093632266
0.040082946 -0.025625378 0.016434982 -0.0023975521 0.097876 -0.0098425 -0.01845263 0.075822845
0.09183173 0.089603856 -0.12453419 -0.05734673 -0.09028342 -0.10813315 0.077717096 -0.070917025
0.117889255 -0.047687843 -0.05629486 0.016809568 -0.02764687 -0.08296692 0.053387225 -0.07405183
0.04150559 -0.046354815 0.106810346 0.05609633 -0.106921434 0.08387096 -0.09795314 -0.015585914
-0.028959766 -0.06940003 -0.12116329 -0.102909476 0.106845066 -0.00852564 0.015789568 0.015249595
0.02584052 -0.09007424 -0.049644396 0.0063976347 -0.11445075 0.052054808 0.093359396 0.100892276
-0.022208706 0.068529174 -0.07479823 -0.03584604 -0.09209053 0.08364794 -0.11210661 -0.10977401
0.004006341 -0.034893095 0.1121203 -0.12333003 -0.03720644 0.07349771 -0.12324877 0.0954994
0.08883238 0.04233609 0.054357573 0.030021846 0.08983612 -0.04383123 -0.11709635 -0.016768128
0.047610626 -0.0995792 -0.043779984 -0.005978197 -0.04472454 -0.064208165 -0.114272386 -0.05481334
0.12419778 0.033058852 -0.08500056 0.118955955 -0.002274558 -0.022408336 -0.093760386 0.044814393
-0.06158206 -0.08429623 0.084919855 -0.036019117 0.013837919 0.05105132 0.017154843 -0.014805257
-0.037621886 0.07267828 0.013490543 0.008598641 -0.08481556 -0.0074194074 0.05282241 0.03105709
0.033117563 0.05640495 0.047344044 -0.10483587 -0.045819134 -0.088834405 0.019397601 0.04087177
0.1215031 -0.044313505 0.03411919 0.07936756 -0.046608612 -0.07113245 0.06593537 -0.07063384
00000000: 2061 10bc 1010 09bd 480e 6e3d 4035 e93b
00000010: 48e2 8bbc 00b4 d33d 166c a53d ea13 b03d
00000020: 08d1 21bd d8ad 043d 487f 4ebd 0017 3ebb
00000030: 96f7 d33d 72eb b6bd a00e 14bc 8475 183d
00000040: 804b 953d fac1 d83d 8af2 de3d a4d3 893d
00000050: 100f 39bc 40db d2bd 903e db3c f832 48bd
00000060: f883 e8bd 70aa c23d 007e 81bc a06c d7bb
00000070: 807e c0bc ae32 f6bd a0b6 7cbd dcef a8bd
00000080: a07f db3c eab4 d03d 60d7 1d3c 4829 bb3d
00000090: 1c20 eabd 10e9 46bd dcd9 cfbd 18a8 853d
000000a0: 8cef 963d 06b9 8dbd 78ae fd3d 8adf 94bd
000000b0: 8045 a9ba 1c53 523d f804 9cbc 88ab 033d
000000c0: 5874 9a3c 808f cbbc ea6d ecbd 4600 a63d
000000d0: 34a4 6b3d 263b c7bd 16cf bcbd 44a1 93bd
000000e0: 402d fb3d 307a eb3c 0c75 dcbd aaf9 b5bd
000000f0: 54e6 1fbd 0293 fabd 0ccd cbbd 3082 4c3d
00000100: 480a ad3c e2f7 b73d 60d7 bb3d 72d0 e4bd
00000110: 7433 ca3d 76d0 bbbd 4a5b e73d c8f2 da3c
00000120: 68ca f13c 38a8 9b3d 3024 46bc 8093 48bb
00000130: 7887 a1bc 0c28 5cbd 58d0 d93d f0c2 00bc
00000140: 5ca2 45bd 9c31 5fbd bc7d 4c3d 20fa e73b
00000150: c0f1 c33c 30bb 1dbc 08fd 4fbd 02f4 c13d
00000160: 7077 d4bc 0049 39bd 6a38 b1bd 189f 4cbd
00000170: 6470 b6bd b00b e63c 4855 22bd 76dc f93d
00000180: f67b a7bd 00c8 da3b 060b f5bd 3c39 9abd
00000190: b056 a0bd d88d 8c3d 406e 653d f430 923d
000001a0: 364b aa3d cc0c 513d 944b fe3d 2010 8fbc
000001b0: 10c1 94bc 8a36 cc3d 5889 05bd d24d 893d
000001c0: f437 c93d c49c a9bd 30a5 833c 885e 5ebd
000001d0: 601f c8bc 648e 733d c436 babd 3807 063d
000001e0: f003 9f3c 962b d5bd 7623 853d 4879 b0bd
000001f0: 0044 bc3a 78dd c23d 22f0 9e3d 4204 bdbd
00000200: 486f d9bd 309a 633c 1ca9 16bd f057 b13c
00000210: c0db e0bb fc24 cabd 9851 e5bd 46c2 bfbd
00000220: 042e 243d 50ec d1bc a8a2 863c 4020 1dbb
00000230: 3673 c83d 7042 21bc f829 97bc 0249 9b3d
00000240: 4612 bc3d 3a82 b73d c80b ffbd 68e4 6abd
00000250: 84e6 b8bd ea74 ddbd 242a 9f3d f23c 91bd
00000260: ec6f f13d 5454 43bd 7095 66bd 38b4 893c
00000270: b07b e2bc 90ea a9bd 90ac 5a3d 7ca8 97bd
00000280: c401 2a3d 8cde 3dbd 62bf da3d 44c5 653d
00000290: a0f9 dabd 8ac4 ab3d a89b c8bd 105c 7fbc
000002a0: 083d edbc 9a21 8ebd 7624 f8bd 34c2 d2bd
000002b0: 96d1 da3d 20af 0bbc 2059 813c 70d9 793c
000002c0: 80af d33c d878 b8bd ec57 4bbd 40a3 d13b
000002d0: 2865 eabd 6c37 553d 3633 bf3d 9ca0 ce3d
000002e0: 08ef b5bc 0659 8c3d d02f 99bd 4cd3 12bd
000002f0: f699 bcbd 9c4f ab3d 2698 e5bd 32d1 e0bd
00000300: a047 833b 10ec 0ebd 549f e53d 7494 fcbd
00000310: c865 18bd f885 963d da69 fcbd 3095 c33d
00000320: c0ed b53d 9c68 2d3d 0ca6 5e3d 60f0 f53c
00000330: 00fc b73d 6088 33bd 36d0 efbd 505d 89bc
00000340: 5c03 433d 2ef0 cbbd a452 33bd c0e4 c3bb
00000350: 1431 37bd 927f 83bd a407 eabd f483 60bd
00000360: 685b fe3d b868 073d c614 aebd 2e9f f33d
00000370: c010 15bb b091 b7bc 7205 c0bd 4c8f 373d
00000380: 783d 7cbd 80a3 acbd 76ea ad3d c888 13bd
00000390: 70b8 623c 301b 513d 5088 8c3c c091 72bc
000003a0: 6819 1abd 5ad8 943d 7007 5d3c 50e1 0c3c
000003b0: c8b3 adbd 801e f3bb 505c 583d 706b fe3c
000003c0: 48a6 073d e008 673d d4eb 413d 30b4 d6bd
000003d0: d8ac 3bbd d0ee b5bd b8e7 9e3c 2869 273d
000003e0: 9ed6 f83d 1482 35bd 90c0 0b3d 768b a23d
000003f0: ace8 3ebd e4ad 91bd 2009 873d 7aa8 90bd

bias_ih_l1 f4 [64]
-0.09718966 -0.6232272 -0.8009347 -0.1840976 0.019748062 0.03802239 -0.16431911 -0.4268134
-0.20056409 0.08176412 -0.0057446104 -0.16488428 -0.048563074 -0.6126214 -0.16758606 -0.7361307
-0.16683745 -0.055935375 0.64746326 -0.025837451 -0.23453405 2.0639176 -0.1976265 -0.014084659
-0.9278583 0.0020013368 -0.076786265 0.13703261 -0.026760733 -0.13548441 -0.10800789 -0.043616436
-0.3893131 -0.012353273 0.07231551 -0.095567055 -0.20058037 -0.31202728 -0.14184608 -0.14289545
-0.14791195 -0.0015543823 -0.066319846 0.17223941 -0.17545708 -0.9762246 -0.18695255 0.054763563
-0.9211185 0.16833463 -0.1671972 -0.104934335 -0.1184779 -0.1637099 -0.13615721 -0.22500081
0.24146138 -0.50970954 -0.3913648 -0.10702151 -0.10263091 -0.3379754 -0.5894402 -0.21952455
00000000: 5f0b c7bd d18b 1fbf 0e0a 4dbf 1584 3cbe
00000010: b0c6 a13c 5ebd 1b3d 4543 28be 4987 dabe
00000020: ac60 4dbe f273 a73d 493d bcbb 6dd7 28be
00000030: 13ea 46bd c2d4 1cbf ae9b 2bbe 1073 3cbf
00000040: 70d7 2abe 7e1c 65bd 27c0 253f 10a9 d3bc
00000050: b229 70be 3a17 0440 9a5e 4abe 57c3 66bc
00000060: 1f88 6dbf dc28 033b 1e42 9dbd 4752 0c3e
00000070: 5339 dbbc 6dbc 0abe 3e33 ddbd 26a7 32bd
00000080: 0c54 c7be 6265 4abc 271a 943d a9b8 c3bd
00000090: f164 4dbe 0ac2 9fbe 1940 11be 2f53 12be
000000a0: 3b76 17be 6abc cbba b3d2 87bd 875f 303e
000000b0: 05ab 33be dbe9 79bf 7d70 3fbe c24f 603d
000000c0: 6cce 6bbf ea5f 2c3e be35 2bbe d0e7 d6bd
000000d0: 8ba4 f2bd 91a3 27be cc6c 0bbe 9d66 66be
000000e0: a741 773e 537c 02bf f860 c8be 182e dbbd
000000f0: 2830 d2bd 1d0b adbe 8ee5 16bf 0bcb 60be

bias_hh_l1 f4 [64]
0.061636563 -0.6491605 -0.7622574 -0.13394979 -0.07136392 0.023731526 -0.17962734 -0.4259205
-0.055832636 0.0894752 -0.046671085 -0.23786943 -0.26020202 -0.6085827 -0.174387 -0.8440851
0.049290452 -0.17441641 0.76474994 -0.24109621 -0.1644769 1.8432702 -0.18968533 -0.073618926
-0.7430314 0.12145111 -0.22930653 0.18866585 -0.24448168 -0.20790954 -0.16006562 -0.15988436
-0.45132887 -0.0747175 0.07521377 -0.24038836 -0.065819085 -0.36144358 -0.28500292 -0.028526673
0.020009829 -0.03809864 -0.3046608 0.121467024 -0.24261422 -0.76935977 -0.1923548 -0.009797951
-0.74244046 0.04171856 -0.17483076 -0.12841058 -0.03136425 0.018652633 -0.18468547 -0.24790959
0.05899432 -0.6170997 -0.2815148 -0.121548064 -0.25179073 -0.42963603 -0.52236176 -0.10219585
00000000: 9f76 7c3d 622f 26bf 4d23 43bf 222a 09be
00000010: 3f27 92bd 9e68 c23c 3bf0 37be 4012 dabe
00000020: c3b0 64bd c63e b73d 2e2a 3fbd 0b94 73be
00000030: 3339 85be 13cc 1bbf 8192 32be f615 58bf
00000040: c9e4 493d 379a 32be a7c6 433f ede1 76be
00000050: a26c 28be 47f0 eb3f df3c 42be 85c5 96bd
00000060: 4e37 3ebf 5cbb f83d 55cf 6abe 9f31 413e
00000070: 6859 7abe 3de6 54be 3ee8 23be bab8 23be
00000080: 9414 e7be 7d05 99bd ad09 9a3d 5e28 76be
00000090: 28cc 86bd 220f b9be e7eb 91be c5b0 e9bc
000000a0: a7eb a33c 520d 1cbd 80fc 9bbe b4c3 f83d
000000b0: dd6f 78be c3f4 44bf a8f8 44be 9687 20bc
000000c0: 9410 3ebf 15e1 2a3d d606 33be 107e 03be
000000d0: cd77 00bd 68cd 983c 301e 3dbe 03dc 7dbe
000000e0: 07a4 713d 3ffa 1dbf b522 90be 31ee f8bd
000000f0: b7ea 80be 41f9 dbbe 80b9 05bf 0f4c d1bd

weight_ih_l2 f4 [64, 64]
0.0037044697 0.63128704 -0.16630687 -0.1911707 0.0072143353 -0.1608217 -0.1329277 0.18876584
-0.19065551 -0.0025047106 -0.069094025 -0.11272921 -0.010057364 -0.0060005686 -0.1442475 -0.13487482
-0.12192351 -0.2202832 -0.25487804 -0.054652225 -0.17980205 -0.4516132 0.0021822383 0.17027038
0.056363698 -0.1211733 -0.10153619 -0.65471834 -0.13436937 -0.058109213 -0.24215065 -0.0041141296
-0.15413307 -0.028166521 -0.23258413 -0.02100556 -0.17867333 -0.034455135 -0.10328332 -0.19149165
-0.17132498 -0.21863367 -0.067041256 0.011152687 -0.15281361 -0.059339173 -0.041319408 -0.24992861
-0.17580572 -0.24515392 -0.23911133 -0.23320708 -0.14048225 -0.17369969 -0.18235825 -0.22163361
-0.04255665 -0.20629907 0.15378447 -0.19441655 0.018918633 0.095048286 -0.39044866 -0.066150986
-0.08266804 -0.16377804 -0.16024086 0.09962913 0.19780454 -0.025421085 0.035379466 0.018034682
-0.19710298 -0.11806027 0.031249333 0.14704561 -0.0151818525 -0.16697514 -0.1686082 -0.095385075
-0.1657953 -0.0974576 -0.25731283 -0.15162317 0.010788871 -0.12618043 -0.01902 -0.14751287
-0.20208031 0.0022886335 -0.0029391982 -0.08401919 -0.093250215 -0.06422449 -0.21045333 -0.117313005
-0.06388244 0.18123855 -0.06793607 -0.15822679 -0.102691375 -0.5002633 -0.01607893 -0.027810432
0.02195322 0.031644203 -0.21036234 -0.1580376 -0.13962798 -0.121820144 -0.011477107 -0.19052047
0.08998681 -0.17641021 -0.20424077 -0.040390596 -0.11765766 -0.05347393 -0.2006229 -0.20548949
-0.08332658 -0.060422778 0.026964385 -0.037572257 -0.0013259191 -0.213156 -0.049878817 0.15515862
-0.12606688 -0.016890358 0.1126247 -0.04908527 -0.20616883 -0.30434194 -0.09956678 0.24299434
-0.22808059 -0.18428151 -0.150011 -0.07252095 0.052053038 0.121122226 -0.0067032874 0.18192966
-0.13284394 -0.034869526 -0.15023203 -0.08358423 -0.097292535 -0.29805577 -0.13778509 0.14697976
-0.17456359 -0.05472837 -0.03634653 -0.32512558 -0.22445607 -0.17966278 -0.16148345 -0.0471269
0.0031353703 0.22288036 -0.26768485 -0.07413751 -0.09537383 -0.01148119 -0.34196565 -0.2172501
0.008891053 -0.17331545 -0.30477148 -0.18078278 -0.1893146 0.011171398 -0.3002799 -0.013531456
0.11715688 -0.03383455 -0.24960963 -0.053946592 0.019465348 -0.057390817 -0.00826303 -0.14414407
-0.1957458 -0.27861515 -0.16253088 -0.12495823 -0.3266781 -0.25056428 -0.21768944 -0.20857844
-0.083081685 -0.111934245 -0.08742041 -0.18856893 -0.08935257 -0.13432445 -0.07601426 0.014806298
-0.10568396 0.006113735 -0.11160499 -0.16339482 -0.13000755 -0.024600698 -0.04632729 -0.1797904
-0.008961462 -0.113694936 -0.45657456 -0.21719198 -0.19393788 -0.5754115 -0.013452103 0.24400222
-0.07436267 -0.15968163 -0.047829 -0.5031153 -0.2144571 -0.106049664 -0.22042394 -0.121832706
-0.035296295 -0.19411461 -0.22568777 -0.14514647 -0.11674755 -0.12715559 -0.07685044 -0.21267676
-0.051157586 -0.02707881 -0.019758046 -0.36692968 -0.22936119 -0.022365533 -0.17930889 -0.14361794
-0.122773744 -0.17942967 -0.1955597 -0.13732126 -0.1981181 -0.046650033 -0.19927575 -0.0026592026
-0.020915337 -0.091468304 -0.07843134 -0.12318212 -0.20991017 -0.14071566 -0.5022638 -0.14365046
00000000: b0c6 723b 079c 213f 594c 2abe 41c2 43be
00000010: 3b66 ec3b 72ae 24be 331e 08be d54b 413e
00000020: 333b 43be 1226 24bb 2b81 8dbd 92de e6bd
00000030: a4c7 24bc 6ba0 c4bb 9eb5 13be a01c 0abe
00000040: 09b3 f9bd eb91 61be 607f 82be 03db 5fbd
00000050: 071e 38be d839 e7be e203 0f3b 5c5b 2e3e
00000060: 9fdd 663d b529 f8bd 35f2 cfbd 9f9b 27bf
00000070: 2098 09be ed03 6ebd 57f6 77be d2cf 86bb
00000080: 0fd5 1dbe 7abd e6bc 892a 6ebe da13 acbc
00000090: 24f6 36be d420 0dbd 3586 d3bd 6316 44be
000000a0: d16f 2fbe 81e1 5fbe ed4c 89bd c2b9 363c
000000b0: 2c7b 1cbe a20d 73bd 8a3e 29bd 49ed 7fbe
000000c0: 6a06 34be a109 7bbe 9ad9 74be d6cd 6ebe
000000d0: 94da 0fbe 55de 31be 1fbc 3abe ecf3 62be
000000e0: e24f 2ebd 1040 53be ad79 1d3e 2215 47be
000000f0: 40fb 9a3c ada8 c23d e3e8 c7be 2b7a 87bd
00000100: dd4d a9bd 6eb5 27be 2e16 24be 5b0a cc3d
00000110: 468d 4a3e e13f d0bc 0fea 103d 78bd 933c
00000120: 5dd5 49be 95c9 f1bd 9afe ff3c 2093 163e
00000130: 4ebd 78bc 88fb 2abe a1a7 2cbe 4059 c3bd
00000140: 3ec6 29be da97 c7bd 82be 83be 1b43 1bbe
00000150: cec3 303c 7135 01be d5cf 9bbc 9d0d 17be
00000160: 24ee 4ebe e6fc 153b 909f 40bb 4112 acbd
00000170: f8f9 bebd 2188 83bd 1481 57be cd41 f0bd
00000180: ccd4 82bd 9996 393e 1122 8bbd 3406 22be
00000190: db4f d2bd 4111 00bf f6b7 83bc b4d2 e3bc
000001a0: 3dd7 b33c 5a9d 013d 3a69 57be 9cd4 21be
000001b0: a3fa 0ebe d77c f9bd 7a0a 3cbc cc17 43be
000001c0: 014b b83d e1a4 34be 7e24 51be 9c70 25bd
000001d0: 80f6 f0bd 7b07 5bbd 1770 4dbe d66b 52be
000001e0: 20a7 aabd e07d 77bd 6ae4 dc3c 5ee5 19bd
000001f0: 76ca adba 9145 5abe bb4d 4cbd e7e1 1e3e
00000200: ad17 01be a65d 8abc c7a7 e63d a30d 49bd
00000210: ec1d 53be b5d2 9bbe abe9 cbbd 82d3 783e
00000220: f58d 69be 4bb4 3cbe 7c9c 19be dd85 94bd
00000230: 9135 553d ee0e f83d 40a7 dbbb c54b 3a3e
00000240: 3e08 08be 59d3 0ebd 6dd6 19be 352e abbd
00000250: 4f41 c7bd c49a 98be 8917 0dbe dd81 163e
00000260: ccc0 32be db2a 60bd 19e0 14bd dc76 a6be
00000270: d0d7 65be 85f9 37be eb5b 25be 2308 41bd
00000280: c97a 4d3b c03a 643e fd0d 89be 68d5 97bd
00000290: 5b53 c3bd 9a1b 3cbc 1f16 afbe cf76 5ebe
000002a0: c7ab 113c 9b79 31be 020b 9cbe 1f1f 39be
000002b0: b0db 41be 3d08 373c 49be 99be 0ab3 5dbc
000002c0: f2ef ef3d 1996 0abd ab99 7fbe 1af7 5cbd
000002d0: cb75 9f3c a212 6bbd a961 07bc 819a 13be
000002e0: 9671 48be a5a6 8ebe 7f6e 26be 1aea ffbd
000002f0: 5a42 a7be f649 80be fbe9 5ebe 9695 55be
00000300: bb26 aabd c83d e5bd 7909 b3bd 3718 41be
00000310: 7bfe b6bd 598c 09be 5dad 9bbd 1d96 723c
00000320: d570 d8bd ba55 c83b 2891 e4bd f950 27be
00000330: b320 05be 6787 c9bc afc1 3dbd fa1a 38be
00000340: 19d3 12bc e4d8 e8bd 24c4 e9be 9367 5ebe
00000350: a797 46be 2b4e 13bf 3666 5cbc b8db 793e
00000360: 754b 98bd 9583 23be 57e8 43bd 2acc 00bf
00000370: a49a 5bbe 9130 d9bd d0b6 61be 6d83 f9bd
00000380: d992 10bd fbc5 46be b21a 67be 47a1 14be
00000390: 5719 efbd 1335 02be c363 9dbd f0c7 59be
000003a0: 9e8a 51bd 61d4 ddbc a0db a1bc 35de bbbe
000003b0: a9dd 6abe ec37 b7bc c09c 37be 9510 13be
000003c0: cd70 fbbd 69bc 37be cd40 48be f29d 0cbe
000003d0: 79df 4abe 1b14 3fbd f10e 4cbe 0446 2ebb
000003e0: a456 abbc bc53 bbbd 9ca0 a0bd e846 fcbd
000003f0: b1f2 56be c417 10be 5c94 00bf 1b19 13be

weight_hh_l2 f4 [64, 64]
-0.07536237 0.075000435 -0.037525877 0.10028003 0.12336174 0.06274319 0.09306842 -0.115655854
0.11408003 -0.124260336 -0.047850147 0.10637018 -0.0010635406 -0.06913246 -0.01483199 -0.121948674
-0.07870929 -0.020310462 0.063849464 0.07527991 0.07506186 -0.111834005 0.041854113 -0.10246244
0.09922497 0.06514101 0.037315995 0.11754145 0.018154934 -0.052608058 0.11540282 -0.028948203
0.003700152 0.059740767 0.055416957 -0.09527244 -0.030055657 -0.11525516 -0.037703425 -0.07159047
-0.049614713 -0.09162125 -0.09616694 0.06853579 0.07862379 -0.05651793 -0.02477923 -0.11712769
-0.10709059 0.04017064 -0.10757358 -0.08976287 0.014115855 0.057774857 0.10187851 -0.030046389
0.108871624 -0.114806026 0.037915498 -0.014819428 0.11846207 -0.07221557 -0.05744049 0.0369851
-0.038921252 -0.091434404 -0.029225528 0.028999463 -0.10866171 0.022451282 -0.05329363 -0.11231357
-0.013835505 -0.08294371 0.057541907 0.043245226 -0.081130326 0.0149856955 0.0981015 -0.024100602
0.080656484 -0.008952796 -0.042423368 0.08723739 0.045520872 -0.08513744 0.06351371 -0.08222942
-0.08381717 -0.053133637 -0.106346905 0.022150487 0.124633715 0.07466856 -0.05852039 0.10344151
-0.04254967 0.04436952 0.016575813 0.0059025586 -0.05235651 -0.114278555 0.043413 0.013279796
0.07302031 0.0345511 -0.007526219 -0.084896296 0.04496509 0.015148476 0.11400576 -0.10539077
0.0305821 0.12467168 0.048936546 0.079116136 0.1167656 -0.015048608 -0.013372079 -0.030542374
-0.04508625 0.078985155 -0.08879563 0.08250639 0.078452945 0.027201667 0.112433314 -0.041960657
-0.10976598 -0.031527087 0.09947364 0.0026360601 0.095430374 0.09858319 -0.06564072 -0.042208254
0.0515562 0.010781497 0.10931426 -0.07466617 0.078199804 -0.019284755 0.1213229 0.0020490289
-0.011671275 0.0229972 0.04312797 -0.0710495 -0.035910085 -0.013596863 -0.026780292 -0.07099363
0.03331928 -0.101869434 -0.005611956 0.0044474453 0.07665722 0.036392212 -0.042492673 -0.032742515
-0.06842364 -0.11344987 -0.09133132 -0.0644172 -0.07378833 0.015050873 0.08283864 0.036018938
-0.028327271 -0.054595456 -0.104138836 -0.007536128 -0.07854219 0.09992573 0.040838197 -0.07384294
0.044809207 0.06861836 -0.03747274 0.08438833 -0.023211837 0.04256639 -0.02229315 -0.053057775
-0.11621387 0.058994263 -0.038117304 0.009342298 0.018618524 -0.042382866 0.07840718 0.018305093
-0.04192175 0.114305735 0.09328283 0.029236764 -0.0032919347 -0.11493549 0.023073122 0.08332951
0.06182447 -0.09230113 0.062775314 0.11082034 -0.04907909 0.08127028 0.054187313 -0.01865369
0.017275035 -0.102745846 0.02174452 -0.100917414 0.007697135 -0.080302894 0.10937789 0.11623548
-0.12200302 0.00048848987 -0.044534013 -0.11653572 0.064998716 -0.07217944 0.0071926713 0.031196982
-0.064447224 0.09021975 0.033876628 0.09831388 0.09753059 0.07403745 0.10396735 0.09736124
0.072816595 -0.11995718 -0.10173944 0.107336596 -0.08737898 -0.048512235 0.09597267 -0.07724643
0.00974752 -0.02517204 0.014405414 0.12119171 -0.09422341 -0.019174844 0.050605386 0.0024225265
-0.068384424 0.05737008 -0.040078044 0.104283705 0.03578654 0.0026881248 -0.02528046 -0.10458918
00000000: 9657 9abd d499 993d bcb4 19bd 9e5f cd3d
00000010: 14a5 fc3d 807f 803d a89a be3d fadc ecbd
00000020: caa2 e93d 347c febd 84fe 43bd 9cd8 d93d
00000030: 8066 8bba 5295 8dbd e001 73bc 3ac0 f9bd
00000040: 5632 a1bd 2062 a6bc 82c3 823d 5a2c 9a3d
00000050: 08ba 993d 3a09 e5bd 386f 2b3d d4d7 d1bd
00000060: 7636 cb3d a668 853d a8d8 183d 92b9 f03d
00000070: a8b9 943c 8c7b 57bd 5058 ec3d c824 edbc
00000080: 407e 723b bcb2 743d e4fc 623d 321e c3bd
00000090: 4837 f6bc e60a ecbd e86e 1abd 069e 92bd
000000a0: cc38 4bbd eca3 bbbd 2cf3 c4bd 7e5c 8c3d
000000b0: 8205 a13d 587f 67bd d0fd cabc a4e0 efbd
000000c0: 5052 dbbd f889 243d 8a4f dcbd 98d5 b7bd
000000d0: 3046 673c 54a5 6c3d aea5 d03d d823 f6bc
000000e0: 16f8 de3d 6c1f ebbd 484d 1b3d 30cd 72bc
000000f0: 3e9c f23d c2e5 93bd b846 6bbd b07d 173d
00000100: e46b 1fbd f641 bbbd 606a efbc 4890 ed3c
00000110: 088a debd c0eb b73c 6c4a 5abd a804 e6bd
00000120: 50ae 62bc 64de a9bd 10b1 6b3d e821 313d
00000130: a827 a6bd 9086 753c 70e9 c83d a06e c5bc
00000140: 3a2f a53d c0ae 12bc 20c4 2dbd 84a9 b23d
00000150: 1874 3a3d 8a5c aebd 7a13 823d e667 a8bd
00000160: 56a8 abbd a8a2 59bd 68cc d9bd f074 b53c
00000170: f63f ff3d d4eb 983d 14b3 6fbd 24d9 d33d
00000180: 9048 2ebd d0bc 353d 00ca 873c 406a c13b
00000190: c873 56bd e00a eabd d4d1 313d 8093 593c
000001a0: ac8b 953d 7485 0d3d 809e f6bb 1cde adbd
000001b0: 502d 383d 5031 783c da7b e93d 1ed7 d7bd
000001c0: 5087 fa3c de53 ff3d b071 483d a407 a23d
000001d0: ce22 ef3d 708e 76bc 9016 5bbc 0034 fabc
000001e0: 5cac 38bd f8c2 a13d 7cda b5bd 1cf9 a83d
000001f0: f0ab a03d 08d6 de3c 7043 e63d f0de 2bbd
00000200: fccc e0bd 8c22 01bd d6b8 cb3d c0c1 2c3b
00000210: 0071 c33d fce5 c93d a46e 86bd 90e2 2cbd
00000220: 982c 533d e0a4 303c 28e0 df3d 94ea 98bd
00000230: 3827 a03d 10fb 9dbc 2478 f83d 0049 063b
00000240: e038 3fbc a064 bc3c f4a6 303d 6682 91bd
00000250: 7416 13bd 60c5 5ebc 5862 dbbc 1c65 91bd
00000260: cc79 083d eca0 d0bd 80e4 b7bb e0bb 913b
00000270: 76fe 9c3d 0010 153d cc0c 2ebd 041d 06bd
00000280: b221 8cbd 6858 e8bd ea0b bbbd 2aed 83bd
00000290: 561e 97bd f097 763c 4ea7 a93d 9888 133d
000002a0: 980e e8bc 7c9f 5fbd be46 d5bd a0f1 f6bb
000002b0: bada a0bd dca5 cc3d f445 273d f83a 97bd
000002c0: dc89 373d c887 8c3d 047d 19bd cad3 ac3d
000002d0: c026 bebc 185a 2e3d 20a0 b6bc 1c53 59bd
000002e0: 8a01 eebd f8a3 713d e420 1cbd 7010 193c
000002f0: e085 983c a899 2dbd f293 a03d 90f4 953c
00000300: 24b6 2bbd 2019 ea3d 120b bf3d f081 ef3c
00000310: 80bd 57bb 4c63 ebbd d803 bd3c aaa8 aa3d
00000320: a83b 7d3d 6008 bdbd 5890 803d c6f5 e23d
00000330: 2807 49bd 0871 a63d 84f3 5d3d a0cf 98bc
00000340: 6084 8d3c 6a6c d2bd 9021 b23c caad cebd
00000350: 4038 fc3b d875 a4bd 8401 e03d de0c ee3d
00000360: b8dc f9bd 000e 003a 4c69 36bd 48aa eebd
00000370: 0c1e 853d d0d2 93bd 80b0 eb3b d090 ff3c
00000380: e8fc 83bd 22c5 b83d 38c2 0a3d ca58 c93d
00000390: 1ebe c73d f2a0 973d d6ec d43d 5465 c73d
000003a0: de20 953d 1cac f5bd c45c d0bd 4ad3 db3d
000003b0: c0f3 b2bd c4b4 46bd 528d c43d 6033 9ebd
000003c0: 10b4 1f3c 9835 cebc b004 6c3c 5c33 f83d
000003d0: 34f8 c0bd 9014 9dbc 9847 4f3d 40c3 1e3b
000003e0: 220d 8cbd e4fc 6a3d e028 24bd b292 d53d
000003f0: e894 123d 402b 303b f818 cfbc da32 d6bd

bias_ih_l2 f4 [64]
-0.16727106 -0.1822722 -0.055954676 -0.06803427 -0.037296087 0.0054194736 1.8231989 -0.68324363
-0.14994732 0.027812509 -0.18550274 -0.17590286 -0.10067949 -0.03797392 -0.27123454 1.3725879
-0.5717207 -0.04617933 -0.13276285 -0.0693859 -0.35972574 1.3857553 1.2708106 0.00925163
-0.07289561 0.89600605 -0.07548569 -0.09379213 -0.1343048 0.18673241 -0.33984426 -0.8624378
-0.08501517 -0.075573914 1.6888355 -0.07690422 -0.09726511 1.9176103 -0.83261836 -0.25316557
2.0672283 2.1194654 -0.49509108 -0.057000026 -0.18059936 -0.0823489 -0.16894302 -0.03596352
0.22699645 -0.22265643 -0.1948515 -0.1501647 -0.20386705 -0.08450416 -0.12261764 -0.24480297
-0.024578338 -0.0707357 1.8147618 -0.44314215 0.061650053 -0.033580184 -0.21481143 -0.10781266
00000000: 1b49 2bbe 90a5 3abe bb30 65bd 8d55 8bbd
00000010: c8c3 18bd d795 b13b 955e e93f 0ee9 2ebf
00000020: ca8b 19be 0fd7 e33c 6ef4 3dbe e11f 34be
00000030: 0c31 cebd 8b8a 1bbd 41df 8abe f6b0 af3f
00000040: 4a5c 12bf 8a26 3dbd fcf2 07be 321a 8ebd
00000050: f92d b8be 6e60 b13f eca9 a23f 2694 173c
00000060: 4b4a 95bd a760 653f 3e98 9abd 1716 c0bd
00000070: 3387 09be c836 3f3e 1100 aebe b9c8 5cbf
00000080: 6f1c aebd 7fc6 9abd c32b d83f f67f 9dbd
00000090: ee32 c7bd 4174 f53f 7a26 55bf eb9e 81be
000000a0: 784d 0440 52a5 0740 947c fdbe dc78 69bd
000000b0: 0aef 38be 8aa6 a8bd 66ff 2cbe 7c4e 13bd
000000c0: c271 683e 0c00 64be 2787 47be c6c4 19be
000000d0: 86c2 50be 8410 adbd f51e fbbd a1ad 7abe
000000e0: 8358 c9bc e1dd 90bd 1d4a e83f 87e3 e2be
000000f0: c484 7c3d 608b 09bd 87f7 5bbe e2cc dcbd

bias_hh_l2 f4 [64]
-0.13348928 -0.044582892 -0.030050788 -0.19928573 -0.16226839 0.014673654 1.7151295 -0.54644996
-0.14230669 -0.07986466 -0.091630556 -0.07999377 -0.203639 -0.04261688 -0.30247638 1.4638448
-0.52023923 -0.038533427 -0.021219403 -0.09041913 -0.2597977 1.368096 1.3595481 0.06912932
-0.01466358 1.0181131 0.030093271 -0.17919941 -0.20174085 0.023473125 -0.22441685 -0.74124837
-0.16509019 -0.08246335 1.619549 -0.005253878 -0.10022713 1.9134778 -0.7543006 -0.21645845
1.9093564 2.3458786 -0.38124382 -0.10760703 0.017500134 -0.088484176 -0.19560021 -0.08803389
0.10300953 -0.09167791 -0.15392274 -0.21800898 -0.06009992 -0.14476092 -0.1737696 -0.044375904
-0.10847733 -0.035727642 1.8778616 -0.4042031 0.08745849 0.012773743 -0.18426137 -0.071059756
00000000: 6ab1 08be 8d9c 36bd 122d f6bc 8f11 4cbe
00000010: af29 26be c469 703c 5d89 db3f 25e4 0bbf
00000020: d8b8 11be 1590 a3bd cda8 bbbd c6d3 a3bd
00000030: be86 50be 0a8f 2ebd 2fde 9abe 445f bb3f
00000040: 662e 05bf 3ad5 1dbd 50d4 adbc aa2d b9bd
00000050: 3404 85be c51d af3f ac05 ae3f ac93 8d3d
00000060: 833f 70bc 8851 823f 2a86 f63c 0d80 37be
00000070: 2795 4ebe b64a c03c 88cd 65be 74c2 3dbf
00000080: 670d 29be 8be2 a8bd 624d cf3f b928 acbb
00000090: e243 cdbd d7ec f43f d819 41bf 49a7 5dbe
000000a0: ca65 f43f e022 1640 6432 c3be 1361 dcbd
000000b0: 715c 8f3c 3137 b5bd 6c4b 48be 1d4b b4bd
000000c0: a9f6 d23d a1c1 bbbd ec9d 1dbe bf3d 5fbe
000000d0: 552b 76bd 353c 14be a8f0 31be 82c3 35bd
000000e0: 5d29 debd 2657 12bd c55d f03f b5f3 cebe
000000f0: 701d b33d f648 513c 03af 3cbe c787 91bd
