results/model_nn.pth (torch, 125388 bytes, 7 tensors)

fc1.weight f4 [256, 50]
0.33287507 0.20777582 0.15120849 0.16727193 0.17831393 0.17508563 0.36377156 0.237004
0.31188434 0.13401091 0.2042768 0.29876575 0.10305929 0.23326239 0.22483134 0.23139836
0.10712421 0.11464429 0.20519768 0.14118186 0.09186458 0.15810531 0.2381933 0.19658425
0.24955942 0.30149707 0.19475193 0.10500814 0.25289184 0.25521567 0.23117012 0.2569885
0.12995116 0.093335085 0.1654316 0.28997114 0.12952375 0.26113528 0.34097555 0.20222609
0.23709433 0.20277758 0.13104422 0.12537521 0.22868405 0.35336202 0.26119575 0.09879989
0.27758875 0.108897015 -0.2709292 -0.19250219 -0.24469489 -0.17167965 -0.16323973 -0.00059826055
-0.05511365 -0.015065235 -0.045956362 -0.0781666 -0.16435516 -0.26430386 -0.22408688 -0.093533255
-0.021120887 -0.059366647 -0.026644172 -0.15234633 -0.2152125 -0.2479977 -0.2699981 -0.12171508
-0.14784804 -0.05742451 -0.2514187 -0.19057311 -0.14379402 -0.08005586 -0.012352601 -0.1184282
-0.23792149 -0.15393886 -0.22845656 -0.051819757 -0.23586017 -0.24875225 -0.12787576 -0.21751457
-0.2491449 -0.18255623 -0.13870655 -0.24796082 -0.08735405 -0.16322483 -0.229006 -0.22487547
0.0018639483 -0.18467197 -0.01208631 -0.15305755 -0.07045466 -0.23304778 -0.11941326 -0.09123913
-0.25634384 -0.17497738 -0.18451408 -0.11173859 -0.06390229 -0.15372694 -0.27942255 -0.285757
-0.28862008 -0.077531815 -0.22748916 -0.13501903 -0.29475486 -0.21316937 -0.24383597 -0.17971581
-0.3096475 -0.10133516 -0.10054246 -0.061130088 -0.1931014 -0.24691871 -0.1444865 -0.21363102
-0.25348303 -0.08556392 -0.14940907 -0.28591394 -0.17738166 -0.29451054 -0.08426756 -0.25236613
-0.2565056 -0.21195912 -0.12709492 -0.29738277 -0.12028456 -0.23985873 -0.2666876 -0.26479703
-0.14141649 -0.097311735 -0.162134 -0.23600674 -0.29792234 -0.26975805 -0.13931572 -0.25517035
-0.263782 -0.022179028 -0.15548691 -0.18085629 -0.12714694 -0.16981171 -0.27574903 -0.25977013
-0.2673262 -0.11975611 -0.059419665 -0.11788029 -0.15684697 -0.24598919 -0.018552087 -0.2646377
-0.2527889 -0.1562421 -0.15990517 -0.20388064 -0.18580411 -0.00429137 -0.24232532 -0.24978374
-0.07764154 -0.16913082 -0.26086074 -0.060645 -0.13754813 -0.107826956 -0.16818574 -0.12297579
-0.005557763 -0.214724 -0.23232 -0.14127837 -0.044192944 -0.046543002 -0.26669568 -0.02929133
-0.042297233 -0.15059917 -0.20925707 -0.21010406 -0.09162599 -0.005653283 -0.16371414 -0.17436594
-0.0597005 -0.11188762 -0.28928244 -0.31295407 -0.24765359 -0.05861595 -0.12109229 -0.27599752
-0.1296174 -0.26363584 -0.20391713 -0.09840338 -0.3203106 -0.26564103 -0.10226393 -0.29726985
-0.17690705 -0.25287285 -0.17337012 -0.27950534 -0.19767642 -0.17359504 -0.11622421 -0.18310082
-0.109573774 -0.04581899 -0.09542311 -0.064050175 -0.21655071 -0.29579827 -0.04768068 -0.3077381
-0.085189395 -0.29073277 -0.29377472 -0.14267823 -0.13700831 -0.14853372 -0.2067091 -0.31806213
-0.26155925 -0.14219773 -0.23295178 -0.31188473 -0.28971025 -0.32106847 -0.24753436 -0.061813287
-0.046501506 -0.16380571 -0.044630323 0.004344099 -0.07340666 -0.10122899 -0.2680493 -0.056752782
00000000: 9a6e aa3e 2fc3 543e 66d6 1a3e 5549 2b3e
00000010: ed97 363e a649 333e 4440 ba3e 2db1 723e
00000020: 4eaf 9f3e 283a 093e f02d 513e d3f7 983e
00000030: c010 d33d 56dc 6e3e 303a 663e b1f3 6c3e
00000040: f063 db3d a0ca ea3d 571f 523e fa91 103e
00000050: 7f23 bc3d 5ce6 213e f2e8 733e 624d 493e
00000060: 818c 7f3e d35d 9a3e 0d6d 473e 820e d73d
00000070: 0a7b 813e a1ab 823e dcb7 6c3e ff93 833e
00000080: eb11 053e 7726 bf3d e766 293e 1977 943e
00000090: e0a1 043e 86b3 853e 5994 ae3e 5b14 4f3e
000000a0: dbc8 723e eda4 4f3e 7530 063e 5c62 003e
000000b0: 272c 6a3e deeb b43e 73bb 853e 9957 ca3d
000000c0: 1d20 8e3e 6605 df3d 3bb7 8abe 4b1f 45be
000000d0: 4c91 7abe cacc 2fbe 5128 27be 96d4 1cba
000000e0: dabe 61bd 2dd4 76bc bd3c 3cbd cf15 a0bd
000000f0: b84c 28be d652 87be 0877 65be 5d8e bfbd
00000100: b605 adbc 712a 73bd e144 dabc ad00 1cbe
00000110: aa60 5cbe 1cf3 7dbe 313d 8abe c245 f9bd
00000120: 7a65 17be f735 6bbd f4b9 80be 9925 43be
00000130: bd3e 13be 54f4 a3bd 9062 4abc 7c8a f2bd
00000140: b1a1 73be 26a2 1dbe 84f0 69be f440 54bd
00000150: 5485 71be e9b8 7ebe ddf1 02be 24bc 5ebe
00000160: d71f 7fbe 05f0 3abe 1709 0ebe 71e9 7dbe
00000170: aee6 b2bd 6924 27be 8d80 6abe c145 66be
00000180: ba4f f43a a61a 3dbe a905 46bc 1ebb 1cbe
00000190: 884a 90bd 14a4 6ebe f08e f4bd 95db babd
000001a0: 803f 83be 452d 33be 42f1 3cbe 34d7 e4bd
000001b0: 34df 82bd 986a 1dbe 7910 8fbe be4e 92be
000001c0: 03c6 93be 00c9 9ebd ebf2 68be 6e42 0abe
000001d0: 1cea 96be 1249 5abe 23b0 79be 6c07 38be
000001e0: 1e8a 9ebe cf88 cfbd 35e9 cdbd 8b63 7abd
000001f0: 60bc 45be 42d8 7cbe 45f4 13be 17c2 5abe
00000200: 87c8 81be 233c afbd b1fe 18be 5063 92be
00000210: 8aa3 35be 16ca 96be 7894 acbd 2236 81be
00000220: b454 83be d00b 59be 2c25 02be 8e42 98be
00000230: c057 f6bd 879d 75be 478b 88be 7a93 87be
00000240: 7ccf 10be 604b c7bd 7506 26be c0ab 71be
00000250: 4789 98be ba1d 8abe c8a8 0ebe b0a5 82be
00000260: 6f0e 87be cbb0 b5bc f637 1fbe 6432 39be
00000270: cf32 02be 1fe3 2dbe fa2e 8dbe 9700 85be
00000280: fbde 88be b142 f5bd 0962 73bd 396b f1bd
00000290: 7e9c 20be 97e4 7bbe 8cfa 97bc 987e 87be
000002a0: 8c6d 81be eefd 1fbe 2ebe 23be 16c6 50be
000002b0: 6f43 3ebe 9f9e 8cbb 2124 78be 4fc7 7fbe
000002c0: 8702 9fbd a130 2dbe 8a8f 85be e466 78bd
000002d0: 6bd9 0cbe 61d4 dcbd e238 2cbe bbda fbbd
000002e0: e51d b6bb 9ce0 5bbe 4be5 6dbe 47ab 10be
000002f0: a903 35bd e0a3 3ebd 568c 88be 5ff4 efbc
00000300: dd3f 2dbd ab36 1abe 7c47 56be 8525 57be
00000310: 68a6 bbbd 2d3f b9bb aea4 27be fc8c 32be
00000320: 8388 74bd 5625 e5bd d41c 94be 843b a0be
00000330: e798 7dbe 4717 70bd 3cff f7bd 8c4f 8dbe
00000340: 6cba 04be 47fb 86be a7cf 50be b687 c9bd
00000350: c0ff a3be 1a02 88be c06f d1bd c133 98be
00000360: 1f27 35be 8d78 81be f087 31be 531b 8fbe
00000370: b06b 4abe e6c2 31be f506 eebd c87e 3bbe
00000380: 3768 e0bd b1ac 3bbd 316d c3bd bd2c 83bd
00000390: 78bf 5dbe df72 97be d14c 43bd d98f 9dbe
000003a0: c777 aebd edda 94be a469 96be 3e1a 12be
000003b0: e84b 0cbe 3919 18be 8dab 53be 0ad9 a2be
000003c0: 18eb 85be 489c 11be e98a 6ebe 5baf 9fbe
000003d0: e754 94be 1663 a4be a679 7dbe ee2f 7dbd
000003e0: 5d78 3ebd afbc 27be 49ce 36bd f258 8e3b
000003f0: 3b56 96bd 2551 cfbd c23d 89be 9b75 68bd

fc1.bias f4 [256]
0.2833701 -0.017669998 -0.21714017 -0.06516079 -0.27041456 -0.22241104 -0.030725889 -0.17367439
-0.22811046 -0.2038315 -0.1224949 -0.2887558 -0.23437901 -0.22774781 -0.06343584 -0.08278698
-0.14881715 -0.1134267 -0.31361476 -0.18240273 -0.13658787 -0.186152 -0.25719607 -0.1538508
-0.11511582 -0.3236099 -0.06542252 -0.07161176 0.11257974 -0.04244958 -0.31497356 -0.07950939
-0.16430087 -0.055620726 -0.22309794 -0.032104157 -0.11165264 -0.20259082 -0.0319024 -0.13599616
0.15678662 -0.104907036 -0.21510099 -0.28397563 -0.075639516 -0.11470117 -0.14649844 -0.16703643
-0.07272836 -0.06919715 -0.22945024 -0.30858922 -0.17801575 -0.31128177 -0.08415714 -0.21969698
-0.26647806 -0.103642285 -0.14872518 -0.17953071 -0.1400236 -0.2133008 -0.110853165 -0.24346295
-0.26878718 -0.10302556 -0.0492319 -0.029715208 -0.22628209 -0.095396034 -0.17685091 -0.08135278
-0.0898701 -0.16471983 -0.19905272 -0.06436527 -0.12612537 -0.1256815 0.032226052 -0.11011042
-0.26076126 -0.12364751 -0.006733334 -0.3202618 -0.13831693 -0.33160853 -0.2399009 -0.13257276
-0.13333191 -0.0008216406 -0.25252813 -0.08601529 -0.3333333 -0.13900281 -0.1560141 -0.06785383
-0.17657186 -0.13032788 -0.084797755 -0.24947518 -0.08608827 -0.031625535 -0.12548931 -0.022346206
-0.16357261 -0.12780161 -0.09125401 -0.15161313 -0.15478888 -0.08021051 -0.0005119679 -0.09097688
-0.26154542 -0.06663324 -0.32294714 -0.16034119 -0.076490104 -0.08881671 -0.30618975 -0.059469827
-0.31628913 -0.17961033 -0.2451218 -0.16494806 -0.07422958 -0.20896117 -0.10763913 -0.10390711
-0.18944727 -0.30154502 -0.16745757 -0.23592845 -0.14166865 -0.022073014 -0.14319286 -0.17882118
-0.13845181 -0.1361309 -0.08677447 -0.23855054 -0.21443942 -0.29834297 -0.24744973 -0.011290933
-0.15130226 -0.2793703 -0.10058324 -0.2794843 -0.2637666 0.003517511 -0.06459597 -0.26509234
-0.15425609 -0.25389007 -0.12267847 -0.030138915 -0.077270515 -0.18831065 -0.08422422 -0.09849113
-0.023567744 -0.1577441 -0.2989101 -0.030355548 -0.09967625 -0.23986863 -0.24554254 -0.23539723
-0.0736539 -0.26726088 -0.09475075 -0.021245545 -0.21401685 -0.16849874 -0.27052096 -0.16165975
-0.23886618 -0.3122538 -0.14666007 -0.24308428 -0.047581114 -0.21944723 -0.07733596 -0.17343469
-0.09459433 0.18849753 -0.16021475 -0.004103398 -0.0073066643 -0.2877302 -0.14855303 -0.19729583
-0.31130117 -0.18977976 -0.2938791 -0.14565584 -0.22826447 -0.1745505 -0.18055055 -0.14539103
-0.19049484 -0.015556965 -0.07967299 -0.20000364 -0.1194448 -0.07030021 -0.035018876 -0.23916511
-0.14912227 -0.113331184 -0.13118704 -0.28766555 -0.17988044 -0.2212564 -0.12151293 -0.12644123
-0.29332164 -0.2727292 -0.25283056 -0.08310258 -0.17255123 -0.085864894 -0.23018886 -0.20929039
-0.14637606 -0.15484668 -0.08123112 -0.08102006 -0.162569 -0.06649495 -0.23001374 -0.10020764
-0.081622384 -0.023541171 -0.25822717 -0.021575542 -0.025713515 -0.24336919 -0.25615463 -0.10890232
-0.09771511 -0.16846424 -0.24737337 -0.13637078 -0.066028036 -0.28320828 -0.10654188 -0.064370506
-0.06912369 -0.24576575 -0.081262425 -0.16443658 -0.16365738 -0.27666557 -0.19491762 -0.25317052
00000000: e315 913e acc0 90bc fe59 5ebe 0573 85bd
00000010: c773 8abe b8bf 63be dcb4 fbbc b3d7 31be
00000020: ca95 69be 34b9 50be 9bde fabd cdd7 93be
00000030: 0d01 70be b936 69be a6ea 81bd 388c a9bd
00000040: 8663 18be 424c e8bd 1d92 a0be c8c7 3abe
00000050: b1dd 0bbe a19e 3ebe 34af 83be 108b 1dbe
00000060: d8c1 ebbd 32b0 a5be 3efc 85bd 30a9 92bd
00000070: 3590 e63d 9cdf 2dbd 3744 a1be d2d5 a2bd
00000080: 7d3e 28be 8fd2 63bd c973 64be a67f 03bd
00000090: 24aa e4bd f873 4fbe 17ac 02bd 9442 0bbe
000000a0: ac8c 203e 80d9 d6bd 6f43 5cbe 4165 91be
000000b0: e4e8 9abd 72e8 eabd b003 16be 990b 2bbe
000000c0: 9bf2 94bd 3cb7 8dbd 01f5 6abe 68ff 9dbe
000000d0: c349 36be 5360 9fbe 945a acbd 3ff8 60be
000000e0: d06f 88be 6842 d4bd 6a4b 18be e6d6 37be
000000f0: 5962 0fbe 866b 5abe fc06 e3bd 5a4e 79be
00000100: 799e 89be 11ff d2bd 64a7 49bd 4f6d f3bc
00000110: 7eb6 67be ff5e c3bd 6818 35be 499c a6bd
00000120: d10d b8bd 51ac 28be 7ad4 4bbe f0d1 83bd
00000130: 0227 01be a7b2 00be 77ff 033d 9281 e1bd
00000140: 8082 85be e83a fdbd 4da3 dcbb 5bf9 a3be
00000150: f4a2 0dbe 98c8 a9be 95a8 75be 27c1 07be
00000160: 2988 08be 5e63 57ba 5e4b 81be c928 b0bd
00000170: aaaa aabe c156 0ebe 29c2 1fbe f3f6 8abd
00000180: 41cf 34be ac74 05be 72aa adbd 6c76 7fbe
00000190: 0c4f b0bd c789 01bd 4580 00be 640f b7bc
000001a0: 947f 27be 6dde 02be 62e3 babd 7940 1bbe
000001b0: fa80 1ebe 6845 a4bd 9635 06ba 1652 babd
000001c0: 48e9 85be 0277 88bd 5459 a5be 7b30 24be
000001d0: d8a6 9cbd 89e5 b5bd e7c4 9cbe a296 73bd
000001e0: a6f0 a1be c5eb 37be 3601 7bbe 25e8 28be
000001f0: ae05 98bd ebf9 55be e771 dcbd 40cd d4bd
00000200: 77fe 41be 1c64 9abe ff79 2bbe 3a97 71be
00000210: 9611 11be 77d2 b4bc 26a1 12be e61c 37be
00000220: 50c6 0dbe e665 0bbe d0b6 b1bd 9846 74be
00000230: 0296 5bbe 69c0 98be 7663 7dbe 9bfd 38bc
00000240: fbee 1abe a009 8fbe 96fe cdbd 9118 8fbe
00000250: 6a0c 87be 0b86 663b e44a 84bd 2fba 87be
00000260: 4ff5 1dbe e1fd 81be da3e fbbd e3e5 f6bc
00000270: 0140 9ebd 82d4 40be bf7d acbd b8b5 c9bd
00000280: 2411 c1bc ab87 21be bf0a 99be 33ac f8bc
00000290: 1023 ccbd 1fa0 75be 816f 7bbe f90b 71be
000002a0: dbd7 96bd 6bd6 88be ae0c c2bd 230b aebc
000002b0: 3c27 5bbe ef8a 2cbe b981 8abe 228a 25be
000002c0: 5699 74be bbdf 9fbe 0f2e 16be 16eb 78be
000002d0: 6ae4 42bd c6b6 60be 5162 9ebd dd98 31be
000002e0: acba c1bd 7f05 413e 560f 24be cc75 86bb
000002f0: be6c efbb 5f51 93be 491e 18be eb07 4abe
00000300: de62 9fbe a055 42be 5277 96be ce26 15be
00000310: 29be 69be 5ebd 32be 3ee2 38be 63e1 14be
00000320: 1411 43be a4e2 7ebc 982b a3bd c1cd 4cbe
00000330: 7a9f f4bd 8ef9 8fbd f46f 0fbd b3e7 74be
00000340: 82b3 18be 2e1a e8bd e555 06be e648 93be
00000350: 9432 38be 0a91 62be c5db f8bd cf79 01be
00000360: 412e 96be 29a3 8bbe 0273 81be af31 aabd
00000370: 45b1 30be efd9 afbd a1b6 6bbe 3850 56be
00000380: 9be3 15be 2190 1ebe 805c a6bd d8ed a5bd
00000390: 7d78 26be 812e 88bd b988 6bbe aa39 cdbd
000003a0: a329 a7bd 6ad9 c0bc 5a36 84be 31bf b0bc
000003b0: 26a5 d2bc c635 79be b326 83be 2e08 dfbd
000003c0: dc1e c8bd e481 2cbe 724f 7dbe c8a4 0bbe
000003d0: b539 87bd ad00 91be a132 dabd afd4 83bd
000003e0: b990 8dbd 04aa 7bbe ea6c a6bd 1062 28be
000003f0: cd95 27be 1ca7 8dbe 7c98 47be 919f 81be

fc2.weight f4 [64, 256]
-0.22282322 -0.1947837 -0.103426404 -0.15461648 0.16310817 -0.12613444 -0.088898115 -0.10137941
-0.18921185 -0.1599295 -0.1557589 0.18043666 -0.1619716 -0.1595293 -0.1761778 -0.17185006
-0.19135448 -0.17816627 0.12300735 -0.16195476 -0.14210357 -0.099931546 -0.17330886 -0.013801777
-0.109353356 -0.19310485 -0.19218716 -0.08905474 -0.1621767 -0.080611706 0.21545126 -0.13587214
-0.15190776 -0.09122935 -0.14714101 -0.1837756 -0.26101193 -0.11380089 -0.08362411 -0.14791395
-0.11605396 -0.08333323 -0.07994718 -0.14498107 0.1859013 0.1211538 -0.08116537 -0.22945607
-0.14243396 -0.10706566 -0.13127208 -0.16051766 0.16549295 -0.14516701 -0.20799942 -0.1405486
-0.093709186 -0.13189013 -0.19019875 -0.18171781 -0.16679244 -0.25611824 -0.16847499 -0.17219397
-0.14923505 -0.104786105 0.24141984 -0.10780799 -0.088049255 -0.16199547 -0.18460986 0.176648
-0.07288377 -0.16313146 -0.101794794 -0.12223072 0.21294712 -0.15899427 -0.18950926 -0.11023698
-0.12839037 -0.113572694 -0.19400467 -0.105856024 -0.18904658 -0.08122204 -0.101804554 -0.13349143
-0.18149447 -0.2542076 0.18067266 -0.12583864 -0.07856637 -0.116707616 -0.14921956 -0.15703684
-0.16760424 0.18605697 -0.1609622 -0.09427777 -0.18850753 -0.1400094 -0.12783858 0.017863944
0.1765404 -0.2087089 -0.1760286 0.029419728 -0.18317805 -0.12730326 -0.07991199 -0.11631059
-0.2012793 -0.16160834 -0.105833694 -0.13671675 -0.1670962 -0.18634367 -0.07256607 -0.09860148
-0.14510122 -0.09995182 -0.14938325 -0.18039416 -0.10270312 -0.1521862 -0.24192128 0.03974296
-0.09180679 -0.07533892 -0.11276615 -0.10692303 -0.09042253 -0.14551924 -0.11892715 -0.13190387
-0.18445079 -0.11420087 -0.13728788 -0.08893809 -0.16608915 -0.17820552 -0.118817106 -0.104095474
-0.14229134 -0.08859453 -0.07110619 -0.16128236 -0.15061823 -0.19110848 -0.13252093 -0.04876406
-0.17640375 -0.13854764 -0.17582308 -0.20188187 -0.15928799 -0.08868116 -0.16302027 -0.11898411
-0.15426478 -0.18834558 -0.23949112 -0.09441176 -0.13670759 -0.14127818 0.21554455 -0.17799588
-0.14082398 -0.18643965 -0.1863898 -0.17207427 -0.10814326 -0.17971869 -0.110393405 -0.17392129
-0.09747359 -0.18683203 -0.15531692 -0.116884194 -0.120858476 -0.14368391 -0.08117009 -0.10652792
-0.12768951 -0.112909056 0.12514612 -0.103782006 -0.15779789 -0.10523043 -0.12632123 -0.16054332
-0.09405171 -0.10181414 -0.15117721 -0.17785916 -0.13092689 -0.20179905 0.0026574507 -0.12594236
-0.11474148 -0.1572988 -0.1607623 -0.21621071 -0.17048515 -0.115331955 -0.08457859 -0.13058442
-0.22019343 0.13756436 -0.13917847 -0.034763813 -0.08091515 -0.18331379 -0.0731547 -0.16706032
-0.16025768 -0.08367393 -0.113597415 -0.16670492 -0.20111933 -0.16054226 -0.17702992 -0.18153723
-0.0984865 -0.13834894 -0.12023206 -0.16614768 -0.122484386 -0.18774442 -0.07789241 0.1965365
-0.08384888 -0.12196081 0.10306503 -0.16230018 -0.14726214 -0.17270091 -0.10966935 -0.08809385
-0.13755372 -0.08747531 -0.054884847 -0.16358395 0.13095056 -0.09932171 -0.13683155 -0.059959996
-0.16657417 -0.12577726 0.13933006 -0.1466495 -0.18961814 -0.1929851 -0.068206854 0.10505399
00000000: c52b 64be 6175 47be 39d1 d3bd c853 1ebe
00000010: d405 273e 6329 01be 3710 b6bd 02a0 cfbd
00000020: c0c0 41be 8fc4 23be 437f 1fbe 63c4 383e
00000030: e2db 25be a65b 23be f467 34be 76f9 2fbe
00000040: 6ef2 43be 3871 36be 47eb fb3d 78d7 25be
00000050: 9983 11be e9a8 ccbd e177 31be d920 62bc
00000060: a7f4 dfbd 47bd 45be b6cc 44be 5562 b6bd
00000070: a611 26be c017 a5bd 419f 5c3e 1122 0bbe
00000080: b58d 1bbe 74d6 babd 22ac 16be ac2f 3cbe
00000090: 5ba3 85be 7110 e9bd 1e43 abbd c176 17be
000000a0: b3ad edbd 9daa aabd 59bb a3bd eb75 14be
000000b0: e95c 3e3e 7c1f f83d 083a a6bd 88f6 6abe
000000c0: 35da 11be 3e45 dbbd 306c 06be be5e 24be
000000d0: fc76 293e a9a6 14be cdfd 54be f9eb 0fbe
000000e0: 9aea bfbd 350e 07be 76c3 42be 3c14 3abe
000000f0: a3cb 2abe ee21 83be b584 2cbe 9e53 30be
00000100: 13d1 18be 199a d6bd c336 773e 6fca dcbd
00000110: 2b53 b4bd 24e2 25be 5e0a 3dbe 37e3 343e
00000120: 1644 95bd ef0b 27be ca79 d0bd 1a54 fabd
00000130: cf0e 5a3e 65cf 22be b70e 42be edc3 e1bd
00000140: c478 03be cd98 e8bd 29a9 46be 0bcb d8bd
00000150: 6d95 41be be57 a6bd e87e d0bd fab1 08be
00000160: b0d9 39be 8027 82be 4102 393e d8db 00be
00000170: 68e7 a0bd 6704 efbd 03cd 18be 44ce 20be
00000180: 72a0 2bbe b885 3e3e 46d3 24be b414 c1bd
00000190: 1e08 41be a05e 0fbe 1ee8 02be 6857 923c
000001a0: 02c7 343e c9b7 55be d740 34be a401 f13c
000001b0: 0793 3bbe c95b 02be e6a8 a3bd 3f34 eebd
000001c0: 291c 4ebe a87c 25be 56bf d8bd 7aff 0bbe
000001d0: 441b 2bbe e0d0 3ebe 859d 94bd 93ef c9bd
000001e0: 6a95 14be 8ab3 ccbd ecf7 18be 3fb9 38be
000001f0: 0356 d2bd b3d6 1bbe 36ba 77be 84c9 223d
00000200: 3305 bcbd 4b4b 9abd f0f1 e6bd 76fa dabd
00000210: 732f b9bd ff02 15be 1490 f3bd cf11 07be
00000220: abe0 3cbe 25e2 e9bd 3295 0cbe 2c25 b6bd
00000230: 4613 2abe 827b 36be 6256 f3bd 0230 d5bd
00000240: d2b4 11be 0d71 b5bd 1fa0 91bd 3427 25be
00000250: aa3b 1abe f1b1 43be 91b3 07be d3bc 47bd
00000260: 2fa3 34be 6fdf 0dbe f70a 34be 1fba 4ebe
00000270: 641c 23be 789e b5bd c9ee 26be f1ad f3bd
00000280: 96f7 1dbe aadd 40be 293d 75be f45a c1bd
00000290: 13fd 0bbe 3aab 10be b6b7 5c3e 8d44 36be
000002a0: 2934 10be 09ea 3ebe f8dc 3ebe 3d34 30be
000002b0: 377a ddbd 2d08 38be f015 e2bd 6c18 32be
000002c0: 3ca0 c7bd e550 3fbe 660b 1fbe fb60 efbd
000002d0: a684 f7bd e021 13be 813c a6bd 4f2b dabd
000002e0: 0ac1 02be dd3c e7bd 4e26 003e a98b d4bd
000002f0: c595 21be 0d83 d7bd 5a5a 01be 7865 24be
00000300: 2f9e c0bd ef83 d0bd 33ce 1abe b620 36be
00000310: b311 06be 69a4 4ebe a028 2e3b 09f7 00be
00000320: 95fd eabd f012 21be df9e 24be 5766 5dbe
00000330: a993 2ebe 2933 ecbd 8a37 adbd ecb7 05be
00000340: 637a 61be acdd 0c3e cd84 0ebe 8064 0ebd
00000350: d8b6 a5bd 9cb6 3bbe 22d2 95bd dc11 2bbe
00000360: 971a 24be 3d5d abbd c3a5 e8bd b2b4 2abe
00000370: 3af2 4dbe 3165 24be 5547 35be e5e4 39be
00000380: 4ab3 c9bd 58ab 0dbe 3a3c f6bd 9e22 2abe
00000390: 18d9 fabd 1340 40be 0e86 9fbd dd40 493e
000003a0: f6b8 abbd 97c6 f9bd c213 d33d 0532 26be
000003b0: e3cb 16be 82d8 30be 539a e0bd 8c6a b4bd
000003c0: e2da 0cbe 4126 b3bd efce 60bd 8d82 27be
000003d0: e717 063e 2e69 cbbd 921d 0cbe 9d98 75bd
000003e0: 6b92 2abe c1cb 00be 8aac 0e3e 492b 16be
000003f0: 422b 42be e39d 45be 09b0 8bbd 8c26 d73d

fc2.bias f4 [64]
-0.10600507 -0.19883855 -0.19591428 -0.20134416 -0.1371243 -0.15407787 -0.18987884 -0.1392548
-0.23522376 -0.21127807 -0.23274085 -0.17496161 -0.133361 -0.08224395 -0.12648311 -0.15782665
-0.13638185 -0.25406817 0.09612132 -0.109579995 -0.28494117 -0.16519634 -0.2024025 -0.16103543
-0.21036796 -0.24338098 -0.24959858 -0.15824768 -0.19604233 -0.19688094 -0.25947517 -0.19143234
0.2770407 -0.18279107 -0.11652398 -0.16915561 -0.15413074 -0.17983635 -0.22697039 -0.1743026
-0.17751773 -0.087144464 0.18360303 0.14808995 -0.08894479 -0.17385526 -0.10161994 -0.13241781
0.20372881 -0.20222923 -0.19561122 -0.33883765 0.16529681 0.34734568 -0.1853218 -0.16947344
-0.23496208 -0.14399451 -0.21011357 -0.15563726 -0.1620123 -0.20741944 -0.19506858 -0.095444836
00000000: 3019 d9bd 559c 4bbe c19d 48be 2a2d 4ebe
00000010: 506a 0cbe 97c6 1dbe 996f 42be cf98 0ebe
00000020: 7fde 70be 4759 58be 9e53 6ebe 2329 33be
00000030: c98f 08be 846f a8bd ca84 01be 4f9d 21be
00000040: afa7 0bbe 3915 82be 41db c43d 7a6b e0bd
00000050: cfe3 91be 3b29 29be 9a42 4fbe 79e6 24be
00000060: b36a 57be dd38 79be c596 7fbe ae0b 22be
00000070: 52bf 48be 289b 49be eed9 84be d706 44be
00000080: 47d8 8d3e 952d 3bbe 20a4 eebd 2137 2dbe
00000090: 73d4 1dbe 0527 38be ed6a 68be 617c 32be
000000a0: 35c7 35be cc78 b2bd 6f02 3c3e e4a4 173e
000000b0: b028 b6bd 1d07 32be 1d1e d0bd 8998 07be
000000c0: 499e 503e 2e15 4fbe 4f4e 48be 217c adbe
000000d0: 9143 293e 4bd7 b13e ffc4 3dbe 728a 2dbe
000000e0: e699 70be 4c73 13be 0328 57be 605f 1fbe
000000f0: 8de6 25be c365 54be 0fc0 47be 9578 c3bd

fc3.weight f4 [16, 64]
-0.30099198 -0.17998286 0.110975325 -0.1617166 -0.15918802 -0.18774565 -0.16592559 -0.12282485
-0.07523664 -0.17419453 -0.29602653 -0.10948927 -0.1365908 -0.29045504 -0.26761138 -0.2364488
-0.1768161 -0.14917427 -0.290465 -0.2984187 -0.09247244 -0.10296425 -0.0776051 -0.27758712
-0.09525056 -0.12950346 -0.21864434 -0.28086653 0.035547465 -0.14531386 -0.16344638 -0.2600235
0.10078302 -0.14661697 -0.19819036 -0.21443678 -0.09487125 -0.23737018 -0.0561269 -0.062894754
-0.2403639 -0.16647623 -0.2838967 -0.24874043 -0.20418517 -0.24899432 -0.18901911 -0.14489177
-0.27562454 -0.07010182 -0.1485577 -0.24720345 -0.28739494 0.108191326 -0.1610804 -0.012663692
-0.26708275 -0.13621004 -0.14467388 -0.15855516 -0.29045525 -0.2569856 -0.25522304 -0.1370391
0.13033837 0.2142813 0.045695752 0.1266801 0.03809467 0.1918041 0.077098705 0.11535918
-0.030617416 0.0070937574 0.20426881 -0.11673061 0.2034622 0.18479061 0.06621639 -0.032612626
-0.11815669 0.103450574 0.05546985 0.07651641 -0.046332296 0.076987 -0.28922185 0.20144883
-0.039827354 -0.21975996 -0.09276994 0.03993711 -0.078835845 0.009231825 0.017179713 -0.040895775
-0.29073277 0.12329737 0.12157299 0.19177285 0.18323238 0.1250819 0.16477984 -0.07318848
-0.110952795 -0.19979452 -0.20722963 -0.24420491 0.22946668 0.28788897 0.16348471 0.07142715
-0.29208344 -0.102403164 -0.008536026 -0.1498512 -0.17963034 -0.17294745 0.09165673 -0.07422218
0.040876284 0.20120524 0.2824924 0.12723774 0.077424176 0.25315043 -0.20794348 0.06494281
-0.17966881 -0.1627281 -0.10237107 -0.23827389 -0.1074889 0.062054045 -0.22181925 0.11215978
-0.12662052 0.057640627 0.28112704 -0.299991 -0.24096379 -0.23602137 -0.14814849 -0.064878434
-0.09638053 -0.25566062 -0.30343142 -0.056007218 0.09623055 -0.24458075 -0.23140535 0.18049966
-0.28032038 0.057465598 -0.14083995 -0.17658985 -0.08730343 -0.25218278 0.2195198 -0.1619735
-0.10804257 -0.13464563 -0.0968009 -0.16679819 -0.08048168 -0.15314983 0.07660134 -0.14293116
-0.29680946 -0.11288546 -0.08269845 -0.111985266 -0.16531366 0.11190945 -0.0748411 -0.02591756
-0.06139095 -0.23485929 -0.22565103 -0.15821184 -0.09144687 0.01597172 0.123525746 0.041604787
-0.21651165 -0.18520276 0.067792855 -0.28681257 -0.21261142 0.018455505 0.18259111 -0.092675224
-0.07989615 -0.08358566 0.04676956 -0.22897345 -0.17439318 -0.0940666 -0.22461662 -0.19510426
-0.24697293 -0.30367467 -0.111269556 -0.10325989 -0.14505926 -0.20655075 -0.24299602 -0.16024238
-0.15089537 -0.24101973 -0.19119811 -0.11803914 -0.2707113 -0.16113967 -0.20423815 -0.23105222
-0.13236102 -0.14866227 -0.08132155 -0.27866432 0.08978425 -0.2917418 -0.128183 -0.14596592
0.032287 -0.06379475 -0.22277376 -0.19674547 -0.12109519 -0.13478494 -0.16649206 -0.15330867
-0.19858658 -0.23466259 -0.056332506 -0.10585333 -0.2200291 -0.27193278 -0.24141303 -0.0675818
-0.17771058 -0.16237265 -0.27646852 -0.1610258 -0.2977378 0.03249599 -0.30435857 0.01969044
-0.13280493 -0.24437976 -0.09398964 -0.13366981 -0.17722598 -0.29954416 -0.14943106 -0.12338258
00000000: 9f1b 9abe 6d4d 38be 0847 e33d 0999 25be
00000010: 2f02 23be 6540 40be 66e8 29be 988b fbbd
00000020: ab15 9abd 0d60 32be ca90 97be e93b e0bd
00000030: 75de 0bbe 86b6 94be 5c04 89be a21f 72be
00000040: 480f 35be 24c1 18be d4b7 94be 56ca 98be
00000050: 3162 bdbd ecde d2bd 6cef 9ebd e61f 8ebe
00000060: ba12 c3bd 8e9c 04be 4de4 5fbe bdcd 8fbe
00000070: 389a 113d 28cd 14be 7d5e 27be cd21 85be
00000080: 5467 ce3d c222 16be 6af2 4abe 5195 5bbe
00000090: dc4b c2bd 2b11 73be 52e5 65bd f7ce 80bd
000000a0: f421 76be bf78 2abe e95a 91be d0b5 7ebe
000000b0: eb15 51be 5ef8 7ebe 3a8e 41be 825e 14be
000000c0: a91e 8dbe 8b91 8fbd 821f 18be e722 7dbe
000000d0: 6e25 93be 6a93 dd3d 43f2 24be 607b 4fbc
000000e0: 12bf 88be a57a 0bbe 6425 14be 495c 22be
000000f0: 8db6 94be 9e93 83be 98ac 82be fa53 0cbe
00000100: 6c77 053e 8f6c 5b3e 782b 3b3d 6eb8 013e
00000110: 2809 1c3d 4b68 443e ede5 9d3d 6f41 ec3d
00000120: 60d1 fabc c072 e83b d82b 513e 7510 efbd
00000130: 6558 503e c039 3d3e 759c 873d d194 05bd
00000140: 22fc f1bd e5dd d33d 5a34 633d a3b4 9c3d
00000150: efc6 3dbd 5cab 9d3d e314 94be 9a48 4e3e
00000160: 0222 23bd c108 61be 2bfe bdbd 1895 233d
00000170: b074 a1bd 1541 173c 78bc 8c3c 5482 27bd
00000180: edda 94be 5583 fc3d 43fb f83d 1a60 443e
00000190: 45a1 3b3e 7815 003e 0cbc 283e d8e3 95bd
000001a0: 383b e3bd ef96 4cbe 0134 54be da10 7abe
000001b0: 50f9 6a3e 2f66 933e 8968 273e 6648 923d
000001c0: f68b 95be c0b8 d1bd b0da 0bbc 9872 19be
000001d0: 04f1 37be 2319 31be 86b6 bb3d cc01 98bd
000001e0: e46d 273d bf08 4e3e d8a2 903e 9c4a 023e
000001f0: 9190 9e3d ef9c 813e 23ef 54be bc00 853d
00000200: 1afb 37be 32a2 26be eca7 d1bd 12fe 73be
00000210: 2423 dcbd 622c 7e3d 9624 63be 07b4 e53d
00000220: cfa8 01be 9418 6c3d e2ef 8f3e 6c98 99be
00000230: 36bf 76be 96af 71be 3db4 17be fcde 84bd
00000240: 2863 c5bd f3e5 82be 5d5b 9bbe d367 65bd
00000250: 8614 c53d 6073 7abe 86f5 6cbe e7d4 383e
00000260: 2786 8fbe 0c61 6b3d 5938 10be f8d3 34be
00000270: 24cc b2bd 1a1e 81be ccc9 603e 62dc 25be
00000280: 6c45 ddbd 8be0 09be 8d3f c6bd 25cd 2abe
00000290: 94d3 a4bd 4fd3 1cbe 2ae1 9c3d 8c5c 12be
000002a0: 69f7 97be 7e30 e7bd ce5d a9bd 8858 e5bd
000002b0: fc47 29be c830 e53d 4a46 99bd 1051 d4bc
000002c0: 1475 7bbd f47e 70be 1011 67be 4902 22be
000002d0: 7f48 bbbd 20d7 823c 11fb fc3d c869 2a3d
000002e0: 3bb5 5dbe cba5 3dbe fbd6 8a3d 19d9 92be
000002f0: cfb6 59be 0030 973c 2af9 3a3e 82cc bdbd
00000300: 98a0 a3bd f52e abbd 7091 3f3d 0478 6abe
00000310: 2094 32be fda5 c0bd e601 66be 69c9 47be
00000320: 79e6 7cbe 3f7b 9bbe 4be1 e3bd ec79 d3bd
00000330: 6a8a 14be 0a82 53be f3d3 78be 9416 24be
00000340: 5184 1abe e0cd 76be 70c9 43be 81be f1bd
00000350: ac9a 8abe cc01 25be ce23 51be f498 6cbe
00000360: a689 07be ec3a 18be ea8b a6bd 17ad 8ebe
00000370: cee0 b73d 2e5f 95be 6842 03be 1778 15be
00000380: 603f 043d d2a6 82bd ce1e 64be a577 49be
00000390: c100 f8bd 1005 0abe e57c 2abe f3fc 1cbe
000003a0: 485a 4bbe 644b 70be eabc 66bd a1c9 d8bd
000003b0: 4f4f 61be c63a 8bbe fa34 77be 5468 8abd
000003c0: c3f9 35be 0445 26be 488d 8dbe f3e3 24be
000003d0: 1771 98be 841a 053d e3d4 9bbe d84d a13c
000003e0: 04fe 07be b03e 7abe a47d c0bd bde0 08be
000003f0: ba7a 35be da5d 99be 7504 19be 02b0 fcbd

fc3.bias f4 [16]
-0.06479294 -0.06041527 -0.27218336 -0.069412425 -0.18288447 -0.09600676 -0.1788455 -0.2835055
-0.13068043 -0.16088535 -0.030488756 -0.14959179 -0.10431445 -0.25109437 -0.11621582 -0.23065545
00000000: 29b2 84bd 0176 77bd 9e5b 8bbe 1a28 8ebd
00000010: 1146 3bbe 319f c4bd 4623 37be a227 91be
00000020: 17d1 05be 21bf 24be 8ec3 f9bc 972e 19be
00000030: d0a2 d5bd 718f 80be 8f02 eebd f130 6cbe

fc4.weight f4 [1, 16]
-0.028303105 -0.06062924 -0.08604065 0.10003015 0.1214572 0.043113023 0.061899763 -0.0202109
-0.06287606 0.13448507 -0.085192695 -0.0051623336 0.03614706 0.066477746 0.076591626 -0.13153128
00000000: eadb e7bc 5e56 78bd 1536 b0bd 9bdc cc3d
00000010: 8dbe f83d 4897 303d 9b8a 7d3d 5491 a5bc
00000020: 2ac5 80bd 74b6 093e 8279 aebd cb28 a9bb
00000030: f10e 143d 7c25 883d 12dc 9c3d 23b0 06be
