results/model_rnn.pt (torch, 137676 bytes, 17 tensors)

weight_ih_l0 f4 [64, 50]
0	0xbe5638ab	-0.20920055
1	0xbdb56b19	-0.08858318
2	0xbd47a4ef	-0.048741277
3	0xbe259281	-0.16169168
4	0xbe396e96	-0.18108591
5	0xbe1b2a5c	-0.15152878
6	0xbe5120f4	-0.20422727
7	0x3bbeb124	0.0058194567
8	0xbe641758	-0.2227453
9	0xbe18ef07	-0.14934932
10	0xbdd65e2b	-0.1046718
11	0xbdda6348	-0.10663468
12	0xbe65d87b	-0.22445862
13	0xbbf5867b	-0.007492838
14	0xbe6261e7	-0.2210766
15	0xbddbdbdb	-0.107352935
16	0x3c242cc6	0.01002044
17	0x3c350e6d	0.011050803
18	0xbe1eada4	-0.15495926
19	0xbdc011a0	-0.09378362
20	0xbe565168	-0.20929492
21	0xbde379a5	-0.11107186
22	0x3b82d0ce	0.0039921766
23	0xbe2e5903	-0.17026143
24	0xbe1bd90b	-0.15219514
25	0xbb8e6523	-0.0043455525
26	0xbe5d586f	-0.21615766
27	0xbdf915eb	-0.12162384
28	0x398881d3	0.00026036668
29	0x3d163b4e	0.03667765
30	0xbe4292ba	-0.19001284
31	0xbe1622aa	-0.14661661
32	0xbc1605f0	-0.009156689
33	0xbd1755c0	-0.036947012
34	0xbaa5c126	-0.0012646064
35	0xbccd5a26	-0.0250674
36	0xbdd0ef62	-0.10201909
37	0xbe06ef29	-0.1317717
38	0x3bc5e764	0.006039547
39	0x3d859e45	0.06524328
40	0xbdf39373	-0.11893358
41	0xbdab5af5	-0.08366958
42	0xbdc3972b	-0.095503174
43	0xbd64750b	-0.055775683
44	0xbdd5d149	-0.104403086
45	0xbda45fa9	-0.08026058
46	0xbdc02be0	-0.093833685
47	0xbe61172a	-0.21981493
48	0xbe162373	-0.1466196
49	0xbd9a10f3	-0.07522764
50	0xbdbd2825	-0.092361726
51	0xbd644e09	-0.055738483
52	0x396f2241	0.00022805577
53	0xbd128369	-0.035769854
54	0xbb531e34	-0.0032214047
55	0x3dc46a67	0.09590607
56	0xbb65adc8	-0.0035046209
57	0xbd3214e7	-0.043476965
58	0xbcf6dfc6	-0.030136
59	0x3c648a86	0.013949042
60	0xbce557fe	-0.02799606
61	0x3d712ec9	0.05888251
62	0x3d9ba896	0.076005146
63	0x3cea7a05	0.028622637
64	0x3d7da33f	0.06192326
65	0xbd8d1ad8	-0.06889886
66	0x3d85356f	0.06504332
67	0x3de958a6	0.113938615
68	0x3c91bb25	0.017789433
69	0x3d7daec1	0.061934236
70	0x3ca421a9	0.020035582
71	0x3ded6ba0	0.115927935
72	0x3dc14173	0.094363116
73	0x3dd97511	0.10618032
74	0xbc957c0f	-0.018247632
75	0xbd92e6f2	-0.071729556
76	0x3dbf3762	0.09336735
77	0x3d88346b	0.06650623
78	0x3dc71cdc	0.09722301
79	0x3cd06bcb	0.025442025
80	0x3cb006cc	0.021487616
81	0x3dcbb67e	0.09946917
82	0x3e04b743	0.12960534
83	0xbd6a6a10	-0.057230055
84	0xbca6448f	-0.020296363
85	0x3d970e98	0.073758304
86	0x3e02a5ad	0.12758513
87	0xbc81f593	-0.01586417
88	0xbd6d3761	-0.05791414
89	0xbc91f8e0	-0.017818868
90	0x3d096145	0.03354003
91	0xbd3eb57f	-0.046559807
92	0x3d4d6729	0.05014721
93	0xbb6e3df6	-0.003635285
94	0x3d8aea3f	0.0678296
95	0x3e01a461	0.12660362
96	0x3df929fd	0.12166212
97	0x3de69d52	0.11260475
98	0x3e0d089f	0.1377282
99	0x3d7d304a	0.06181363
100	0xbd1bf761	-0.038077716
101	0xbcf6bc21	-0.030119004
102	0x3db30649	0.08741433
103	0xbd201241	-0.03907991
104	0x3df17c0c	0.11791238
105	0x3da128b2	0.0786909
106	0x3e10a6e3	0.14126162
107	0x3dbe2dae	0.092860565
108	0x3e040063	0.12890773
109	0x3df189dd	0.117938735
110	0x3ce06997	0.0273941
111	0x3c5ed0a7	0.013599551
112	0x3de5b430	0.11216009
113	0x3ddaa3aa	0.10675748
114	0x3e2e6299	0.170298
115	0xbc2f3998	-0.010694884
116	0x3ddeb5a0	0.10874486
117	0x3e2e61a7	0.17029439
118	0xbb95529e	-0.004556968
119	0x3e207ab3	0.15671806
120	0x3e3a1fe3	0.18176226
121	0x3d4ecc24	0.050487652
122	0x3e349b21	0.17637302
123	0xbc566c2d	-0.013087315
124	0x3e38bbe3	0.18040423
125	0x3b68cf9b	0.0035524133
126	0x3e0b7a8c	0.13620967
127	0x3e10bd15	0.14134629
128	0x3dc0358c	0.09385213
129	0x3d9e34e6	0.07724933
130	0xbd33888c	-0.043831393
131	0x3dfc2ef9	0.12313647
132	0x3e2b90fb	0.16754524
133	0x3d7ec6c7	0.062201288
134	0x3e10f777	0.141569
135	0x3e038295	0.12842782
136	0x3dad2ceb	0.08455833
137	0x3c277073	0.010219681
138	0x3e4bd433	0.19905166
139	0x3db05fb4	0.08612004
140	0x3e2e0015	0.16992219
141	0x3e3f03c6	0.18653783
142	0x3e2b5359	0.16731013
143	0x3deed2a3	0.116612695
144	0xbd11f0a7	-0.035629895
145	0xbb2c72e3	-0.0026313595
146	0x3c240632	0.010011243
147	0x3d483f02	0.048888214
148	0x3da7da30	0.08195913
149	0x3e14f459	0.14546336
150	0xbde15dac	-0.110041946
151	0xbe7ba941	-0.24576284
152	0xbdaf6085	-0.085633315
153	0xbd44ba06	-0.04802897
154	0xbe2ecad9	-0.17069568
155	0xbd2cc07b	-0.04217575
156	0xbd26c614	-0.040716246
157	0xbd26807f	-0.040649887
158	0xbdf6f02f	-0.1205753
159	0xbe40b4f1	-0.18819024
160	0xbe7a211a	-0.2442669
161	0xbe4c9ac8	-0.1998092
162	0xbe830d38	-0.25596023
163	0xbdb6572f	-0.08903348
164	0xbda7463a	-0.081676915
165	0xbdbc583d	-0.091965176
166	0xbdde0c3f	-0.108421795
167	0xbd492cf4	-0.049115136
168	0xbd425e4a	-0.047453202
169	0xbe56a4fc	-0.20961374
170	0xbe5ca34a	-0.21546665
171	0xbe4ef357	-0.20210014
172	0xbda5e3c4	-0.081000835
173	0xbe1a24ad	-0.15053053
174	0xbe51bb87	-0.20481692
175	0xbe2b828c	-0.16749018
176	0xbdf0e7d6	-0.11762969
177	0xbdb894f5	-0.09012786
178	0xbe432ed1	-0.19060828
179	0xbe180ac9	-0.14847864
180	0xbda25a5f	-0.07927393
181	0xbe5bc1d1	-0.21460654
182	0xbe0c99d1	-0.13730551
183	0xbdab1e45	-0.08355383
184	0xbe112e38	-0.14177787
185	0xbe3f8957	-0.18704735
186	0xbdb29f02	-0.087217346
187	0xbca41b47	-0.020032538
188	0xbda70cc3	-0.08156731
189	0xbd4d8daa	-0.05018393
190	0xbd84321f	-0.06454872
191	0xbe671248	-0.22565567
192	0xbe4b74c3	-0.1986876
193	0xbe41b0e0	-0.18915129
194	0xbd598c2b	-0.05311219
195	0xbd1949ad	-0.03742378
196	0xbdcb68df	-0.09932112
197	0xbe3e3983	-0.18576626
198	0xbe5f396c	-0.21799248
199	0xbda72124	-0.08160618
200	0xbddbec4b	-0.10738429
201	0xbdc1a66b	-0.0945557
202	0xbd8af644	-0.06785253
203	0xbe7ce548	-0.24696839
204	0xbe14195d	-0.144628
205	0xbd9f6899	-0.07783622
206	0xbe2c9df6	-0.16857132
207	0xbd8c2bf6	-0.068443224
208	0xbe3c5702	-0.18392566
209	0xbda3b61b	-0.07993718
210	0xbe6c7898	-0.23092878
211	0xbe5c2697	-0.21499096
212	0xbe09b2c6	-0.13447103
213	0xbcce260b	-0.025164625
214	0xbe01f682	-0.12691692
215	0xbd37bebb	-0.04485963
216	0xbd5a6e1e	-0.053327672
217	0xbd32b281	-0.043627266
218	0xbe7406d1	-0.23830725
219	0xbe26622f	-0.16248392
220	0xbe3506d5	-0.17678387
221	0xbcd41ca2	-0.02589256
222	0xbe2f44b2	-0.17116049
223	0xbcf8c1b5	-0.030365804
224	0xbcc2b05d	-0.023765737
225	0xbd376919	-0.044777963
226	0xbe3f17d8	-0.1866144
227	0xbe1c7efb	-0.15282814
228	0xbe3210c5	-0.1738921
229	0xbe11b9f9	-0.14231099
230	0xbe1b8238	-0.15186393
231	0xbe5067e5	-0.20352133
232	0xbdf83f41	-0.1212144
233	0xbde37d2b	-0.11107858
234	0xbda4f5c3	-0.08054688
235	0xbe75f90c	-0.24020785
236	0xbdcf89ff	-0.101337425
237	0xbe23ff16	-0.16015276
238	0xbd866cd7	-0.06563728
239	0xbe6af879	-0.22946347
240	0xbd50904a	-0.050918855
241	0xbe0c39f0	-0.13693976
242	0xbd63c0bc	-0.055603728
243	0xbe4f7f48	-0.20263398
244	0xbde7f732	-0.11326446
245	0xbd0486d6	-0.032355152
246	0xbdd096c3	-0.101850055
247	0xbe7e77bb	-0.24850361
248	0xbd92281e	-0.07136558
249	0xbe4cd9dc	-0.20004982
250	0xbb3ee2c1	-0.0029126855
251	0xbd975558	-0.07389325
252	0xbe40e6b9	-0.18838014
253	0xbd9f096a	-0.077654675
254	0xbe3e0a6b	-0.18558662
255	0xbe5871ab	-0.21137111

weight_hh_l0 f4 [64, 64]
0	0xbde3896e	-0.11110197
1	0x3da922de	0.082586035
2	0x3d61eb00	0.055155754
3	0x3dae2836	0.085037634
4	0x3de42e74	0.11141673
5	0xbd4b49f8	-0.04963109
6	0xbdb3ae20	-0.08773446
7	0x3d8c9ad4	0.068654686
8	0xbccc32b8	-0.024926528
9	0xbdafb3d8	-0.08579224
10	0x3d932c46	0.07186179
11	0xbd2b0c28	-0.04175964
12	0xbd72061c	-0.059087858
13	0xbddb5d1c	-0.107111186
14	0x3d98f73e	0.07469033
15	0x3dd978c8	0.1061874
16	0xbd9b3e24	-0.07580212
17	0xbc4bcc10	-0.012438789
18	0xbd3dfae4	-0.046381846
19	0xbda86bd0	-0.082236886
20	0x3c279d20	0.010230333
21	0xbd20b5f4	-0.039236024
22	0xbc6fd470	-0.014638051
23	0xbd1a1120	-0.037613988
24	0x3ceab190	0.028649122
25	0xbbb745e0	-0.0055930465
26	0xbd0b497c	-0.034005627
27	0x3d5cccdc	0.053906307
28	0x3bb741a0	0.00559254
29	0xbdf518e6	-0.119676396
30	0x3cf9e168	0.03050299
31	0x3ceb05e0	0.028689325
32	0xbcabd948	-0.020977631
33	0x3de97648	0.113995135
34	0xbdc83d9a	-0.097773746
35	0x3df43488	0.11924082
36	0xbd5b3db4	-0.05352564
37	0xbd6ab93c	-0.05730556
38	0x3d1bd760	0.038047194
39	0x3da687ba	0.081313565
40	0x3b75fb80	0.003753394
41	0xbce14f70	-0.027503699
42	0x3d19d654	0.037557915
43	0x3ce2f2b0	0.027703613
44	0x3d70b800	0.058769226
45	0xbd278120	-0.040894628
46	0x3cb51d40	0.022108674
47	0xbc4b4c70	-0.012408361
48	0x3c3c0d70	0.011477813
49	0xbdba10da	-0.090852454
50	0x3dc8cb66	0.0980442
51	0xbc8a0b68	-0.016851142
52	0x3da935aa	0.08262189
53	0xbc293b70	-0.010329112
54	0x3c428120	0.011871606
55	0x3cb03730	0.02151069
56	0xbdf73ae4	-0.12071779
57	0x3da58334	0.08081666
58	0x3da3dfee	0.080016956
59	0xbdbdb830	-0.092636466
60	0x3dafb970	0.08580291
61	0x3cab1ec8	0.020888701
62	0x3dcef676	0.101056024
63	0xbdea0260	-0.11426234
64	0x3dc09f16	0.09405343
65	0xbce2f260	-0.027703464
66	0x3dde1206	0.108432814
67	0xbc4cfab0	-0.01251094
68	0xbcdfa2f0	-0.027299374
69	0x3deed3b0	0.1166147
70	0xbca7bc28	-0.020475462
71	0xbdbda4dc	-0.0925996
72	0xbdbfd382	-0.09366514
73	0xbd85d8e8	-0.06535512
74	0x3cb9f5f0	0.02270028
75	0x3d9e8e56	0.07741992
76	0x3a6cae00	0.00090286136
77	0xbd16a240	-0.036775827
78	0x3cbcaa90	0.02303055
79	0x3d88c496	0.06678121
80	0xbc9c1360	-0.019052207
81	0x3de430ee	0.11142145
82	0x3de1d042	0.1102605
83	0x3df2dfbc	0.1185908
84	0x3cd69ba8	0.02619727
85	0x3b50d940	0.0031867772
86	0xbdc1ea6c	-0.094685405
87	0xbd733138	-0.05937311
88	0x3dbc433c	0.091925114
89	0xbb47f740	-0.0030512363
90	0x3cd47b98	0.02593784
91	0xbd5e59b8	-0.05428478
92	0xbdde07b2	-0.108413115
93	0xbde72a94	-0.11287418
94	0x3dd58228	0.10425216
95	0xbdeaaf0a	-0.11459167
96	0xbcb63200	-0.022240639
97	0xbcfd9520	-0.030954897
98	0xbdc6dcc2	-0.09710075
99	0xbccacea0	-0.02475673
100	0x3d80df56	0.06292598
101	0xbd2ac78c	-0.04169421
102	0x3c284e80	0.010272622
103	0xbdc000f2	-0.0937518
104	0x3dcaa1e6	0.09894161
105	0x3d431f40	0.047637224
106	0x3de3d1d8	0.11124009
107	0x3db21cfc	0.086969346
108	0xbdc0e2ee	-0.094182834
109	0x3d786e74	0.06065221
110	0xbd58fdb0	-0.05297631
111	0xbd80c890	-0.06288254
112	0xbdad0dbc	-0.08449885
113	0x3dd0b558	0.101908386
114	0xbd68d6d0	-0.056845486
115	0x3de7a068	0.11309892
116	0x3b0fc1c0	0.0021935552
117	0x3d9b2cd6	0.07576911
118	0x3d4bd430	0.049762905
119	0xbd5326e8	-0.051550776
120	0xbd5b6d20	-0.053570867
121	0x3d94d8c4	0.07267907
122	0x3d5198d0	0.051171124
123	0xbd942f0e	-0.072355375
124	0x3da63442	0.08115436
125	0x3dd13888	0.102158606
126	0x3ded05b8	0.115733564
127	0x3db6d678	0.089276254
128	0xbcb3cdd0	-0.021948725
129	0x3d8246da	0.0636117
130	0xbd9ee168	-0.077578366
131	0x3dbdc9f6	0.092670366
132	0xbdc631fc	-0.096775025
133	0x3d3ded80	0.046369076
134	0xbd243f00	-0.040099144
135	0x3d994b10	0.0748502
136	0xbb80bca0	-0.003928736
137	0x3c05b6f0	0.0081612915
138	0xbde79bb8	-0.11308998
139	0x3dd65ba8	0.10466701
140	0x3da5ad3e	0.08089684
141	0x3d9413d4	0.072303444
142	0xbcf529a0	-0.029927075
143	0xbdfa8fe4	-0.12234476
144	0xbdae520c	-0.08511743
145	0xbd913fd4	-0.070922524
146	0x3deea8ee	0.116533145
147	0x3d455ac8	0.04818228
148	0xbdae870e	-0.085218534
149	0xbd4f2594	-0.050572947
150	0xbb1edcc0	-0.0024240464
151	0x3d25605c	0.0403751
152	0x3ce5a608	0.028033271
153	0xbd2ed9f4	-0.042688325
154	0xbc97b048	-0.018516675
155	0x3d29fd18	0.041501135
156	0x3df695aa	0.12040265
157	0xbdf92ef2	-0.12167157
158	0x3d8dfe3e	0.069332585
159	0xbb057840	-0.0020365864
160	0xbdc6a1d4	-0.09698835
161	0xbd97dcca	-0.07415159
162	0x3ded1628	0.115764916
163	0xbd1ceb94	-0.038310602
164	0x3c90c318	0.017671153
165	0xbde34dd8	-0.11098832
166	0x3d68d77c	0.056846127
167	0xbd0f3530	-0.034962833
168	0xbcf34970	-0.029698104
169	0xbdcc68d8	-0.09980935
170	0xbdb7c440	-0.089729786
171	0xbdbad352	-0.091223374
172	0x3d401ddc	0.046903476
173	0xbdd989ca	-0.10621984
174	0x3d5d05a8	0.053960472
175	0x3d193ee8	0.037413508
176	0xbd67f258	-0.0566276
177	0xbda921c4	-0.082583934
178	0xbd8b399e	-0.06798099
179	0x3d47a134	0.04873772
180	0xbd71a924	-0.058999196
181	0xbd2818d0	-0.041039288
182	0x3cc348e8	0.023838475
183	0x3dc51f82	0.0962515
184	0x3d9d9f16	0.07696359
185	0x3df93964	0.121691495
186	0xbd3fd2d8	-0.046831936
187	0xbcc4c138	-0.024017915
188	0x3df2f7b0	0.11863649
189	0x3de19fc6	0.110168025
190	0x3d8b75ee	0.06809603
191	0x3a92f300	0.0011211336
192	0xbd854a9c	-0.06508371
193	0x3d03a7c4	0.032142416
194	0xbdf6e5c6	-0.120555446
195	0x3da42252	0.080143586
196	0x3c655410	0.013997093
197	0xbdd92740	-0.106031895
198	0x3d1f2628	0.038854748
199	0xbd5962d4	-0.053072765
200	0x3dda6520	0.10663819
201	0xbd00c3e0	-0.0314368
202	0xbc088c50	-0.008334234
203	0xbdde3e0e	-0.1085168
204	0x3d67b8b8	0.056572646
205	0x3791e000	1.7389655e-05
206	0xbd6838f0	-0.056694925
207	0xbd2f82a8	-0.042849213
208	0xbdd6dafc	-0.10490987
209	0x3bcde100	0.0062829256
210	0x3c96c6f8	0.018405423
211	0x3c753ff0	0.014968857
212	0xbd76b650	-0.06023246
213	0x3d5bf684	0.053701892
214	0x3dc603c6	0.096686885
215	0xbd2094d4	-0.039204434
216	0xbdefa738	-0.11701816
217	0xbd1249a4	-0.03571476
218	0x3d90de86	0.07073693
219	0xbd77787c	-0.060417637
220	0x3c5c46b0	0.013444588
221	0x3dba5a74	0.09099284
222	0x3d2b78f8	0.04186341
223	0x3de73214	0.112888485
224	0xbdf07d60	-0.117426634
225	0x3d809a82	0.0627947
226	0x3c639960	0.013891548
227	0x3cf16ba0	0.029470265
228	0xbd96cd22	-0.07363345
229	0xbcf2d640	-0.029643178
230	0xbd43ca30	-0.047800243
231	0xbd902874	-0.07038966
232	0xbb1e5d00	-0.002416432
233	0xbd248a08	-0.0401707
234	0xbcf8ec30	-0.03038606
235	0xba94ce00	-0.0011352897
236	0x3d83b2b4	0.06430569
237	0x3ddb846e	0.10718618
238	0xbdef77d2	-0.11692776
239	0xbd996998	-0.074908435
240	0xbd03371c	-0.03203498
241	0x3c37e7c0	0.011224687
242	0xbc3fc080	-0.01170361
243	0x3c881460	0.016611278
244	0xbd8c1a9a	-0.06841011
245	0xbd13bbac	-0.03606765
246	0x37398000	1.1056662e-05
247	0x3dba87e6	0.09107952
248	0xbd9a2534	-0.07526627
249	0xbddcc0c4	-0.107789546
250	0xbdffe9d6	-0.124957725
251	0x3da407c8	0.08009297
252	0xbd02b9dc	-0.03191553
253	0x3db39fc4	0.08770707
254	0xbd81ac76	-0.063317224
255	0xbd6de924	-0.05808367

bias_ih_l0 f4 [64]
0	0xbe512d28	-0.20427382
1	0xbcd98d0b	-0.026556512
2	0x3e49fc5c	0.19725174
3	0xbe0a01c5	-0.13477238
4	0xbd1be9f5	-0.038064916
5	0xbe35b331	-0.17744137
6	0xbdab402e	-0.08361851
7	0xbe2d256f	-0.16908811
8	0xbe29d1d0	-0.16583943
9	0x3c025c1c	0.007956531
10	0x3d9c1eaa	0.07623036
11	0xbd3fb80a	-0.046806373
12	0xbde8a971	-0.113604434
13	0xbe7cb3d4	-0.24677974
14	0xbe16857e	-0.1469936
15	0xbe408b7f	-0.18803214
16	0x3e08b504	0.13350302
17	0x3d8e5525	0.06949834
18	0x38cba061	9.709667e-05
19	0xbd834321	-0.06409288
20	0x3e03616a	0.1283013
21	0xbd83df48	-0.06439072
22	0xbdc004e6	-0.09375934
23	0xbd5cd6d0	-0.0539158
24	0xbda1801a	-0.078857616
25	0xbc6facbf	-0.014628588
26	0xbe651f5d	-0.22375245
27	0x3d2ccb91	0.042186324
28	0xbd2dccad	-0.042431522
29	0x3dda8ff0	0.10671985
30	0xbc4c34b3	-0.012463736
31	0xbc601321	-0.013676436
32	0xbe2d1cbe	-0.16905496
33	0xbe0fcec8	-0.14043725
34	0xbd935f1a	-0.071958736
35	0xbd534e67	-0.051588442
36	0xbe25985c	-0.16171402
37	0xbe516caa	-0.20451608
38	0x3d37c25a	0.044863082
39	0xbdb39176	-0.08767979
40	0xbdeef4a6	-0.11667757
41	0xbc3d0d47	-0.01153881
42	0x3d8a29a8	0.067462265
43	0xbe3facd8	-0.18718278
44	0xbe3fd07b	-0.18731873
45	0xbd1de128	-0.038544804
46	0xbda12c41	-0.07869769
47	0xbe1e39e3	-0.1545177
48	0xbc8ff1e0	-0.01757139
49	0xbe564a27	-0.20926724
50	0xbc9f8e12	-0.019476924
51	0xbdd99c8d	-0.10625563
52	0x3f94f8f8	1.1638479
53	0xbe6d933d	-0.23200698
54	0xbd943773	-0.072371386
55	0xbe31a04a	-0.17346302
56	0x3c05744e	0.008145405
57	0xbe11562e	-0.14193031
58	0xbdc3c274	-0.09558573
59	0xbd6959c6	-0.05697038
60	0xbe4b8789	-0.19875921
61	0xbe599e46	-0.21251783
62	0x3f9cfc36	1.2264469
63	0xbdf38e06	-0.11892323

bias_hh_l0 f4 [64]
0	0x3b9b8f5f	0.004747316
1	0x3ad51dc2	0.0016259479
2	0xbc901a72	-0.017590735
3	0xbe607000	-0.21917725
4	0xbe5bd097	-0.2146629
5	0xbd8ef2c4	-0.069798976
6	0xbe0c0365	-0.1367317
7	0xbd2aeccd	-0.041729737
8	0x3cc2632d	0.023728931
9	0xbe0e699b	-0.13907473
10	0x3dee2fa4	0.116301805
11	0xbdda7f93	-0.10668864
12	0xbd10c0d1	-0.035340134
13	0xbdf376c6	-0.118878886
14	0xbdcdc9d2	-0.1004826
15	0xbe571337	-0.21003424
16	0xbd608fe3	-0.05482472
17	0x3dcf8b71	0.10134018
18	0xbd9b077b	-0.07569786
19	0xbe72e326	-0.23719463
20	0x3d02c289	0.031923804
21	0xbdae84c8	-0.0852142
22	0xbe5ad25f	-0.21369313
23	0x3b239896	0.0024962774
24	0xbd8c4e44	-0.068508655
25	0xbd272b35	-0.04081269
26	0xbe538a86	-0.20658311
27	0xbe25c65c	-0.1618895
28	0xbdd5b247	-0.10434394
29	0xbe08b8fe	-0.13351819
30	0xbceb4205	-0.028718004
31	0xbe0e9346	-0.13923368
32	0xbe54f148	-0.20795166
33	0xbd9036ee	-0.07041727
34	0xbe3ffe9f	-0.18749474
35	0xbd805156	-0.062655136
36	0xbe64762e	-0.22310707
37	0xbe5fddda	-0.21861973
38	0xbcf24d27	-0.029577805
39	0xbd0ef2ff	-0.034899708
40	0xbd1ca8d4	-0.038246945
41	0xbd148b1f	-0.03626549
42	0x3d2fddcf	0.042936143
43	0xbd7f0ba9	-0.06226698
44	0xbde654dd	-0.11246655
45	0xbd31633b	-0.043307524
46	0xbdc2148e	-0.09476577
47	0xbe48d005	-0.19610603
48	0xbdc95499	-0.09830589
49	0xbe70cbac	-0.23515195
50	0xbe392bd0	-0.1808312
51	0xbcdce6f1	-0.02696559
52	0x3f9f41aa	1.2441914
53	0xbe8d1090	-0.275517
54	0xbdd1912c	-0.102327675
55	0xbe16a85e	-0.14712664
56	0xbd838150	-0.06421149
57	0xbda625f5	-0.081127085
58	0xbde5c952	-0.112200394
59	0xbe5871ba	-0.21137133
60	0xbc14b767	-0.00907693
61	0xbd16656f	-0.03671783
62	0x3f8d916c	1.1060004
63	0xbe1c8abf	-0.15287302

weight_ih_l1 f4 [64, 64]
0	0xbd88d370	-0.066809535
1	0x3e05a93a	0.13052836
2	0xbb549f52	-0.0032443595
3	0xbddfc1ff	-0.10925674
4	0xbe3cca93	-0.18436651
5	0x3b96d440	0.004602939
6	0xbe6e38d7	-0.2326387
7	0xbce022e1	-0.027360382
8	0xbe58887d	-0.21145816
9	0xbe1b4709	-0.15163817
10	0xbd8e2276	-0.06940167
11	0xbcb02ee5	-0.021506736
12	0xbd5d4b34	-0.054026797
13	0xbda152f1	-0.07877148
14	0xbe6fa774	-0.23403722
15	0xbe6c9f5d	-0.23107667
16	0xbda1fa98	-0.07909125
17	0xbdd06380	-0.10175228
18	0x3d306161	0.043061618
19	0xbd93256b	-0.07184871
20	0xbe44abe0	-0.1920619
21	0xbe019430	-0.12654185
22	0xbe174c10	-0.1477511
23	0xbcf137a8	-0.029445484
24	0x3dc93cec	0.09826073
25	0xbe1e097f	-0.1543331
26	0xbdc61132	-0.096712485
27	0xbe761361	-0.2403083
28	0xbce8bb05	-0.02840949
29	0xbd545b31	-0.05184478
30	0xbd9ce1a5	-0.07660226
31	0x3ca30090	0.01989773
32	0xbd2b8628	-0.04187599
33	0xbcd7fa31	-0.026364418
34	0xbdd8e39f	-0.1059029
35	0xbc4e8961	-0.012605996
36	0xbe54594c	-0.20737189
37	0xbdcfc279	-0.101445146
38	0xbe317a4c	-0.17331809
39	0xbd98d5bf	-0.07462644
40	0x3d737b80	0.05944395
41	0x3d9267f0	0.07148731
42	0xbdb54077	-0.08850186
43	0xbdf9a476	-0.121895716
44	0xbe274e36	-0.16338429
45	0xbdfe1cdc	-0.12407848
46	0xbdd169b2	-0.10225238
47	0xbc9be2f8	-0.019029126
48	0xbd0d8655	-0.034551937
49	0xbe310e98	-0.17290723
50	0xbe733489	-0.2375051
51	0x3de4a4a2	0.11164214
52	0x3dac69fa	0.08418651
53	0xbcf68625	-0.030093262
54	0xbde136be	-0.10996769
55	0xbe6f2d85	-0.23357208
56	0x3ddf0692	0.10889925
57	0xbdd0cc20	-0.10195184
58	0xbd9b66d9	-0.07587976
59	0x3cbb8353	0.022889769
60	0xbe1b9c4d	-0.15196343
61	0xbd5494bc	-0.051899657
62	0xbdb539e2	-0.08848931
63	0xbe2cda44	-0.16880137
64	0xbc7794a9	-0.015111127
65	0xbcf68e8c	-0.030097269
66	0xbe1755a4	-0.14778763
67	0xbdfed3b7	-0.12442725
68	0xbdd8c01e	-0.105835184
69	0x3cfe7ad4	0.031064428
70	0xbe7f52b8	-0.24933898
71	0xbe44ac27	-0.19206296
72	0xbe5ef06c	-0.21771401
73	0x3e193100	0.14960098
74	0xbd403fd8	-0.046935886
75	0x3c9b9a3c	0.018994443
76	0xbd2299b9	-0.039697383
77	0xbd00d7aa	-0.031455673
78	0x3db9d60e	0.09074031
79	0xbde91c24	-0.113823205
80	0xbcfd725d	-0.030938322
81	0xbe81bd4e	-0.2533974
82	0xbd33940a	-0.043842353
83	0xbe4f3203	-0.20233922
84	0xbe765a90	-0.24057984
85	0xbd88684f	-0.0666052
86	0x3e06a616	0.13149294
87	0x3de769f4	0.11299506
88	0x3deef02c	0.11666903
89	0xbe48915d	-0.19586702
90	0xbda5e557	-0.08100384
91	0xbe857434	-0.26065218
92	0xbda840a2	-0.08215453
93	0xbd999841	-0.07499743
94	0xbe1743ef	-0.14772008
95	0x3dfc6ed4	0.12325826
96	0xbe2fff29	-0.1718718
97	0xbe58efa2	-0.21185163
98	0xbe1fb1ac	-0.1559512
99	0x3d6d69b4	0.057962134
100	0xbdff54d1	-0.12467349
101	0xbda3a447	-0.07990318
102	0xbdce2031	-0.10064734
103	0x3e6b91b6	0.23004803
104	0x3df37392	0.11887278
105	0x3e40deaf	0.18834947
106	0xbcda0df5	-0.026617983
107	0xbe53c7b1	-0.20681645
108	0xbe35a93e	-0.17740342
109	0xbdfad886	-0.1224833
110	0x3d67412b	0.056458633
111	0x3e39e93d	0.1815538
112	0xbda99ebe	-0.08282231
113	0x3daed158	0.08536023
114	0xbe193f50	-0.14965558
115	0x3c9a1516	0.018808883
116	0x3e1faf52	0.15594223
117	0xbc931e99	-0.017958926
118	0xbe7fbb6d	-0.24973841
119	0xbe43f301	-0.19135667
120	0xbda40faa	-0.080108
121	0x3dc878e6	0.097886845
122	0xbd465a35	-0.048425872
123	0x3e1bae49	0.15203203
124	0xbe19fd5e	-0.15038058
125	0x3d83730a	0.06418426
126	0xbd5035af	-0.050832447
127	0xbd818ddf	-0.06325888
128	0xbe65a4c8	-0.2242614
129	0xbe1f2ce3	-0.15544467
130	0xbdc6a952	-0.09700264
131	0xbdd243ca	-0.10266836
132	0x3dadd24f	0.08487379
133	0x3dea4a84	0.11439994
134	0xbe2cdd3a	-0.16881266
135	0xbe6b3a41	-0.22971441
136	0xbc14199d	-0.00903931
137	0xbda2eafe	-0.079549775
138	0xbdbf40de	-0.09338544
139	0xbe5557f5	-0.20834334
140	0xbe2e33dd	-0.17011972
141	0xbe154446	-0.14576825
142	0xbe7a070f	-0.24416755
143	0x3de5843c	0.11206862
144	0xbe0f2ade	-0.13981196
145	0xbe712bbc	-0.2355184
146	0xbd765e8b	-0.060148757
147	0xbdeef54e	-0.11667882
148	0xbccbe31d	-0.02488857
149	0xbe266b64	-0.16251904
150	0xbe44c976	-0.19217476
151	0xbd70e015	-0.05880745
152	0xbdf29cfe	-0.1184635
153	0xbe667cb0	-0.22508502
154	0xbe618c27	-0.2202612
155	0xbc7d6f70	-0.015468463
156	0xbbda8d5b	-0.006669683
157	0x3b0a3e41	0.0021094235
158	0xbe55f235	-0.20893176
159	0x3df55b72	0.119803324
160	0x3dee3dc6	0.11632876
161	0xbb2b0364	-0.002609455
162	0xbd85aad2	-0.06526722
163	0x3d53076f	0.05152076
164	0xbce369dc	-0.027760439
165	0xbd31c969	-0.04340497
166	0xbe06675e	-0.13125369
167	0xbdfba6ac	-0.122876495
168	0xbdad37b6	-0.08457892
169	0xbd824a29	-0.06361801
170	0xbdaef543	-0.08542874
171	0xbe4a039f	-0.19727944
172	0xbe6251dc	-0.2210154
173	0xbddce0ca	-0.107850626
174	0xbd9dba7a	-0.07701583
175	0xbcba375e	-0.02273148
176	0xbd5c8fa5	-0.053847928
177	0xbe433936	-0.19064793
178	0xbdaba4ad	-0.08381019
179	0xbde04bf2	-0.109519854
180	0xbe599963	-0.21249919
181	0xbe487c2b	-0.19578616
182	0xbe15083f	-0.14553927
183	0xbce9808d	-0.02850368
184	0xbd82a6fc	-0.06379506
185	0x3d8bf83c	0.06834456
186	0xbe72ebfb	-0.23722832
187	0xbdfdc334	-0.12390748
188	0x3e04dbcb	0.1297447
189	0xbae60f7a	-0.001755222
190	0xbe2ab085	-0.166689
191	0xbe09a1b1	-0.13440587
192	0xbd8430c4	-0.06454614
193	0xbdfd0ad9	-0.12355585
194	0xbe055e1b	-0.1302418
195	0xbd6dd1ce	-0.058061413
196	0xbcb20d95	-0.021734992
197	0xbe1b4fa2	-0.15167096
198	0xbd321141	-0.043473486
199	0xbd152b09	-0.036417995
200	0xbe4f663f	-0.20253848
201	0xbe36f654	-0.17867404
202	0xbe375dd0	-0.1790688
203	0x3e35f62e	0.17769691
204	0xbdddbbb4	-0.10826817
205	0xbd8afe34	-0.06786767
206	0xbdb55e10	-0.088558316
207	0xbe3a66dc	-0.182033
208	0xbdccf4e2	-0.10007645
209	0xbda0becf	-0.07848894
210	0x3e41e008	0.18933117
211	0xbe37b2a0	-0.17939234
212	0xbe71d025	-0.23614557
213	0xbb4887b7	-0.003059847
214	0xb9e8266c	-0.00044279115
215	0xbd366d9a	-0.044538118
216	0x3dc6bdf8	0.097042024
217	0xbe11a198	-0.142218
218	0xbcbc858f	-0.023012904
219	0xbd39b570	-0.045339048
220	0xbe5660dc	-0.20935386
221	0xbd7cf0e8	-0.061753184
222	0xbc9de3b2	-0.019273613
223	0xbdbd2018	-0.09234637
224	0xbd3e1348	-0.046405107
225	0xbca78645	-0.020449767
226	0xbe08eb5f	-0.13371037
227	0xbe4a54d4	-0.19758922
228	0xbd8cedd6	-0.06881301
229	0xbdb56d66	-0.08858757
230	0xbe42e024	-0.19030815
231	0xbdbfee8d	-0.09371672
232	0xbd4ed96c	-0.05050032
233	0xbdaeb154	-0.085299164
234	0xbe0a12c0	-0.13483715
235	0xbde2eb29	-0.110800095
236	0x3c2a1cdf	0.01038286
237	0xbe65cec8	-0.22442162
238	0x3bddded6	0.006770949
239	0xbe06aae1	-0.13151123
240	0xbdf23f8c	-0.11828527
241	0xbe36bb47	-0.17844878
242	0xbe31389c	-0.17306751
243	0xbe4ba218	-0.19886053
244	0x3dbe513c	0.09292838
245	0x3c9e73f8	0.019342408
246	0x3b29ae69	0.002589131
247	0xbd4f4109	-0.05059913
248	0xbe3556ab	-0.17708842
249	0xbdc2dfb3	-0.095153235
250	0xbe4d492b	-0.20047443
251	0xbd968686	-0.07349877
252	0xbbb49574	-0.0055109803
253	0xbc177a2b	-0.009245436
254	0xbcc5063e	-0.024050828
255	0xbd656e95	-0.056013662

weight_hh_l1 f4 [64, 64]
0	0x3db15de2	0.08660485
1	0xbdabe67e	-0.08393572
2	0x3bab5760	0.005228922
3	0x3d9eadb4	0.07747975
4	0xbd8856e0	-0.06657195
5	0xbd7598a8	-0.059960037
6	0x3d69bddc	0.05706583
7	0x3d4c3a5c	0.049860343
8	0x3da95100	0.08267403
9	0xbdadb1d2	-0.08481182
10	0xbdc67c86	-0.0969172
11	0xbda269b0	-0.079303145
12	0x3d1302e8	0.035891443
13	0x3df5e4a2	0.12006499
14	0x3c411e00	0.011786938
15	0x3d8291be	0.06375454
16	0x3d19d170	0.03755325
17	0xbdd1c3ba	-0.1024241
18	0x3db990c4	0.09060815
19	0xbd8465f6	-0.0646476
20	0x3dea09ee	0.11427675
21	0xbda1caae	-0.07899986
22	0x3d17ccf4	0.037060693
23	0xbd35d1e8	-0.044389635
24	0xbcd8b3a8	-0.026452854
25	0x3cfa4b98	0.030553624
26	0x3d807142	0.06271602
27	0xbd747b2c	-0.05968778
28	0xbcf865c8	-0.03032197
29	0xbd68622c	-0.05673425
30	0x3da8e46c	0.08246693
31	0xbda041cc	-0.0782505
32	0xbb9fc300	-0.0048755407
33	0x3ce0aa48	0.027424946
34	0xbdcfc2aa	-0.10144551
35	0xbcf02528	-0.029314592
36	0xbcd2cf88	-0.025733724
37	0xbd09b75c	-0.03362213
38	0xbdda99d8	-0.106738746
39	0xba611a00	-0.0008586943
40	0x3dd50f6a	0.104033306
41	0x3db8e37c	0.09027764
42	0x3d441eec	0.047881052
43	0x3de588d6	0.1120774
44	0x3d0802b4	0.033205703
45	0x3daf31a4	0.0855439
46	0xbd0c8318	-0.03430471
47	0xbd7e491c	-0.06208144
48	0x3c971d90	0.018446714
49	0x3d81f798	0.06346053
50	0x3dbd7a4e	0.092518434
51	0x3d0dcba8	0.03461805
52	0x3d859c22	0.065239206
53	0x3cae3a60	0.02126807
54	0x3d63f5b0	0.055654228
55	0x3c94b0f8	0.018150792
56	0xbd963058	-0.073334396
57	0xbc98a580	-0.018633604
58	0x3d1b1bc4	0.037868276
59	0xbbdaf300	-0.0066818
60	0xbd3a6778	-0.04550883
61	0xbdf9f5ce	-0.12205087
62	0x3d4f45c4	0.050603643
63	0x3c854e90	0.016272813
64	0xbddc4df4	-0.10757056
65	0x3d484a1c	0.0488988
66	0xbd47804c	-0.048706338
67	0xba5d1600	-0.0008433759
68	0x3d987c4e	0.07445584
69	0x3c8ffc78	0.017576441
70	0xbdc8b968	-0.098009884
71	0x3d862706	0.06550412
72	0xbd9575d4	-0.072978646
73	0x3db9b0a2	0.09066893
74	0xbdf0f79e	-0.11765979
75	0x3da5a810	0.08088696
76	0xbdd44cf6	-0.10366242
77	0x3d978382	0.0739813
78	0x3d404050	0.046936333
79	0x3db4b55a	0.088236526
80	0x3da60e60	0.081082106
81	0x3dc8960a	0.09794243
82	0xbba81360	-0.005129263
83	0xbcb6b6c0	-0.022303939
84	0xbdd42420	-0.10358453
85	0x3c4b2e20	0.012401134
86	0x3bc3b4c0	0.005972475
87	0x3dc3ca22	0.09560038
88	0xbda0ffa0	-0.078612566
89	0xbd009050	-0.031387627
90	0xbdf79742	-0.12089397
91	0xbdf4a910	-0.119463086
92	0xbcf37160	-0.029717147
93	0x3d463d28	0.048398167
94	0xbce3da08	-0.027813926
95	0xbd7f5ad8	-0.062342495
96	0x3dc85290	0.097813725
97	0xbcf08aa8	-0.029362991
98	0xbdd60ed2	-0.104520455
99	0xbb32c800	-0.0027279854
100	0x3ce55598	0.027994916
101	0x3d7b4190	0.061341822
102	0x3d2a02b8	0.0415065
103	0xbd2c76e4	-0.04210557
104	0x3ca719c0	0.02039802
105	0xbc9c6318	-0.01909022
106	0xbdf6f52a	-0.1205848
107	0xbce5ee48	-0.028067723
108	0xbc81e4a8	-0.015856102
109	0xbdfb583a	-0.12272687
110	0xbc2dbca0	-0.010604054
111	0x3c832700	0.016009808
112	0x3d8b8374	0.06812182
113	0x3de6e2ca	0.11273725
114	0x3dd31b62	0.10307957
115	0x3d666ce0	0.056256175
116	0xbd1fe5e8	-0.039037615
117	0x3bccbd40	0.0062481463
118	0x3dc2084a	0.09474237
119	0xbdb5f1ee	-0.08884035
120	0x3d223c68	0.03960839
121	0xbdd8a680	-0.10578632
122	0x3d95d182	0.07315351
123	0xbcaf8f28	-0.021430567
124	0x3d8a2edc	0.06747219
125	0xbdaafe26	-0.08349256
126	0x3dad61d0	0.08465922
127	0xbd8bda46	-0.06828742
128	0xbd1333bc	-0.03593801
129	0x3c814428	0.01577957
130	0x3d61b9f4	0.05510898
131	0x3db018d0	0.085984826
132	0xbd5aa534	-0.053380206
133	0xbda50aae	-0.080586776
134	0x3de1ee16	0.110317394
135	0xbd9628f8	-0.07332033
136	0x3caca240	0.02107346
137	0xbd91a4ec	-0.071115345
138	0x3d3f1134	0.046647266
139	0x3dbe100a	0.09280403
140	0x3d6d0a9c	0.057871446
141	0xbdbe1ac6	-0.092824504
142	0xbb06dcc0	-0.0020578355
143	0xbdcf4e3a	-0.101223424
144	0xbc1a85a0	-0.009431273
145	0x3b716740	0.0036835223
146	0x3d972f8a	0.07382114
147	0xbad55800	-0.0016276836
148	0xbdbf286a	-0.0933388
149	0x3c9876d8	0.018611357
150	0xbc3bfb50	-0.011473492
151	0xbdd339d8	-0.10313767
152	0x3d9d2178	0.07672399
153	0x3c132860	0.008981794
154	0xbde6be96	-0.1126682
155	0xbc80d560	-0.015726745
156	0x3ca3b708	0.019984737
157	0x3db8080c	0.0898591
158	0x3dd601a0	0.10449529
159	0xbbb268e0	-0.005444631
160	0x3cf27430	0.029596418
161	0x3de7b17a	0.11313148
162	0xbdc8baa2	-0.098012224
163	0xba5d0400	-0.0008431077
164	0x3d287514	0.04112728
165	0xbdbe7148	-0.092989504
166	0xbd628b20	-0.05530846
167	0xbcded700	-0.02720213
168	0x3ca7f168	0.020500854
169	0x3dd7cc30	0.105369925
170	0x3da91248	0.0825544
171	0xbdaec35e	-0.08533357
172	0x3db72cf2	0.089441195
173	0xbdacbb44	-0.084341556
174	0x3d3c078c	0.045905635
175	0xbdf87e00	-0.121334076
176	0xbdc546da	-0.096326545
177	0xbdf3a272	-0.11896218
178	0xbd8dfcf6	-0.06933014
179	0x3d52c59c	0.051457986
180	0x3cf78288	0.03021361
181	0x3db09368	0.086218655
182	0xbd8b0c3a	-0.067894414
183	0x3df01050	0.11721861
184	0xbd919e50	-0.07110274
185	0x3db04d5e	0.086085066
186	0x3dca344e	0.098732576
187	0x3c4c1e90	0.012458459
188	0xbd9ae5fa	-0.07563396
189	0x3d8e0994	0.06935421
190	0xbc8b6198	-0.01701431
191	0xbad67780	-0.0016362518
192	0x3decb072	0.11557092
193	0xbd96c730	-0.07362211
194	0x3da2363a	0.07920499
195	0x3dd4fcac	0.10399756
196	0xbd3927c4	-0.04520394
197	0xbdb574a8	-0.08860141
198	0xbdad9aec	-0.08476815
199	0xbd7060a0	-0.0586859
200	0xbcab42e8	-0.020905927
201	0x3ddc5d32	0.10759963
202	0xbde6c5e4	-0.112682134
203	0x3dec2f66	0.11532478
204	0x3c9a8b68	0.018865302
205	0x3d9eac94	0.077477604
206	0xbbb06c60	-0.005384013
207	0xbdb24f78	-0.08706564
208	0xbdc48dec	-0.09597382
209	0x3c18ba50	0.009321764
210	0x3df85334	0.12125245
211	0x3d647860	0.05577886
212	0x3dabc520	0.08387208
213	0x3c23ab60	0.009989589
214	0x3c502090	0.012703076
215	0x3da51e06	0.08062367
216	0xbccb61b0	-0.024826854
217	0x3dc9e93e	0.098589405
218	0xbd8dc404	-0.06922153
219	0xbda9dd3a	-0.08294149
220	0x3de93ddc	0.11388752
221	0x3d09f690	0.033682406
222	0x3d92e0de	0.07171796
223	0xbda8718c	-0.08224782
224	0xbce98378	-0.028505072
225	0xbc9b3ae0	-0.018948972
226	0x3dfc123c	0.123081654
227	0x3d8c419a	0.0684845
228	0xbc3f6880	-0.01168263
229	0x3decaa24	0.11555889
230	0xbc3c9440	-0.011509955
231	0x3d976866	0.07392959
232	0x3d2e7300	0.04259014
233	0xbcb0b000	-0.021568298
234	0x3ddc6ce0	0.10762954
235	0x3dc825fe	0.097728714
236	0xbd881162	-0.066439405
237	0xbc83d948	-0.016094819
238	0xbd2b988c	-0.041893527
239	0xbde97a90	-0.1140033
240	0xbdc62316	-0.09674661
241	0xbc861730	-0.016368479
242	0xbcba6498	-0.022753045
243	0xbd822304	-0.06354335
244	0x3d1ac0d4	0.03778155
245	0xbda1a78e	-0.07893287
246	0xbd95e210	-0.073185086
247	0x3d6578a0	0.05602324
248	0x3d76113c	0.06007503
249	0xbdd5bf7c	-0.10436913
250	0xbdcbe45e	-0.09955667
251	0x3d4f3668	0.050588995
252	0x3df5e590	0.12006676
253	0xbd719754	-0.05898221
254	0xbd6b85d0	-0.05750066
255	0xbd6d09e8	-0.057870775

bias_ih_l1 f4 [64]
0	0xbe067925	-0.1313215
1	0xbd8b4772	-0.068007365
2	0xbd96a108	-0.07354933
3	0xbe381382	-0.17976192
4	0xbe60b672	-0.21944597
5	0xbe794f46	-0.24346647
6	0x3b8e9970	0.0043517873
7	0xbc20298f	-0.009775533
8	0xbde95fe8	-0.11395246
9	0xbe6ff4a9	-0.23433174
10	0xbd3faf75	-0.04679819
11	0xbe11f90e	-0.14255163
12	0xbe1ccd50	-0.15312696
13	0x3d09167e	0.033468716
14	0xbe8a39bb	-0.2699717
15	0xbe62d85b	-0.22152846
16	0xbd3bfbfd	-0.04589461
17	0xbd949717	-0.072553806
18	0xbe2ee018	-0.17077672
19	0xbdff475b	-0.12464782
20	0xbe2547e1	-0.16140701
21	0xbda668fd	-0.08125494
22	0xbd942619	-0.07233829
23	0xbe0c65c1	-0.13710691
24	0x3cef3cfb	0.029203882
25	0xbdb2df3a	-0.08733983
26	0xbe4bc3d6	-0.19898924
27	0xbe651fc2	-0.22375396
28	0xbe04466d	-0.1291749
29	0xbe878c40	-0.2647419
30	0xbe006a4a	-0.12540546
31	0xbde9c927	-0.1141532
32	0xbca005ae	-0.019533958
33	0xbe5ac8b5	-0.21365626
34	0xbdb6e09a	-0.08929558
35	0xbe42f057	-0.19036995
36	0x3ca4eb46	0.020131718
37	0xbe606fc3	-0.21917634
38	0xbe79922f	-0.24372171
39	0xbdb4c16f	-0.08825957
40	0xbde8bf4d	-0.11364613
41	0x3d199c57	0.037502613
42	0xbd58b709	-0.05290893
43	0xbdd7c47c	-0.10535523
44	0xbe002238	-0.12513053
45	0xbe7e98e8	-0.24863017
46	0xbdbc3c68	-0.09191209
47	0xbe0f7e86	-0.14013109
48	0xbd4ea1fb	-0.050447445
49	0xbe2f6094	-0.17126685
50	0xbdeb6ea6	-0.11495714
51	0xbe80c1b9	-0.251478
52	0xbcadbf29	-0.021209316
53	0xbd91ceba	-0.07119508
54	0xbe4beb8d	-0.19914074
55	0xbe213280	-0.1574192
56	0x3c9100e0	0.017700613
57	0xbe1a7a91	-0.15085818
58	0xbdd577b6	-0.10423224
59	0xbe0b4a48	-0.13602555
60	0xbc277987	-0.0102218455
61	0xbdb3119d	-0.08743594
62	0xbde90a48	-0.11378914
63	0xbd7e36e5	-0.06206407

bias_hh_l1 f4 [64]
0	0xbe4bfb10	-0.19919991
1	0xbe969043	-0.29406938
2	0xbd73e6c7	-0.05954626
3	0xbe27656e	-0.16347286
4	0xbd82bff8	-0.063842714
5	0xbd9ecdc1	-0.07754088
6	0xbd6e95ef	-0.058248457
7	0xbe1949c7	-0.1496955
8	0xbe035578	-0.12825572
9	0xbc3d4d97	-0.011554143
10	0xbe3de1a0	-0.185431
11	0x3b6e1de9	0.0036333746
12	0xbde559e4	-0.11198786
13	0xbe2ea973	-0.17056827
14	0xbe1877c6	-0.1488944
15	0xbe093896	-0.13400492
16	0xbdc4988f	-0.09599411
17	0xbdef1965	-0.116747655
18	0xbbe22d10	-0.0069023445
19	0xbe6dfaec	-0.2324025
20	0x3bae0b5a	0.005311412
21	0xbe07360e	-0.13204214
22	0xbdfe4d75	-0.124171175
23	0xbe13ddb2	-0.14440039
24	0xbd8b1f3b	-0.06793066
25	0xbe7507ce	-0.23928759
26	0xbda160b9	-0.078797765
27	0xbbba69aa	-0.0056888657
28	0xbe3bafb7	-0.18328749
29	0xbdee9b0a	-0.11650665
30	0x3d2314d1	0.039814774
31	0xbe43b367	-0.19111405
32	0xbde732c5	-0.112889804
33	0xbe54395e	-0.20725009
34	0xbd319da4	-0.04336323
35	0xbce3446b	-0.027742585
36	0xbe5a5dd8	-0.21324861
37	0xbcdebfc2	-0.027191047
38	0xbe847bb8	-0.2587564
39	0x3c675497	0.014119289
40	0xbcac4943	-0.021031028
41	0x3cbeb95f	0.023281751
42	0xbe14e65b	-0.14540999
43	0xbe0f27b0	-0.13979983
44	0xbe108f2e	-0.14117119
45	0xbe2014cc	-0.15632933
46	0x3d62eaea	0.055399813
47	0xbc9c2812	-0.019062076
48	0x3dea38db	0.114366256
49	0xbdfab914	-0.12242332
50	0xbe271d46	-0.1631976
51	0xbe8d1397	-0.27554008
52	0xbe7449c0	-0.23856258
53	0xbdac8767	-0.084242634
54	0xbe7a6257	-0.24451576
55	0xbe45cd83	-0.19316678
56	0xbccfae79	-0.02535175
57	0xbd4fdc6d	-0.050747324
58	0xbd152ae9	-0.036417875
59	0xbd452e8b	-0.04814009
60	0xbdc32b3d	-0.095297314
61	0xbe235df2	-0.15953806
62	0xbe7bc11a	-0.24585381
63	0xbde523da	-0.11188479

weight_ih_l2 f4 [64, 64]
0	0xbe71ae2e	-0.236016
1	0xbd78c155	-0.06073125
2	0xbe0af636	-0.13570485
3	0xbdff48fe	-0.12465094
4	0x3dcbd024	0.09951809
5	0xbe143384	-0.14472777
6	0xbd10445c	-0.035221443
7	0xbe09d3a2	-0.13459638
8	0x3d8e0e94	0.06936374
9	0x3d3d58dd	0.046227325
10	0xbe19cc80	-0.15019417
11	0x3cb79bc2	0.022413138
12	0x3d94d911	0.07267965
13	0xbe4fe3b2	-0.20301703
14	0x3e643716	0.22286639
15	0x3ea96d70	0.33091307
16	0x3e6fe1bc	0.23425955
17	0xbe4251a8	-0.18976462
18	0xbdd8c61b	-0.105846606
19	0xbe3fb85c	-0.18722671
20	0xbdbe5447	-0.092934184
21	0xbdc331e0	-0.09530997
22	0xbde7fef4	-0.11327925
23	0xbe4dae9d	-0.20086141
24	0xbdf8bc15	-0.12145249
25	0x3e42fee1	0.19042541
26	0x3cc83813	0.0244408
27	0xbcac0837	-0.02100001
28	0x3d7d183d	0.061790694
29	0x3e367751	0.17818953
30	0xbe1aa762	-0.15102914
31	0xbde5ca1a	-0.112201884
32	0x3cbb784a	0.022884507
33	0xbdec8515	-0.11548821
34	0xbd9e8079	-0.07739348
35	0xbe1fdf69	-0.15612568
36	0xbd86beee	-0.06579386
37	0x3e781c7b	0.24229614
38	0xbab591de	-0.0013852676
39	0xbde395c7	-0.11112552
40	0xbd8599cf	-0.06523477
41	0xbd3af2f7	-0.045641866
42	0xbdff2c3a	-0.124596074
43	0xbe203b16	-0.1564754
44	0xbe1b4b37	-0.15165411
45	0xbdbb5180	-0.09146404
46	0xbdc775bc	-0.09739253
47	0x3a9b3dcc	0.0011843978
48	0xbe61c4d9	-0.22047748
49	0xbe55b1d1	-0.20868613
50	0xbe0eb7e7	-0.1393734
51	0xbdaedf23	-0.08538654
52	0xbdee423e	-0.116337284
53	0xbe43d21a	-0.19123116
54	0x3cdbed16	0.02684645
55	0x3c2e08f8	0.0106222555
56	0xbe027a54	-0.12741977
57	0xbe2680b5	-0.16260035
58	0xbe376613	-0.17910032
59	0x3e5503d2	0.20802239
60	0xbd7d699c	-0.061868295
61	0xbd9afc3b	-0.075676404
62	0x3dde9169	0.108675785
63	0x3dbaf556	0.09128825
64	0x3e02a2bd	0.12757392
65	0xbd8a5e30	-0.06756246
66	0xbd006b9d	-0.031352628
67	0xbdc0d7e2	-0.094161764
68	0xbada5b07	-0.0016659208
69	0xbda4bbed	-0.080436565
70	0xbe0e3eb6	-0.1389111
71	0xbdb85f62	-0.09002568
72	0x3cd43ed7	0.02590887
73	0x3cdda77f	0.027057407
74	0xbe564059	-0.20922984
75	0xbdebfaaf	-0.115224235
76	0x3e64f127	0.22357617
77	0xbe1b0848	-0.15139878
78	0x3dc5cd26	0.096582696
79	0x3e5a7e11	0.21337153
80	0x3d8440f3	0.064577006
81	0xbe86b7d9	-0.2631214
82	0xbd704846	-0.058662675
83	0xbcb08825	-0.021549294
84	0xbd506e3a	-0.05088637
85	0xbcdf6ce5	-0.027273605
86	0xbe2beb3b	-0.16788952
87	0xbe2f7900	-0.17136002
88	0xbe00a724	-0.12563759
89	0x3badafb8	0.0053004883
90	0xbd663143	-0.056199323
91	0xbd44bde1	-0.048032645
92	0xbdb65dea	-0.089046314
93	0x3e5b02ed	0.21387835
94	0xbe4e9e01	-0.20177461
95	0xbd4a8de5	-0.049451727
96	0xbe3f9ff7	-0.18713365
97	0xbc8e61aa	-0.017380554
98	0xbc94b829	-0.01815422
99	0xbd0682a8	-0.032839447
100	0xbdac6876	-0.08418362
101	0xbc43b3d8	-0.011944734
102	0xbda08295	-0.078374065
103	0x3d8e46bb	0.069470845
104	0xbe37a713	-0.17934828
105	0xbd2cdfec	-0.042205736
106	0xbdf2a473	-0.118477724
107	0xbdaa87c9	-0.0832668
108	0xbe252eac	-0.16131085
109	0xbddfd6a8	-0.10929614
110	0xbdc31ce9	-0.095269985
111	0xbe1f3555	-0.15547688
112	0xbe3952ef	-0.18098043
113	0xbd0e9a97	-0.034815397
114	0xbdf31b30	-0.1187042
115	0xbe08883d	-0.13333221
116	0xbdae02a4	-0.084965974
117	0xbd7eefdd	-0.06224047
118	0xbd9c24ee	-0.07624231
119	0xbe3bcbc9	-0.18339457
120	0xbe0bc271	-0.13648392
121	0xbd357fe9	-0.044311438
122	0x3b8d6a1a	0.004315627
123	0x3e707465	0.23481901
124	0xbe2b129a	-0.16706315
125	0xbc0ecff9	-0.008716577
126	0x3e0d3c68	0.13792574
127	0x3dca6e52	0.09884323
128	0xbdafb42c	-0.08579287
129	0xbc480d5d	-0.012210217
130	0xbcc4a12f	-0.02400264
131	0xbdc451ec	-0.09585938
132	0xbd94a7dd	-0.0725858
133	0xbe704756	-0.23464713
134	0xbd66b116	-0.056321226
135	0xbcd59453	-0.026071703
136	0xbd9f98ae	-0.07792793
137	0xbc6a1b28	-0.014288701
138	0xbc1dea08	-0.009638317
139	0xbd9e4c9a	-0.07729454
140	0x3a061973	0.00051154866
141	0xbe4d98df	-0.20077847
142	0xbd9c3554	-0.07627359
143	0xbe136260	-0.14392996
144	0xbdf83634	-0.121197134
145	0xbe6bee65	-0.23040159
146	0xbab10a45	-0.0013507089
147	0xbc3b813d	-0.011444387
148	0xbe3fdda5	-0.18736894
149	0xbd0f1333	-0.03493042
150	0xbe3c0e47	-0.18364821
151	0xbdfd0a62	-0.12355496
152	0xbe7f2208	-0.24915326
153	0xbd6d2893	-0.057900023
154	0xbe22f6ae	-0.15914413
155	0xbcbd7041	-0.023124816
156	0xbe5c4275	-0.21509726
157	0xbe0956b5	-0.13411982
158	0xbe13b651	-0.14425017
159	0xbe5c35b8	-0.21504867
160	0xbd5ae928	-0.05344501
161	0xbe5bd40d	-0.2146761
162	0xbe222db1	-0.15837742
163	0xbe7834c1	-0.24238874
164	0xbd9087d3	-0.070571564
165	0xbccbd6a9	-0.024882631
166	0xbe315361	-0.17316963
167	0xbdc5ee1e	-0.09664558
168	0xbd8b8c94	-0.068139225
169	0xbd490be5	-0.04908361
170	0xbe3299e3	-0.17441516
171	0xbe182181	-0.1485653
172	0xbe71df4b	-0.23620336
173	0xbe7c7dc1	-0.24657346
174	0xbe70b407	-0.23506175
175	0xbe2de3cb	-0.16981427
176	0xbe4b0924	-0.19827706
177	0xbdef8134	-0.116945654
178	0xbd765bf3	-0.060146283
179	0xbe79c78c	-0.24392527
180	0xbd769753	-0.060202908
181	0xbe506737	-0.20351873
182	0xbdbb82b9	-0.09155793
183	0xbc2b03f0	-0.0104379505
184	0xbdd7599a	-0.10515137
185	0xbd09188d	-0.03347068
186	0xbddb62a2	-0.10712172
187	0xbe139c22	-0.14415029
188	0xbcfd8f4d	-0.03095212
189	0xbe171129	-0.1475264
190	0xbcb358a0	-0.021892846
191	0xbd3c0c1e	-0.045909993
192	0x3d34ff28	0.04418865
193	0x3c631a1d	0.013861206
194	0x3dedf89b	0.11619683
195	0xbd00d41b	-0.03145228
196	0x3e0d6081	0.13806345
197	0xbd3679ae	-0.044549637
198	0xbdb280b8	-0.087159574
199	0x3cea71b9	0.02861868
200	0xbb71d4c5	-0.0036900502
201	0x3df5ef98	0.120085895
202	0xbe45f9c8	-0.19333565
203	0xbe443f6e	-0.19164822
204	0x3ddbcf0a	0.10732849
205	0xbcdd0a55	-0.026982466
206	0x3c54efcb	0.012996624
207	0x3bb6e774	0.0055817906
208	0x3d040329	0.032229576
209	0x3e84d281	0.25941852
210	0xbe59b22f	-0.21259378
211	0xbe03b053	-0.12860231
212	0xbe53789f	-0.20651482
213	0xbe475059	-0.19464244
214	0xbd8060d8	-0.062684715
215	0xbd8e0b74	-0.06935778
216	0xbca59eb4	-0.020217277
217	0x3d1283f2	0.035770364
218	0xbe569010	-0.20953393
219	0xbe5b6aee	-0.21427509
220	0x3da6eabb	0.0815024
221	0xbd5d50e8	-0.054032236
222	0xbe164829	-0.14675964
223	0xbe01c3cd	-0.12672348
224	0xbcd9e7d6	-0.026599806
225	0xbc515682	-0.012776973
226	0xbe1e3cdd	-0.15452905
227	0xbd104130	-0.035218418
228	0xbd2d66ac	-0.042334244
229	0x3d222639	0.039587233
230	0xbe28b4bc	-0.16475195
231	0xbcb375c4	-0.021906741
232	0xbe4384fc	-0.19093698
233	0x3d401656	0.0468963
234	0xbe0dc5d7	-0.13845001
235	0xbe244957	-0.16043602
236	0x3d8c1142	0.06839229
237	0xbe279fe1	-0.16369583
238	0xbadb4bbe	-0.0016730947
239	0xbd27a736	-0.04093095
240	0xbe2b2bca	-0.16715923
241	0xbe0ce57e	-0.1375942
242	0xbe443934	-0.19162446
243	0xbd1c1063	-0.038101565
244	0xbddd7f4d	-0.10815296
245	0xbe1f8ced	-0.15581103
246	0x3ba3bc49	0.0049968106
247	0xbcd7f0f8	-0.02636002
248	0xbe09511b	-0.13409846
249	0x3d3dd7d1	0.046348397
250	0x3cab69c6	0.02092446
251	0xbd172712	-0.036902495
252	0xbd9d0c27	-0.076683335
253	0x3df98b89	0.12184817
254	0x3d5e1da3	0.054227483
255	0xbd21d09e	-0.039505593

weight_hh_l2 f4 [64, 64]
0	0x3ca5d3d8	0.020242617
1	0x3d86272a	0.06550439
2	0x3d9ec15e	0.077517256
3	0x3d13f4a8	0.036121994
4	0xbdd1ade0	-0.10238242
5	0x3d10e83c	0.035377726
6	0x3de0d8e0	0.109788656
7	0x3d8b954c	0.068155855
8	0xbde69618	-0.11259097
9	0xbda79a1a	-0.081836894
10	0x3da9f704	0.082990676
11	0xbd8ac5be	-0.067759976
12	0x3bef0ce0	0.007295236
13	0xbdb4ec72	-0.08834161
14	0xbd6b5b6c	-0.057460234
15	0xbde97b9e	-0.11400531
16	0x3d9119ac	0.07084975
17	0x3cd691e8	0.02619262
18	0xbdfdde70	-0.12395942
19	0xbd97333c	-0.07382819
20	0x3b428580	0.0029681623
21	0x3dac9db6	0.084285185
22	0xbd98b3f6	-0.074562
23	0xbd1d0728	-0.038336903
24	0x3d142298	0.036165804
25	0xbd6e8f0c	-0.05824189
26	0xbd926d08	-0.07149702
27	0x3d0f1280	0.034929752
28	0x3d6707e4	0.05640401
29	0xbdc95c3e	-0.09832047
30	0xbb82f920	-0.003996983
31	0x3d85e202	0.06537248
32	0x3dcf1ed2	0.101133004
33	0xbddf9b7a	-0.10918327
34	0x3d817fc0	0.063231945
35	0x3cd34c48	0.02579321
36	0xbd9a2cf0	-0.075281024
37	0x3c672810	0.014108673
38	0xbbef32a0	-0.007299736
39	0x3d297758	0.04137358
40	0xbd2f4d28	-0.04279819
41	0x3d81c1d0	0.06335795
42	0x3d966780	0.0734396
43	0xbcd15c00	-0.025556564
44	0xbdf20132	-0.11816634
45	0x3d6bcb74	0.057567075
46	0xbdf1b8c6	-0.11802821
47	0xbdb77f3a	-0.089598134
48	0xbb676180	-0.0035305917
49	0xbdba2bec	-0.09090409
50	0xbc51e270	-0.012810335
51	0x3da128a8	0.07869083
52	0x3dbb194c	0.09135684
53	0xbdaa0e06	-0.08303456
54	0xbdc9c414	-0.09851852
55	0x3d0a4124	0.03375353
56	0xbd7ab500	-0.06120777
57	0x3d81b86a	0.06334002
58	0x3dfd78a4	0.12376526
59	0xbd9fd060	-0.07803416
60	0xbdd9c25e	-0.10632776
61	0xbd72fc54	-0.05932267
62	0xbc4204f0	-0.0118419975
63	0x3d8351e2	0.06412102
64	0x3d406698	0.04697284
65	0x3dbe68d8	0.09297341
66	0x3df328be	0.11873005
67	0xbde387a8	-0.11109859
68	0x3dfa1d92	0.12212671
69	0xbd96cf2c	-0.07363734
70	0x3b964720	0.0045861155
71	0xbd8399ae	-0.064257964
72	0x3d14fb90	0.03637272
73	0xbd2445f0	-0.04010576
74	0x3decdc22	0.115654245
75	0x3cae1b30	0.021253198
76	0x3d1b4cbc	0.037914976
77	0xbdb167c6	-0.08662371
78	0xbdfe21f8	-0.12408823
79	0x3c844cb0	0.016149849
80	0x3df5d9fe	0.12004469
81	0x3ba07b40	0.004897505
82	0x3d992fd2	0.07479824
83	0x3d920842	0.07130481
84	0xbbbf1e40	-0.0058324635
85	0xbd00db54	-0.031459168
86	0xbdef8bd8	-0.11696595
87	0x3d8a9c8e	0.06768142
88	0xbd8b8350	-0.06812155
89	0xbdf7ec20	-0.12105584
90	0x3d4594e4	0.048237696
91	0x3ddf2ee0	0.108976126
92	0xbd6824c8	-0.056675702
93	0xbde59fd0	-0.112121224
94	0x3d2c13a8	0.042010933
95	0xbd9ec1c6	-0.07751803
96	0xbdb60918	-0.08888453
97	0xbd59412c	-0.05304067
98	0x3d90578c	0.07047948
99	0x3c571910	0.013128534
100	0xbdc6ece6	-0.097131535
101	0xbc57f2d0	-0.01318045
102	0x3d91fb4c	0.07128009
103	0x3cfaae30	0.030600637
104	0x3dd9ab22	0.10628344
105	0x3de8f500	0.11374855
106	0xbd751520	-0.0598346
107	0x3db4d50c	0.08829698
108	0xbd0304a8	-0.031986862
109	0x3b452a80	0.0030085146
110	0x3d6335f0	0.05547136
111	0xbd9e68ca	-0.07734831
112	0xbcd20510	-0.02563718
113	0xbdb9b3c0	-0.09067488
114	0xbd65dddc	-0.056119785
115	0x3de677cc	0.11253318
116	0x3dbfebbe	0.09371136
117	0xbd496d90	-0.049176753
118	0xbbc54860	-0.0060205907
119	0x3dc0cc82	0.09414007
120	0x3de04a76	0.10951702
121	0x3d96baaa	0.07359822
122	0xbda2d8ce	-0.079515085
123	0xbd61a9c4	-0.05509354
124	0x3d9679a4	0.0734742
125	0x3dd1149a	0.102090076
126	0xbc97f160	-0.018547714
127	0xbd8bbae2	-0.068227544
128	0xbd8c8cd0	-0.06862795
129	0xbd5823ec	-0.052768633
130	0xbcea3958	-0.028591797
131	0xbba28b80	-0.0049604774
132	0xbd805a1c	-0.06267187
133	0x3de3c02c	0.11120638
134	0xbde98a34	-0.11403313
135	0x3df0d74c	0.117598146
136	0xbd8ac908	-0.06776625
137	0xbd7fe47c	-0.06247376
138	0x3db9ea2e	0.09077869
139	0xbc2c2b80	-0.010508418
140	0x3dcf2d7e	0.10116099
141	0x3d921736	0.071333334
142	0xbd128c58	-0.035778373
143	0x3cafc628	0.021456793
144	0x3dc67bae	0.09691559
145	0x3dc2b450	0.09507048
146	0x3ce7c570	0.028292388
147	0x3d5bd858	0.05367312
148	0xbdc58e0e	-0.096462354
149	0xbd2a7cf8	-0.041623086
150	0x3d9acc4e	0.07558499
151	0xbdf5781a	-0.11985798
152	0xbd08e3c8	-0.033420354
153	0x3c6789f0	0.014132008
154	0xbd434454	-0.047672585
155	0x3de47eca	0.111569956
156	0x3cedc7d8	0.029025957
157	0x3d9383ca	0.07202871
158	0x3daf5c38	0.08562511
159	0xb9f4fa00	-0.0004672557
160	0x3d415504	0.047200218
161	0xbdf541a8	-0.119754136
162	0x3d5b1168	0.053483397
163	0x3cff9850	0.031200558
164	0xbddc3cbe	-0.10753773
165	0xbd99f40a	-0.0751725
166	0x3dda611a	0.10663052
167	0x3d9f6070	0.07782066
168	0x3de47cb6	0.11156599
169	0x3d4183b4	0.047244743
170	0x3c09ba80	0.0084062815
171	0xbde3f002	-0.11129762
172	0x3d97e758	0.07417172
173	0xbdce231a	-0.10065289
174	0x3d1dbdd4	0.038511112
175	0xbdf625e6	-0.12018947
176	0xbab49e00	-0.0013779998
177	0x3d9ff9f8	0.0781135
178	0xbcaeabe8	-0.021322206
179	0xbb863da0	-0.0040967017
180	0x3d5135f4	0.051076844
181	0x3cd144e8	0.025545552
182	0xbcad36e8	-0.021144345
183	0x3d792128	0.060822636
184	0x3c4fa5d0	0.01267381
185	0x3c184590	0.009293929
186	0x3deda592	0.11603846
187	0xbdce3964	-0.1006954
188	0xbd992a5e	-0.07478784
189	0x3d84c61e	0.064831
190	0xbd411bfc	-0.04714583
191	0x3dee2072	0.11627282
192	0xbd25b0a4	-0.04045166
193	0x3d567870	0.052360952
194	0xbdd5be2a	-0.104366615
195	0xbab05e80	-0.0013455898
196	0x3d7fc2e4	0.06244172
197	0x3c9f9a50	0.019482762
198	0xbbca4a20	-0.006173387
199	0xbdba2db2	-0.09090747
200	0x3dc81ed8	0.09771508
201	0xbd130d94	-0.03590162
202	0x3d6a6de4	0.057233706
203	0xbd565d28	-0.052334934
204	0xbdac113c	-0.08401725
205	0x3da47ec0	0.08031988
206	0x3de31d40	0.11089563
207	0x3dd76b3e	0.10518502
208	0xbdbbd7ce	-0.09172021
209	0x3d8dadce	0.06917916
210	0x3d31b2cc	0.043383405
211	0xbd1ea06c	-0.03872721
212	0x3c47d8d0	0.012197688
213	0x3df40a9e	0.119160876
214	0xbc912c78	-0.0177214
215	0x3d811c5c	0.06304237
216	0xbdfedd14	-0.12444511
217	0xbd92da32	-0.07170524
218	0x3d435ea4	0.04769768
219	0xbdaf98be	-0.08574055
220	0xbd9a5b66	-0.07536964
221	0x3dc80c94	0.09768024
222	0xbd19f3b4	-0.03758593
223	0xbdd72b92	-0.10506357
224	0x3d77c498	0.06049022
225	0x3da22eea	0.079191044
226	0xbd159768	-0.036521345
227	0x3d3a9d7c	0.045560345
228	0x3cafc150	0.021454483
229	0xbd126128	-0.035737187
230	0x3c313e60	0.010818094
231	0x3c2e0e40	0.010623515
232	0x3dc63ad4	0.09679189
233	0x3d3270e8	0.043564707
234	0xbd6a80b8	-0.057251662
235	0x3dbc5df4	0.09197608
236	0xbde965ca	-0.11396368
237	0x3d288d34	0.041150287
238	0xbd34f9c0	-0.044183493
239	0xbdc12bd4	-0.09432188
240	0xbd1d6230	-0.038423717
241	0xbc35e270	-0.01110135
242	0xbb928b40	-0.0044721663
243	0x3d957926	0.07298498
244	0xbc357f80	-0.011077762
245	0x3df4481e	0.11927818
246	0xbdb65faa	-0.08904965
247	0xbd4e0b90	-0.050303996
248	0x3d7b78b0	0.061394393
249	0xbdcd5a9c	-0.10027048
250	0x3dceb97c	0.10093972
251	0xbdf40102	-0.11914255
252	0x3d9c3fdc	0.07629368
253	0xbcafc6c8	-0.021457091
254	0x3db05f18	0.08611888
255	0xbae34580	-0.0017339438

bias_ih_l2 f4 [64]
0	0xbdff9ff4	-0.124816805
1	0xbd18257a	-0.037145115
2	0xbe0f2432	-0.13978651
3	0x3ceeabfc	0.029134743
4	0x3cc2537e	0.023721453
5	0x3d471073	0.04859967
6	0xbdbdac81	-0.09261418
7	0xbdb8a418	-0.090156734
8	0xbd16add8	-0.036786884
9	0xbe57ac1d	-0.2106175
10	0xbe0f5534	-0.13997346
11	0xbe45cf01	-0.19317247
12	0xbd5a13ad	-0.05324142
13	0xbc24fe04	-0.010070328
14	0xbdf21172	-0.11819734
15	0xbe14d928	-0.14535964
16	0xbd6fe130	-0.058564365
17	0xbd2b0b8d	-0.041759063
18	0x3ce1fb67	0.027585698
19	0x3d0fd28e	0.03511291
20	0x3ce08acf	0.02740994
21	0xbc890ae2	-0.016728822
22	0xbe26d411	-0.16291834
23	0xbe625369	-0.22102131
24	0xbe1ac558	-0.15114343
25	0xbd022886	-0.031776927
26	0xbdba5a7a	-0.09099288
27	0xbe44e906	-0.19229516
28	0xbe0235ad	-0.12715788
29	0xbdaf34a8	-0.08554965
30	0xbdfb8d05	-0.12282757
31	0x3d25a26b	0.040438097
32	0xbe83410c	-0.25635564
33	0xbdcc0fc8	-0.099639475
34	0xbe164e02	-0.14678195
35	0xbd6123f9	-0.054965947
36	0xbe261f85	-0.16222961
37	0xbe87d059	-0.26526144
38	0xbdca3d55	-0.098749794
39	0xbe002e5a	-0.12517682
40	0xbdff4d63	-0.12465932
41	0xbe13b0ab	-0.14422862
42	0xbdbbe0ee	-0.09173761
43	0xbe800b1b	-0.25008473
44	0x3bb32b2e	0.005467794
45	0xbe9890a8	-0.29797864
46	0xbe1af6d9	-0.15133227
47	0xbc60168f	-0.013677253
48	0xbd821e94	-0.063534886
49	0xbe1d338e	-0.15351698
50	0xbd4a559a	-0.049398042
51	0xbe1a6280	-0.15076637
52	0xbd235148	-0.039872438
53	0xbdf10137	-0.1176781
54	0xbc62f7b2	-0.0138530005
55	0xbe2c1f9c	-0.16808933
56	0xbe04d502	-0.12971881
57	0xbdde3cd6	-0.10851447
58	0xbdda065d	-0.10645745
59	0xbe9e8779	-0.30962732
60	0x3dd490b2	0.10379161
61	0xbe421b67	-0.18955766
62	0xbe42e8dc	-0.19034141
63	0xbde599c6	-0.112109706
