results/model_lstm.pt (torch, 526306 bytes, 17 tensors)

weight_ih_l0 f4 [256, 50]
00000000: 52f6 e23d 288f 8dbd 10be 7d3d 8eaf d23d
00000010: 6a64 823d 2099 abbd f62b eb3d 1e60 c63d
00000020: 0ce5 68bd a8a8 c73c e80a 933d 409d c4bd
00000030: 067d b23d 38f3 89bd f699 f73d fcfc c1bd
00000040: da1f bfbd 689b 993c 6e97 e5bd b824 b23c
00000050: f6ad f43d 10d8 b53d 804e 27bc bc3e 43bd
00000060: 2244 c63d c4f0 cc3d f0c5 023c e046 a23c
00000070: 8454 09bd 5adf 9c3d 9450 573d 7634 c2bd
00000080: b801 3cbd 6817 2cbd a297 c43d ae0a eabd
00000090: 4cf8 773d aed5 c13d a620 df3d f823 dfbc
000000a0: 9825 b8bd e874 5fbd 8c0c e23d 745c 13bd
000000b0: b83e b7bc 589d 1e3d ba0c e23d 78c2 29bd
000000c0: a880 eebc f439 323d b76a 61bd 4cd9 06be
000000d0: 4ad6 20bd 29a4 8dbd bde2 33be de15 0ebe
000000e0: 19e9 5bbe c53b 28be 6462 0bbe 6e36 5cbe
000000f0: 81a5 31bc b498 fcbd 0779 e6bd ba37 c0bc
00000100: ee95 92bd 2ba8 b8bc 3dd6 39be dac9 4fbe
00000110: ab4b 2fbe 7745 cabd af36 3abe c657 21be
00000120: 5cd3 43be 032c cebd b34b 8fbd 3d90 12bd
00000130: dad2 5bbd ab06 62be 9e3c 18be d1be adbd
00000140: af38 0ebe e52a c4bd 7dee 4dbe 53c4 e1bd
00000150: 6982 57be 8090 42be 89a8 36be 10cb 3ebe
00000160: 6c2f 33be ff5b 4abd 805d b5bd df8f cfbb
00000170: 84e9 d53b 5675 59be 7dfe 65bd 4534 6fbe
00000180: bd9c 4abe 1346 29be fb62 57bd 8fb5 3cbe
00000190: 2a64 35be 2b78 68bc 7e46 2bbd 57ea 553b
000001a0: 4c92 c43b e788 a3bd 7c14 46bb ca22 64be
000001b0: 978d bdbd 6b07 53be 8f8b d0bd 482f b2bb
000001c0: 83d7 85bd 2e4e 053c 9566 343c 9d44 03be
000001d0: 94a4 5fbe 6a73 6bbd 6c2c 0dbe ea62 87bc
000001e0: c46d 42be 547a 31be d500 c9bd 0264 49be
000001f0: 14bf 5fbe b6b0 38bd aaa9 afbd ac9e 48be
00000200: f12f eebd c140 513c ac25 18be b700 29bd
00000210: 687a 46be c311 ec3b 67b9 2ebe 66fd 21be
00000220: eead 0dbe 5064 45be 323a 5bbe 2e33 44be
00000230: f9ff 94bb 69a3 9ebd 74b8 40be a6bb 39be
00000240: dbcf 29be b4e6 53be 728e c73b 76f2 3abe
00000250: 2d1d 5bbd 2846 f9bc 1791 f1bd 0ac3 e63c
00000260: 2f75 42be 23c9 bdbd 7636 3dbe af15 20be
00000270: a727 46be 8fd4 0abe b199 38be d315 44be
00000280: 5eff 4dbe 2bf5 52bd 8c33 1ebe 7894 7fbb
00000290: 7e59 57be ebc2 e93b 5918 e0bc f559 4bbe
000002a0: 5c2a 3cbe 123f 84bd 8936 9c3c 24ea c4bc
000002b0: 10ea eabd ff67 53be 73ff 36be 1a72 55bd
000002c0: fab5 05be 67ac 24be 630c 3dbe d97b 10be
000002d0: 31dd 5cbd 9141 11bd a929 183d d7ea 07bd
000002e0: 352d 00be c511 0dbe 4455 b13c cbe2 063d
000002f0: 7ec8 10be b70e d2bb dda2 57be 3682 5abd
00000300: da3a debd 1563 fcbd c7f2 c0bd f7ef 27be
00000310: 65ef e0bc 0fb2 b0bd ce88 f13c c805 67be
00000320: 2458 61be 0074 2cbe 3235 01be 5b96 58be
00000330: 8c78 38be 76dc 0cbd 75c3 09bd be5d 96bd
00000340: d6db 58be 78de 7bbd c851 4bbc 9e04 1ebe
00000350: eb58 bcbc 2af7 d9bd cea6 58be 4900 5cbe
00000360: 4e81 dabc 72d7 3fbe faab 33be d6bc bdbd
00000370: 63d6 43be d9d8 50bd 98f4 a9bc ed50 27bd
00000380: 13b4 29be 81e0 3ebe 2c6c 57be b588 bfbc
00000390: 9699 3dbd 1fd7 15be b985 3bbe 633a e73a
000003a0: 0321 01be fa43 f6bc 1267 6ebc ad68 09be
000003b0: 0d26 4fbe adb0 e4bd 41a9 3fbe 3f4f 41bd
000003c0: 5cb6 26bd 07f1 ffbd aba7 93bd e9b7 35be
000003d0: 40dc 05bd bd5f df39 36fa ad3c 0b30 0dbc
000003e0: 71d9 6bbc a07b f1bd 2611 b4bd 88e7 c23d
000003f0: 62bf fcbd 90d8 c53c 2ccc fabd 8e6e fb3d
0.11082138 -0.069120705 0.061948836 0.10287391 0.06366809 -0.08378816 0.11482994 0.09686302
-0.05685906 0.024372414 0.071798146 -0.096003056 0.087152526 -0.067358434 0.120899126 -0.09472081
-0.09332247 0.018750861 -0.112105235 0.021746024 0.11947243 0.08879101 -0.010211587 -0.04766725
0.09680964 0.1000686 0.007981762 0.019809186 -0.033527866 0.076597884 0.05256708 -0.094826624
-0.045900077 -0.04201451 0.09599234 -0.11427818 0.06053953 0.09464584 0.10894899 -0.02723883
-0.089915454 -0.05455485 0.110375494 -0.035976842 -0.022368774 0.038724273 0.11037584 -0.041445225
-0.029114082 0.0435123 -0.05503341 -0.1316883 -0.039266862 -0.06916077 -0.17566963 -0.13875529
-0.21475638 -0.1642905 -0.13611752 -0.21505138 -0.010842682 -0.12333813 -0.11253553 -0.023464072
-0.07157503 -0.022541126 -0.18148132 -0.20291844 -0.17118709 -0.098765306 -0.18184923 -0.15756139
-0.19123596 -0.10066988 -0.0699686 -0.035782088 -0.05366788 -0.22072856 -0.14866874 -0.08483661
-0.1388881 -0.09578494 -0.20110507 -0.11023774 -0.21045841 -0.19000435 -0.17837729 -0.1863215
-0.17498559 -0.04940414 -0.08855724 -0.0063342894 0.0065280814 -0.21236166 -0.056150902 -0.23359783
-0.19786353 -0.16530637 -0.05258463 -0.18428634 -0.17713991 -0.0141888065 -0.041815273 0.0032640898
0.0059988853 -0.079850964 -0.0030224612 -0.22278896 -0.09255522 -0.20608298 -0.10182869 -0.0054377653
-0.06535246 0.008136315 0.011010786 -0.12819143 -0.21840125 -0.057483114 -0.13786477 -0.016526658
-0.18987185 -0.1733182 -0.09814612 -0.19667056 -0.21850234 -0.0450904 -0.08577283 -0.19591779
-0.11630238 0.012771786 -0.1485812 -0.041260447 -0.19382632 0.007204266 -0.17062913 -0.1581932
-0.1383588 -0.19276547 -0.21408918 -0.19160149 -0.004547116 -0.07746012 -0.18820363 -0.18137988
-0.16583197 -0.20693475 0.006089979 -0.18256554 -0.05349462 -0.03042896 -0.11795252 0.028169174
-0.18990014 -0.092668794 -0.18477806 -0.15633272 -0.19351064 -0.13557647 -0.18027379 -0.1914895
-0.20116946 -0.05150334 -0.15449351 -0.0038998406 -0.21030232 0.0071338317 -0.02735536 -0.19858535
-0.18375534 -0.06457342 0.019068973 -0.024037428 -0.11470425 -0.2064514 -0.17870884 -0.05211077
-0.130577 -0.16081391 -0.18461756 -0.14109744 -0.053921882 -0.03546292 0.037149105 -0.033182945
-0.12517245 -0.1377631 0.021647103 0.03293113 -0.14138982 -0.0064104456 -0.21058221 -0.053346835
-0.10851069 -0.12323586 -0.09421306 -0.16400133 -0.027457902 -0.08627712 0.029484179 -0.22560799
-0.22006279 -0.16841125 -0.12617949 -0.21151106 -0.18014735 -0.034389935 -0.033633668 -0.07342099
-0.21177611 -0.06149146 -0.012409635 -0.15431449 -0.022991618 -0.10642846 -0.21157381 -0.21484484
-0.026672985 -0.1873453 -0.17546073 -0.09264533 -0.19124751 -0.050988052 -0.020746514 -0.04084866
-0.16572599 -0.18640329 -0.21037358 -0.023380617 -0.04628905 -0.14632843 -0.1831273 0.0017641302
-0.12610249 -0.03006171 -0.014550941 -0.13418837 -0.20229359 -0.11166511 -0.18716909 -0.047194716
-0.040701255 -0.12497144 -0.072097145 -0.17745937 -0.03268075 0.00042605205 0.021237474 -0.008617411
-0.014395104 -0.11791158 -0.08792333 0.09516817 -0.12341191 0.024151117 -0.12245974 0.12276946

weight_hh_l0 f4 [256, 64]
00000000: 00ba 5d3d cc3c 44bd 7823 0bbd 446d d3bd
00000010: 7c56 51bd 7e5e cf3d 0c3c f23d 54cc 893d
00000020: 7870 ee3c f86c febd e259 f73d 3044 183d
00000030: 40c4 0e3d 68fb a5bc fc64 203d f88e 89bd
00000040: 549e 333d b854 e33d c02b 773c 00a0 123b
00000050: 989d ec3d 4e67 d33d c8f9 39bd 9412 483d
00000060: 9876 94bd 68ac 6cbd a064 5abd c017 5fbb
00000070: b4d5 f53d d0c0 d43c a0c8 5c3d e046 553c
00000080: 0422 633d 908d 4abd 9084 eabd d85b ef3c
00000090: 1cbc f6bd 2aa0 99bd 28ea 853c 9ed8 adbd
000000a0: 2808 8bbd 6a94 ad3d 301c f7bc fc03 113d
000000b0: 9253 f93d 0001 88bb f8c0 a1bd 0076 423b
000000c0: aeed c93d e056 73bc 705c 7cbd c0c7 a7bd
000000d0: 743d 3ebd ea6b e7bd b877 f8bc 0c56 e63d
000000e0: ec22 32bd 7ca5 ac3d f6a3 e93d d869 f23d
000000f0: e836 d7bc 7c8b f33d fcf8 9d3d 2699 f53d
00000100: c863 b9bd 503e d7bc d6b2 853d 60ce 4b3d
00000110: 269c ef3d 70a6 a5bd dc57 97bd f8c9 4dbd
00000120: 387e 5bbd 2af3 d8bd 6465 bf3d 90c2 67bc
00000130: d215 c0bd eed8 b73d 52ea e9bd 14d0 313d
00000140: aa5d df3d 8855 e43c 3856 903c 40ad 073d
00000150: 0cbe cbbd 2c7e f23d 006f 253a 2a06 97bd
00000160: 1074 263c 6046 483d 644b c43d 90b0 58bd
00000170: 4838 e1bc c67b adbd b0e5 34bd 5884 97bc
00000180: fe80 aabd 1e55 bebd 0033 f0bc 3015 323d
00000190: fc02 133d 10b8 bebc c8ba 5b3d 50c3 263d
000001a0: 061c f4bd 78dd 07bd b055 f83d 86a3 d7bd
000001b0: b0d7 343c c819 33bd d8c0 7abd 8885 59bd
000001c0: 3228 9ebd 026e a83d 8045 8fbd 402c 303c
000001d0: a063 18bd b85c ba3c 8020 cf3c 001d a3ba
000001e0: 489f b73d 6822 ecbd 18c1 79bd dc04 efbd
000001f0: acae 4f3d 8c2a 1e3d d0a7 623c 6a38 f7bd
00000200: babd c13d 8013 25bd 504f 36bc 762c dbbd
00000210: 80da 443c dcb8 ecbd 9492 dabd f6eb f2bd
00000220: a4b0 4f3d 9c9e 84bd c42b e6bd 0029 e3bd
00000230: 945f 103d a0b7 aabd e0b2 fd3c bc8c 6fbd
00000240: 4814 273d 543e 09bd f8a3 413d 5e38 a63d
00000250: 681a fcbd 40bc 8fbd 522b 8ebd 6084 2dbd
00000260: 6032 ac3b 1657 ffbd 2a35 e03d fca0 9e3d
00000270: 4a88 d3bd 10c4 e23d 8415 62bd 0055 b03d
00000280: 2a2b 873d 584c eabd c690 eabd a676 c23d
00000290: 4055 433b e8a5 8abd ce01 8f3d f09f 36bc
000002a0: 4ece a9bd 08e5 4f3d 40db c0bc 6c38 60bd
000002b0: d020 e33c fc93 79bd 2660 df3d 80cf 0a3d
000002c0: eeb3 85bd b893 713d 60cb b3bd 541d 16bd
000002d0: 38b0 b8bd d8c5 a13d 24a2 cf3d d826 6bbd
000002e0: 060c 8b3d 4855 2ebd 2e60 a4bd 5881 99bc
000002f0: 9a5a f73d 686e b23c d836 96bd e044 92bc
00000300: c449 3dbd b075 cdbd a2fe 9c3d 86c7 a33d
00000310: e066 e73c bc06 db3d b241 d8bd dadc a73d
00000320: 0a93 adbd f0b0 19bc a4a9 b4bd e8ee c53d
00000330: ee3a ae3d f887 7bbd a24d 883d c6b5 f3bd
00000340: 541d 89bd 90ca 133d 0057 063b 405c d8bc
00000350: 2860 76bd f025 7bbd 3c59 ed3d ec9a eebd
00000360: f6fa cc3d 7836 16bd 2800 b5bc fc4e 0fbd
00000370: e843 913d 7c0b 4cbd 0ecb 9abd b08f 823d
00000380: 18e9 f53d e0c4 873d 2808 53bd 8861 40bd
00000390: c865 b2bd e017 8a3d 945c b5bd e893 003d
000003a0: a416 2abd ced4 a2bd 0ac2 d13d 7ef8 c23d
000003b0: 40ae 46bb 22fa f8bd 3854 64bd 8028 6a3c
000003c0: acce 96bd 7cd5 b1bd 9463 61bd 9824 853d
000003d0: 02fa bb3d b8fc 183d e004 e63d 5094 1abd
000003e0: 00ee f93b 1003 d1bd 66ee 9b3d 5e78 db3d
000003f0: 74ac ee3d d034 c63d 8c2b ba3d 284a 77bd
0.05413246 -0.047909543 -0.033969373 -0.10323575 -0.05110787 0.10125445 0.11827859 0.067284256
0.029106364 -0.12423128 0.12077691 0.037174404 0.034855127 -0.020261481 0.039158806 -0.06716722
0.043852165 0.11100143 0.015086114 0.00223732 0.11553496 0.10322438 -0.045404226 0.048845842
-0.072491825 -0.057781607 -0.05331862 -0.0034041256 0.12003651 0.025970846 0.05390227 0.013017386
0.05545236 -0.04945141 -0.114510655 0.0292186 -0.12047598 -0.07501252 0.016347006 -0.08488582
-0.06788665 0.08475573 -0.030164808 0.03540419 0.12174143 -0.00415051 -0.07898134 0.0029672384
0.09859787 -0.014852256 -0.061611593 -0.08192396 -0.046445325 -0.1129988 -0.030330524 0.11246881
-0.043490335 0.08430001 0.11408226 0.11836594 -0.026271299 0.11891839 0.077135056 0.11992101
-0.09052235 -0.02627483 0.06528251 0.04975736 0.11699705 -0.08088386 -0.07389805 -0.05024144
-0.05358717 -0.10593255 0.093455106 -0.014145508 -0.09379162 0.08976923 -0.11421646 0.04341133
0.10906537 0.027872816 0.017619237 0.03312421 -0.09948358 0.118404716 0.0006310791 -0.073742226
0.010159507 0.04889524 0.09584692 -0.052902758 -0.027492657 -0.084708735 -0.04416436 -0.018495724
-0.083253846 -0.092935786 -0.029321194 0.043477237 0.035891518 -0.023281127 0.053644925 0.04071361
-0.119194075 -0.033170193 0.121257186 -0.105292365 0.011037752 -0.04372576 -0.061219066 -0.05310586
-0.077225104 0.08224107 -0.06995678 0.0107527375 -0.037204385 0.02274929 0.025284052 -0.0012444556
0.08965927 -0.1153 -0.060975164 -0.11670849 0.05070369 0.038614795 0.013833955 -0.12071307
0.094600156 -0.0403018 -0.011127308 -0.107018396 0.012014985 -0.11558697 -0.10672489 -0.11861412
0.050705567 -0.06475565 -0.112388164 -0.110918045 0.0352474 -0.08335805 0.030969083 -0.058483824
0.040790826 -0.033506706 0.047275513 0.0811622 -0.12309724 -0.07018328 -0.069418564 -0.04236257
0.0052550286 -0.12467782 0.1094764 0.07745549 -0.103287295 0.11072552 -0.0551963 0.086099625
0.0660003 -0.11440343 -0.114533946 0.09495287 0.0029805452 -0.06769925 0.06982766 -0.0111465305
-0.082913026 0.05075553 -0.023542047 -0.054741308 0.027725607 -0.060932145 0.10907011 0.033889294
-0.065284595 0.058978766 -0.08779025 -0.036649063 -0.09017986 0.07899064 0.10138348 -0.05741009
0.06789403 -0.0425618 -0.08026157 -0.018738434 0.12077828 0.021781161 -0.07334679 -0.017855108
-0.046212927 -0.10032213 0.07665755 0.079970405 0.028247297 0.10694644 -0.105594054 0.08196421
-0.08475311 -0.009380564 -0.08821419 0.096647084 0.08507334 -0.061408967 0.06655432 -0.11899905
-0.06695047 0.03608185 0.0020498633 -0.026411176 -0.060150295 -0.061315477 0.11589286 -0.11650643
0.100088045 -0.03667304 -0.022094801 -0.034987435 0.0709303 -0.04981564 -0.07558261 0.063750625
0.1200735 0.06629348 -0.05152145 -0.046968013 -0.087108195 0.06742835 -0.088555485 0.031391054
-0.041525498 -0.079507455 0.10242088 0.095200524 -0.0030316263 -0.12157084 -0.05574438 0.0142918825
-0.07363638 -0.08683297 -0.055026606 0.0650112 0.091785446 0.037350386 0.112313986 -0.037739098
0.0076272488 -0.10205662 0.0761383 0.107163176 0.116539866 0.09678042 0.09090337 -0.060373455

bias_ih_l0 f4 [256]
00000000: 9719 b73e f411 8cbe 7212 46be 7b55 123e
00000010: 8275 6abe 192e 493f 0138 1a3f a3e6 a13e
00000020: 72a3 49be 58c0 bcbd 3e64 0c3e 4f23 453e
00000030: e38d 80be 3eb9 023f 285d 043f d674 3a3f
00000040: 7ed1 b43e 9631 a0bd aa8c 1fbe 41d2 38be
00000050: 0e8a 68bd e338 293f 115f b8bd 950a b03e
00000060: e730 0f3f 541b 633e 774c 52bd 5729 0c3f
00000070: a45a 943e 1782 fcbd 1d03 55bd 70c5 ac3e
00000080: a6d6 cb3e 475b f33e 36c8 c1bc b801 063f
00000090: db87 0a3e e477 2c3f e208 d73e 8a50 ca3c
000000a0: d337 5a3e 2eff b9bb 36eb 0dbe 1fc5 183f
000000b0: c968 183d dccd 2c3e dae5 ef3c 2199 063f
000000c0: 5c19 203f 7158 853d 74be de3e 95b6 0f3f
000000d0: 3c36 103f f679 1c3f 007a a53e 4a34 d8bd
000000e0: cdd5 ce3e 555e 2e3f d1b7 ae3a 7242 5a3e
000000f0: 65eb b53e cb4e 073f 61ca f93e ab25 12bd
00000100: c060 66bb a04d 823b d040 6ebd 54f6 91bd
00000110: 1651 b53d 16ac 94bd 5828 abbd 00cb d43b
00000120: 1e06 8d3d 1e12 d9bd 7c88 b8bd 8078 faba
00000130: 78cd 303d 6868 b13d 30fe 3cbc 00f7 4b3c
00000140: b85c 1cbd 0a4d b13d 80c7 2e3b c8f0 adbd
00000150: 2423 40bd b6a9 c5bd 10ce 75bd 7c11 143d
00000160: 404a ddbc 029e d03d 9af7 dfbd e0ff 10bc
00000170: f014 91bd ea7e 99bd d04d f83d acfa 75bd
00000180: 1899 993d e6be b23d 4064 163d 0041 0c3a
00000190: a6f0 a13d c48c 59bd 12f9 a3bd c01d 59bc
000001a0: 4a99 9d3d d837 5e3d dc4e 893d ec0b ae3d
000001b0: e062 8cbd 60df f63b bccf 78bd 4adb 80bd
000001c0: 5edc c1bd ec1b 7ebd 500a 213d 5a03 e4bd
000001d0: aeb6 e93d 2c0c 843d d40e 243d b07a 20bc
000001e0: 7051 96bd 42b4 d23d 4cdd 423d 2af7 b4bd
000001f0: 14b4 723d c4a9 10bd 30c8 cd3c 4057 d13c
00000200: 3a90 adbe 4c06 84bd 650b 043e 6b2c 2cbe
00000210: 97ae 9ebd be93 25bf 7c63 133f 9890 7cbe
00000220: eefc c53d edc1 2abe 6968 75be 9039 443e
00000230: 9331 ea3c b76d c23e 586a 0dbf 54b9 1b3f
00000240: f7ad 92be 4051 75bd 6605 9abd 4223 93bd
00000250: 965a 5a3e 3e86 15bf 2577 a5be 4dad 133f
00000260: c269 9f3e f8d3 c93e d4e4 0d3e cbbf 033f
00000270: 682b 97be af6f 5abd 7f28 23be a1cc b83e
00000280: c085 a23e d594 f3be 52d8 debd bb26 263f
00000290: 4e5d 8b3e 393b 253f 03fd ccbe d2bf 69be
000002a0: f553 0ebe ffbb 8e3d 7be4 7b3d 7bc3 5f3e
000002b0: 26d2 56be b748 2a3e 5571 df3d 3bd0 263f
000002c0: 3372 b7be 20b2 1fbe 09a7 353e 9f2b f03e
000002d0: 121a dd3e 46d5 0fbf 4460 833e d66b 143e
000002e0: 2d4b 983e 222f 273f 195c 9c3e 21e4 6d3e
000002f0: 1453 9e3e afcb cbbe 75dd d2be 42a9 a53d
00000300: 1c67 923e b3a5 17be 4e03 593d b2fc 2a3e
00000310: 9d1a acbc 567f 2c3f cce6 013f 7b7f 183d
00000320: ae7f 87be 4f93 893e 60a8 4a3e 8e82 81bd
00000330: 803b 11be 0831 0f3f fd9a 0a3f 8cae 2f3f
00000340: f7f3 e63d fbd0 4bbe 395b 2dbd 272e fdbd
00000350: bd63 803d ba98 443f 5070 e13e 17c1 0b3f
00000360: c5cd 1b3f 3757 203e 02b4 81bd b024 da3e
00000370: 89f7 e53e 40ef c7bc 7ab6 0c3d 54d4 a73e
00000380: 1b50 07be eb05 c73e 5c5f a338 d70f 2d3f
00000390: 217b f93d e181 453f 5f60 003f d6d9 cabd
000003a0: 8a81 c5bb eef6 c4bd 0f45 cfbd 2340 123f
000003b0: d862 39bd 3074 8c3e 1f95 b93d 591b 3d3f
000003c0: a53d 333f 04cb 8d3d 466a df3e b149 473f
000003d0: 7e4c 873e 7490 113f 34d1 d13e 7661 1cbc
000003e0: 5bf1 a13e 14d9 313f 3896 c5bd 59c5 4b3d
000003f0: 79dd 543e a3f7 423f 94c5 043f 1572 20be
0.3576171 -0.27357447 -0.19342974 0.1429042 -0.22896388 0.78585964 0.60241705 0.31621274
-0.19691256 -0.09216374 0.13710114 0.1925175 -0.2510825 0.5106391 0.51704645 0.7283453
0.3531608 -0.07821958 -0.15581003 -0.18048956 -0.056772284 0.6610243 -0.090025075 0.34383073
0.55933994 0.22178394 -0.051342454 0.5475058 0.28975403 -0.123295 -0.052004922 0.33744383
0.398122 0.47530577 -0.023655038 0.5234637 0.13528387 0.6737044 0.41998965 0.024696607
0.21310358 -0.0056761717 -0.13859257 0.5967578 0.037209306 0.16875404 0.029284406 0.52577406
0.62538695 0.065110095 0.4350468 0.56137973 0.56332755 0.611236 0.3231964 -0.10556848
0.40397492 0.6811269 0.0013329928 0.2131441 0.35531154 0.52854604 0.48787215 -0.035680454
-0.0035152882 0.003976539 -0.05816728 -0.071270615 0.088533565 -0.07259385 -0.08357304 0.006493926
0.068859324 -0.10599159 -0.09010407 -0.0019109398 0.0431647 0.08662492 -0.011535212 0.012449026
-0.03817436 0.08657272 0.0026669204 -0.08493191 -0.046908513 -0.096515104 -0.06001097 0.036149487
-0.027012944 0.101863876 -0.10935898 -0.008850068 -0.07084072 -0.0749491 0.121242166 -0.060053512
0.074999034 0.08727817 0.0367167 0.0005350262 0.07907228 -0.05311276 -0.08006491 -0.013251722
0.07695253 0.054252476 0.06704494 0.08498368 -0.068547964 0.0075339526 -0.060744986 -0.06291826
-0.0946586 -0.062038347 0.039316475 -0.11133452 0.114117965 0.06447634 0.040053204 -0.009794876
-0.07339752 0.10288288 0.047574326 -0.08836205 0.059253767 -0.03531815 0.02511987 0.0255543
-0.338991 -0.064465135 0.12894972 -0.16813819 -0.07748144 -0.6467856 0.57573676 -0.24664533
0.09667383 -0.1667554 -0.2396561 0.19162583 0.028588092 0.3797433 -0.5524039 0.60829663
-0.2864835 -0.05989194 -0.07520561 -0.07184459 0.21323618 -0.5840796 -0.32317463 0.5768631
0.31135374 0.39419532 0.13856822 0.5146453 -0.29525304 -0.053329166 -0.15933417 0.3609362
0.31742668 -0.47574487 -0.108811036 0.6490285 0.27219623 0.6454349 -0.40036783 -0.2282708
-0.13899215 0.06969451 0.061497193 0.21851914 -0.20978603 0.16629301 0.10910288 0.65161484
-0.35829315 -0.15595293 0.177395 0.4690828 0.43183953 -0.56184804 0.25659382 0.14494261
0.29744855 0.65306294 0.30539015 0.23231556 0.3092276 -0.39803836 -0.41184583 0.08088924
0.2859429 -0.14809303 0.052981667 0.16697958 -0.021008784 0.673818 0.50742793 0.03723095
-0.264646 0.268702 0.19790792 -0.063237295 -0.14182854 0.5593419 0.54142743 0.6862571
0.11277001 -0.19903938 -0.042323325 -0.123623185 0.062690236 0.7679554 0.44031 0.54591507
0.60860854 0.1565827 -0.06333162 0.42606115 0.44915417 -0.024406075 0.03435371 0.3277918
-0.13214152 0.38871703 7.790208e-05 0.67602295 0.12181688 0.77151304 0.5014705 -0.0990483
-0.006027405 -0.096174106 -0.10120594 0.57129115 -0.04526028 0.27432394 0.09061646 0.73869854
0.7001594 0.06923488 0.43635768 0.7784682 0.26425546 0.5686104 0.40979922 -0.009544721
0.31629452 0.6947186 -0.096477926 0.049748752 0.2078761 0.76159114 0.5186398 -0.15668519

bias_hh_l0 f4 [256]
00000000: 21d4 713e b5c0 7cbe f406 27bd eb06 903e
00000010: a23c 1dbe 2f60 273f 1fcc 1f3f bbb1 923e
00000020: 2cea 70be f4ba 89bd ccaf 343e 9bc3 4f3e
00000030: ab66 46be fc19 193f bbeb ec3e c0a5 1d3f
00000040: ac3a f63d e3a5 67be 1975 1ebe b6f4 fabd
00000050: 8e34 e2bb cdc7 223f ee62 c93c 1d05 bd3e
00000060: 486f 1a3f 81f1 563e 3738 d03d bc47 143f
00000070: a476 d43e 5606 f5bc 1125 293e c7db c73e
00000080: b85e 9e3e aace e83e 1be2 6ebc aa1c 2b3f
00000090: 485c 5a3e f2f5 153f bb53 aa3e 7374 ed3d
000000a0: ac0b e23d 6d5f 42be 0c7f 48be 6db0 e43e
000000b0: 1d82 cbbc b062 333e c57c b4bd 907f 343f
000000c0: 21e5 213f b829 023e f2e6 ff3e 3556 0b3f
000000d0: 7a45 c53e 976b 343f 062e ec3e d8f9 32be
000000e0: e25c f63e cc48 383f 1251 d73d 88a3 503e
000000f0: 9379 7e3e 46f2 043f a92c 1a3f f015 6ebe
00000100: 3cbb a23d c081 fe3c bc4c 6f3d 842b 85bd
00000110: 9c1d 66bd e443 183d f8d3 df3c 56d2 f3bd
00000120: 903f 3b3d aa77 d13d a8b0 59bd b0ab d9bd
00000130: b467 fabd 403d 11bc d432 47bd 76bc 9fbd
00000140: d01e 633c f4f9 b1bd a0c2 82bd c40a f9bd
00000150: f8c3 ca3c d010 813d 4ccb a03d 584a fcbd
00000160: e87d 4dbd 1022 b93d 0094 793d e085 243d
00000170: 106d d23d 6cdb b7bd 342b 48bd 2074 c4bb
00000180: 7812 f93c a898 ca3d 88b5 e2bd eeea b93d
00000190: f879 afbc 8026 9cba 2250 973d 0e27 e8bd
000001a0: 48be cbbd 2cc6 43bd b838 c4bc 426b e2bd
000001b0: 1895 1fbd d43c 273d 68b8 1f3d a081 c4bd
000001c0: 54be 0a3d 4e00 a43d 90d3 76bc fe89 96bd
000001d0: 0c04 ddbd 909a d3bc 1cd2 afbd 30ad 953d
000001e0: 6a9c fbbd 04d1 92bd 709d 483d 6251 b03d
000001f0: 5e7e ccbd 7ac9 ec3d 3c41 013d fe53 e93d
00000200: 4592 86be aef2 c3bd 5659 1b3e e979 9dbe
00000210: 5415 19be ce80 2ebf ecbb 0a3f 0815 7ebe
00000220: fdc8 633c 10e0 b3be 9ab4 94be 789d 973e
00000230: 6cbb 3cbe 9951 023f 3bd6 1abf bb79 0a3f
00000240: 9be4 d9bd efa6 793c b954 03be f02a 13be
00000250: 6055 e13d c48b 16bf 9f46 80be 7b85 cf3e
00000260: 8d6c d43e c4e6 ba3e 38b0 233e 3de0 bb3e
00000270: 88c9 49be baea 0bbe 93bb 7bbe 0e5d a43e
00000280: 05e0 3d3e ffdd efbe f3cd a5bd 4b23 1c3f
00000290: 3d2f 913e 7973 093f 5d10 e3be e76d eabd
000002a0: 3197 33be f487 9c3d bf70 643d 80cf d13e
000002b0: bc88 b6bd 3243 463e 3412 643e 0b01 033f
000002c0: e177 ecbe de15 9cbe 6970 ab3e 0808 073f
000002d0: d66e e93e 1897 24bf 5bce 3d3e 35ee 803e
000002e0: e133 d83e b237 283f b2f2 273e 3046 223e
000002f0: d7e7 3c3e 6484 5fbe ab03 91be aaf1 243e
00000300: fa00 833e 1cc0 e3bd 8bea e3bd 45ca 263e
00000310: 4fe0 21be fefd 1a3f b872 053f 93e5 a1bd
00000320: 9e40 33be b9e3 7a3e d2ae 793e 6b0e 063d
00000330: da50 85bd 843e 043f 27cb 053f df2c 4c3f
00000340: 7b20 913e 61f8 edbd 70ee 3dbe 4b46 323d
00000350: 959c d73d 3416 193f fca3 9d3e 7dd2 163f
00000360: 4d24 0d3f 582a ad3e 5630 15bc 4cbd f73e
00000370: 6f34 f93e 1921 55be 2a16 683d a62a 933e
00000380: 4822 e23b 92be 133f badc 47be ef41 3c3f
00000390: 414e 983e dee8 1c3f 5564 af3e 9628 83bd
000003a0: fc2a 6b3d 78f4 f9bc 400f 11be 0216 103f
000003b0: a6f5 c6bd b97c 6b3e f9bc c23c 29ce 1e3f
000003c0: 7f44 2e3f a764 8a3c 0fa0 ca3e 01b4 113f
000003d0: 7662 b03e 12b3 3a3f bdf7 a93e e959 b2bd
000003e0: 5e13 b23e fe37 3a3f 53c4 92bd ba9e 5f3e
000003f0: 313f 9c3e beb0 323f e7ee eb3e 91cb 84bd
0.23616077 -0.24682887 -0.040778115 0.28130278 -0.15355161 0.6538114 0.6242084 0.28651223
-0.2352683 -0.067251116 0.17645186 0.20289461 -0.19375102 0.59805274 0.46273598 0.6158104
0.120229095 -0.22621875 -0.15474357 -0.12253706 -0.0069032377 0.6358612 0.024583306 0.36917964
0.6032605 0.20990564 0.10166972 0.5792196 0.41496766 -0.029910248 0.16518046 0.39034864
0.3093164 0.45470172 -0.014580275 0.6684061 0.21324265 0.5857841 0.33267006 0.115944766
0.110373825 -0.18981715 -0.19579715 0.44665852 -0.024842316 0.17518115 -0.088128604 0.70507145
0.6324025 0.12711227 0.49980885 0.54428416 0.3852957 0.7047667 0.46128863 -0.1747812
0.4811774 0.7198608 0.1051351 0.20374882 0.24851064 0.5193218 0.60224396 -0.23250556
0.079458684 0.031067729 0.05842279 -0.065024406 -0.05618058 0.03717412 0.027322754 -0.11905353
0.045714915 0.10227902 -0.05314699 -0.1062845 -0.12226811 -0.008864701 -0.048632458 -0.07799618
0.013862327 -0.08690253 -0.06384778 -0.121602565 0.024751648 0.06302035 0.07851276 -0.123188674
-0.0501689 0.090397 0.06093216 0.040166736 0.10274708 -0.08977398 -0.048869327 -0.0059952885
0.030404314 0.09892398 -0.110697806 0.090780124 -0.021420464 -0.0011913329 0.07388331 -0.11335574
-0.09948403 -0.047796413 -0.023952827 -0.11055614 -0.038960546 0.040829495 0.038994223 -0.095950365
0.033872917 0.080078706 -0.015065089 -0.07350539 -0.107917875 -0.025830537 -0.08584997 0.073084235
-0.12285693 -0.07168773 0.04897827 0.086092725 -0.0998504 0.11561866 0.031556353 0.11392973
-0.2628347 -0.09567772 0.15170798 -0.30757073 -0.14949542 -0.6816529 0.54192996 -0.2481271
0.0139029 -0.35131884 -0.29044038 0.29612327 -0.18430871 0.5090576 -0.6048314 0.54091996
-0.10639306 0.015237554 -0.12825288 -0.14371848 0.11002612 -0.58807015 -0.2505388 0.40531525
0.41489068 0.36504185 0.15985191 0.36694518 -0.19705784 -0.1366376 -0.24583273 0.32102245
0.18542488 -0.46849057 -0.08095922 0.6099135 0.28356352 0.5369182 -0.44348422 -0.114467435
-0.17538144 0.076431185 0.055771586 0.40978622 -0.08912799 0.1936157 0.22272569 0.51173466
-0.4618521 -0.30485433 0.334842 0.5274663 0.45592374 -0.6429305 0.1853575 0.25181738
0.4222708 0.65709984 0.16401175 0.15847087 0.18447815 -0.21827847 -0.2832311 0.16107813
0.25586683 -0.11120626 -0.1112872 0.16288097 -0.15808223 0.6054381 0.5212817 -0.07905116
-0.17505118 0.24500932 0.24383095 0.032728594 -0.06509562 0.5165789 0.5226311 0.7975597
0.28345093 -0.1161964 -0.18547988 0.043524068 0.105279125 0.59799504 0.30789173 0.5891493
0.55133516 0.33821368 -0.0091057625 0.4838661 0.48672816 -0.20813407 0.056661762 0.28743476
0.0069010593 0.5771266 -0.19517794 0.73538107 0.29747203 0.6129283 0.34256235 -0.064042255
0.05741404 -0.03051208 -0.14165974 0.5628358 -0.097148225 0.22996797 0.02377175 0.62033325
0.68073267 0.016893698 0.3957524 0.5691529 0.3445012 0.7292949 0.33196822 -0.08708555
0.347804 0.7274169 -0.07166352 0.21837893 0.3051696 0.6980094 0.46080706 -0.0648414

weight_ih_l1 f4 [256, 64]
00000000: 76c2 28be 29fd e6bd 2681 ed3d fc95 8dbe
00000010: 4af4 3c3e a931 dbbe 2815 e33e 12e3 cbbc
00000020: a50b 9c3a 9cdc 93be 8381 72bc 5d3c b13c
00000030: 0aaf 063c 50a3 833e 63dc 9bbe 160b 953e
00000040: cb60 4bbe 5f7a 073e f1ac 80be 42ca 1bbe
00000050: 0f4d 583e 4c21 02bf 8429 08be ff75 063d
00000060: fa50 d43e f980 ce3e 6cdd 9abd 7837 e9bc
00000070: 46a7 92be 8c71 75be 4dc6 87bd 8734 d83c
00000080: a347 483e 59ab d4be 1be4 32be d02a be3e
00000090: 917e 1f3e c292 d23e 40a3 27be e587 13be
000000a0: 32e3 52be ca0b cb3d fb16 503e 7649 ac3d
000000b0: 10cc 513d d4e7 8a3e 8216 313e 0072 2a3e
000000c0: 2f74 5fbe 9948 8ebe 60bb 9e3e 5677 043f
000000d0: cd7b 9e3e 649f e73c 68e5 9c3e cbcd a73d
000000e0: d950 633e 0d6d af3e 7464 153e 2a61 8d3e
000000f0: 0aca 3d3e 12e2 273d c629 98be 45d7 9c3e
00000100: 10f8 cabc c71f 82be e64a 223e a5d0 3dbe
00000110: 7012 143e 40e0 a03e 76ad 90be 5eb3 f8bd
00000120: cbb0 d03d d045 37be b497 f8bd 7f23 f4bd
00000130: 469e d0bd 91d8 ce3e 9874 803d d254 abbe
00000140: a2f5 41be 5111 a6bd 3cf2 f3bd 388a c8bc
00000150: f888 ccbc 8662 dc3e 651f 09be 12c2 9b3d
00000160: 7aa8 90be 07ab 6bbd 0c0c 853d 9cad 7a3c
00000170: e3de 88bd 3a9e bdbd 2782 8d3d 02d4 34be
00000180: 0401 e43d 9121 1c3e 8ebf bdbd 77b6 babe
00000190: 8001 f83c d809 87be 678d 873d a202 5fbe
000001a0: dce2 44be fd17 113d 1f2f 273e bedd 763e
000001b0: f238 4dbe 0ef6 483e 00d7 aa3d 4370 ddbd
000001c0: 2284 43bd e069 28bd 8100 443e e0f4 b1be
000001d0: 45ca 24bd 910c d23e 758d da3c 04c1 a8bd
000001e0: e772 693e f2ee a7be 3522 313d 10aa 4d3e
000001f0: 39b9 2f3d 1185 993c 8ff6 1fbe 065a 6a3e
00000200: 0649 afbe 1499 06bc f6fd 753d 7d31 a03d
00000210: 121d 4e3e b01b 3b3f 4ed1 7fbd 833d 35be
00000220: 5fb5 cebd 5141 06be da57 113d 88c6 aabd
00000230: b152 41bd a02e 3b3e fc0c 913d db7b 24be
00000240: 884a f6bd 536c ad3e 337f b3be ccb6 52bd
00000250: 5690 823e f93c 323f 0e10 12be d80d 50bc
00000260: 706d 06bd 00d0 933b 20d9 1b3d bdac 233e
00000270: ffe3 b5be e6c8 8fbe c145 f4bd f4b3 c4bc
00000280: ed3b b7bd b433 1a3f ec4c 05be cdc5 2bbf
00000290: 7b33 1c3e f8c1 7ebe 064c 823e d743 9dbd
000002a0: 8f5a 91be 42f6 e53c 5b4d 9a3e d09e c33d
000002b0: d776 cd3d 8eb9 f23b a3c7 2b3e 553c 15be
000002c0: e359 ceba 576b 483d e1ca 403e a937 92be
000002d0: 9498 b93b 8ce3 423e 6199 8a3e 6e55 333d
000002e0: bbe8 ec3d de83 4ebf 3b06 743e 15a1 713e
000002f0: 441c 4c3e 355d 353e b89f c8bd 7621 833e
00000300: f127 18be 73e6 3cbe db3a fe3c 44bb 36be
00000310: 2971 403e c1f0 09bf 3be2 703e 716a b0bd
00000320: 3220 87bd e7b3 f7bd 4fdc 37be e6ba 34be
00000330: 89a1 1e3d 8423 093f d648 b7be ee47 bc3e
00000340: c369 5ebe d31e 26be f0dd 3cbe 70b4 b8bc
00000350: de8a 8b3d 0c14 d8be 14ff f7bd 8b32 ea3d
00000360: 9b17 083e 0652 fe3e 6cd3 263e 27b2 42be
00000370: 8d19 a8bd f8e5 21bd d0fa 19be 3034 80be
00000380: 27ad 8a3d 765c c8be 58b8 303c 32ab c03e
00000390: 72a9 8f3d 5066 ee3e 0014 0a3d 541b 183c
000003a0: 7521 243c 5391 863d 3f66 233e 23a8 3e3d
000003b0: 574e 85bd 748e e23d 9529 ff3d c6ba c13d
000003c0: 09c1 29be 9534 afbe 8394 81bc 5edc 9f3c
000003d0: a183 673e 24c6 febd 5e7e 223d 0518 ef3d
000003e0: 9dbd f13c 8fce f83e a024 9bbd 5749 0d3e
000003f0: 9c82 843b 7c39 79bd 95e0 63bc eda9 813d
-0.16480431 -0.11278755 0.11596899 -0.27653491 0.18452564 -0.42811325 0.44352078 -0.024888549
0.0011905326 -0.2887925 -0.014801386 0.021635229 0.0082204435 0.25710535 -0.3044158 0.2911002
-0.19861142 0.13230275 -0.25131944 -0.15213874 0.21123146 -0.50832057 -0.13297087 0.032827374
0.4146803 0.40332773 -0.07561764 -0.028468832 -0.28643245 -0.23969096 -0.0662962 0.026392234
0.19558577 -0.41536978 -0.17469828 0.37142038 0.15575625 0.41127592 -0.16370869 -0.14407308
-0.2059448 0.09914358 0.20321266 0.08412449 0.05122 0.27129996 0.17293742 0.1664505
-0.21821664 -0.27789763 0.3100233 0.5174459 0.30953828 0.028274246 0.30643773 0.08193549
0.2219881 0.34262887 0.14589101 0.27613193 0.18534103 0.04098708 -0.2971937 0.30632988
-0.024776489 -0.2541487 0.15848884 -0.18536623 0.14460158 0.3142109 -0.2825734 -0.121435866
0.101899706 -0.17897725 -0.1213831 -0.11920833 -0.10186438 0.40399602 0.062722385 -0.3346315
-0.18941358 -0.081087716 -0.11911437 -0.02447997 -0.024967656 0.43043917 -0.13390882 0.07605375
-0.28253537 -0.05753615 0.064964384 0.015300181 -0.06683137 -0.09258695 0.0690959 -0.17659
0.11133006 0.1524718 -0.09265052 -0.36467335 0.030274153 -0.26374698 0.06618767 -0.21778348
-0.19227165 0.035423268 0.16326569 0.24108025 -0.20041254 0.19625112 0.08341789 -0.10812428
-0.047733434 -0.041116595 0.19140817 -0.34757137 -0.04023196 0.41025212 0.02667878 -0.0823994
0.22797738 -0.32799488 0.043245513 0.20084405 0.04290125 0.018740209 -0.15621398 0.22885904
-0.342354 -0.008215208 0.06005665 0.07821939 0.20128277 0.7308912 -0.062455468 -0.17699246
-0.100931875 -0.13110854 0.035484172 -0.08338648 -0.047198 0.18279505 0.07082555 -0.16062872
-0.120259345 0.33871707 -0.35057983 -0.05144386 0.25500745 0.69624287 -0.14263937 -0.012698613
-0.03281921 0.0045108795 0.038048863 0.15983863 -0.3552551 -0.2808296 -0.11927367 -0.02401159
-0.08946977 0.6023514 -0.13017625 -0.67098695 0.15254013 -0.2487868 0.25448626 -0.07678955
-0.28389403 0.028071526 0.30137143 0.095517755 0.100324325 0.0074073737 0.16775374 -0.14573796
-0.0015743341 0.048930492 0.18827392 -0.2855809 0.0056639407 0.19032115 0.27070144 0.043782644
0.11567827 -0.80669963 0.23830502 0.23596604 0.19932657 0.17711337 -0.09796089 0.25611466
-0.14858986 -0.18447284 0.031033924 -0.17844874 0.18793167 -0.53882986 0.235238 -0.08614052
-0.06597938 -0.120948605 -0.17955135 -0.17649421 0.03872827 0.5356982 -0.35797757 0.36773628
-0.21720032 -0.16222696 -0.18444037 -0.022546977 0.06813596 -0.42202795 -0.12109199 0.114354216
0.13290255 0.49671954 0.16291589 -0.19013272 -0.082079984 -0.039525956 -0.15037084 -0.25039816
0.067713074 -0.39133042 0.0107861385 0.37630612 0.07014741 0.46562433 0.03371048 0.009283859
0.010017742 0.06570687 0.15956973 0.046547066 -0.06509083 0.11062327 0.12459103 0.09459452
-0.16577543 -0.34219804 -0.015817886 0.019514259 0.22608806 -0.12440136 0.039671294 0.11674503
0.02950936 0.48595092 -0.07575345 0.13797508 0.00404389 -0.060845837 -0.013908525 0.06331239

weight_hh_l1 f4 [256, 64]
00000000: 3e10 913d 70fa fa3c 4075 a13d e805 9abc
00000010: 40cb 06bb 9865 5d3d 3ea2 f9bd 74cd df3d
00000020: e86c 843d 166d e73d 748e b73d a08c b13b
00000030: 587d fb3c 30a3 543c 907e 94bd d890 73bd
00000040: 8c34 603d 1c11 29bd 2484 293d eefa d43d
00000050: cce5 6a3d 40a1 8fbb a0af f43d 6658 ba3d
00000060: b47d 513d 7c77 52bd 8042 83ba 88e2 a9bd
00000070: d82a fa3d 08db d6bc 6068 89bb 38f4 6a3d
00000080: 00bc 3dbc f098 9e3d b861 8abd c469 a63d
00000090: ac8f f2bd 28eb 1fbd c849 3fbd fcdd 1d3d
000000a0: 08c2 dabc 809d 6c3d da0e e1bd dae6 f23d
000000b0: 20a8 693c e096 55bd c0cd 6d3c 2c43 9fbd
000000c0: 7c7f 473d 4022 6cbc 0e90 f73d 92d9 c2bd
000000d0: f2f8 f43d 0ce6 613d b6f9 893d 54c7 7ebd
000000e0: 6024 56bc 98cd d1bd 20dd 813c 4465 c93d
000000f0: 020b 8e3d 4804 15bd a441 7b3d 76b9 d03d
00000100: fc0b 29bd f8f0 22bd 26b3 9cbd 00e4 813a
00000110: 7414 e33d 607e 8a3b 80b7 4c3c e06c 713c
00000120: c075 04bc f839 9ebd e86d 68bd c06b d1bb
00000130: 008a d83c 3a74 fbbd 584c e8bc 2267 efbd
00000140: 0042 61bb f6df fdbd 0c73 d3bd 4041 7a3c
00000150: c02b 36bb 92f0 c9bd a0d3 6c3d 0097 fdbc
00000160: 504d 493d d8dc c2bd bc5f 883d d013 88bd
00000170: e0a8 e0bb 40ca dc3b 9881 a13c 1cba 8dbd
00000180: d4e8 e3bd 0831 6cbd 14aa 80bd e849 c9bd
00000190: a2cd e53d f8cf c83d ae90 cc3d 1a83 f23d
000001a0: 380a ad3d 2088 b4bd 4262 ee3d fa49 a73d
000001b0: eaf6 8b3d 2c2c ae3d 0c0e 5a3d 78f9 bdbd
000001c0: 88b7 9d3d c815 f3bc 2020 bb3d 1a74 c33d
000001d0: 9c38 51bd a887 9b3d 5a38 b4bd 447e b9bd
000001e0: 108b cabd 08b2 78bd 6acd a8bd 2093 d13c
000001f0: 5c86 8b3d 3c02 1f3d 484f a73c 6044 c9bc
00000200: 887b 933c 346f a5bd 2c39 043d 747e 31bd
00000210: acd0 65bd 00d6 b33d 0eb3 a33d a0a7 6ebc
00000220: b4ff b63d 40fe ccbd 4c93 353d 98e8 ae3d
00000230: 54c2 713d e494 263d 40f7 823d 3cba 223d
00000240: 40a8 723d 4cbd 6a3d ba45 f5bd 1a3b ea3d
00000250: 3447 903d c091 593d d0d0 3bbd 14f5 733d
00000260: 08a3 833d 0070 e4bd b0c9 3bbd 324a c93d
00000270: f09e aebc 38ca dabd 9467 70bd c636 8e3d
00000280: 40f0 05bd 4886 843d ae7f 9cbd 883b 05bd
00000290: 7caa 4ebd 006a 58bd f4d3 293d 30a0 c4bc
000002a0: 606c 9dbc 800e 203c 403e 43bb 24fa 85bd
000002b0: fc54 c63d 125b d4bd 744f 0f3d f027 c9bc
000002c0: 484d 863c 4c38 e23d 5e77 9ebd d0f7 c23c
000002d0: c47e 17bd f000 bf3d 1485 dcbd b812 863d
000002e0: f0ec c4bc e217 d53d 30b5 8fbd 8665 febd
000002f0: 64a9 cb3d 50e2 603c 38e9 52bd 5697 873d
00000300: b8eb e43d 8435 f93d 10cf 1dbc 0a0d d7bd
00000310: 804a a2bc e050 75bd 1880 683d 3cec 90bd
00000320: 4a0d ffbd 4224 80bd 8ce1 a8bd 304e 413c
00000330: a8dc 503d fa1a 883d b04a 943d 200e e33b
00000340: 7a97 e3bd 8caa b93d 581b 923d 38cd 833c
00000350: a62e 9f3d 3058 733d 306b 603c 8485 16bd
00000360: 0872 8bbc 90e1 3cbd 10ef 51bc 1c1e 71bd
00000370: e052 fbbd 2cbc 743d 7a35 f83d ee6b d03d
00000380: 40a1 0fbb f0b9 e6bd 08ae d53c a4d1 793d
00000390: d040 fdbc 7814 f83c f8b6 ad3c cc48 7cbd
000003a0: ea46 b23d e00e ecbd 60c1 12bc ba3d e93d
000003b0: 46bd f2bd 9059 dfbd 907a a33d 6ce7 ce3d
000003c0: 1419 6f3d d6b8 d03d 7013 9bbc 149c 6f3d
000003d0: 706f 04bd 24b6 71bd ac6a 123d e894 30bd
000003e0: 8c11 c6bd 809c 25bc 2caa 253d 1ca7 e53d
000003f0: ce77 8f3d 8203 c53d 686c 4c3d b49b c43d
0.07083176 0.030636996 0.07883692 -0.018801644 -0.0020567924 0.054051965 -0.12189148 0.10927859
0.06466085 0.11300103 0.08962718 0.005418375 0.030699417 0.01297836 -0.072507024 -0.059464306
0.054737613 -0.041276082 0.041385785 0.103994235 0.057348058 -0.004383236 0.1194756 0.09098892
0.05114527 -0.05138348 -0.0010014325 -0.082951605 0.12215203 -0.02622749 -0.0041933507 0.05736181
-0.011580467 0.07744014 -0.067569196 0.08125642 -0.118438095 -0.03904262 -0.046701223 0.03854178
-0.02670385 0.05776739 -0.10989161 0.11860438 0.0142612755 -0.05214584 0.014514387 -0.07776484
0.048705563 -0.014412463 0.12088023 -0.095141545 0.11961545 0.05515103 0.06737082 -0.062201813
-0.013070196 -0.10244292 0.01585251 0.09833768 0.06935693 -0.036381036 0.061341897 0.10191624
-0.041271195 -0.039780587 -0.07651357 0.0009909868 0.110878855 0.004226491 0.012494922 0.0147354305
-0.008084714 -0.077259004 -0.05674544 -0.0063910186 0.026432991 -0.12278028 -0.028356716 -0.11689593
-0.0034371614 -0.12396233 -0.10324678 0.015274346 -0.0027797073 -0.09860338 0.05781901 -0.030955791
0.049145997 -0.09514779 0.06658885 -0.06644404 -0.006856069 0.0067379773 0.019715115 -0.06920263
-0.11128393 -0.057663947 -0.0628244 -0.098285496 0.11220862 0.09805292 0.09988533 0.11841412
0.08449215 -0.08815026 0.11639835 0.08168407 0.068342045 0.08504519 0.053236052 -0.09276098
0.077010214 -0.029673472 0.09136987 0.09543629 -0.051079378 0.07594234 -0.08799811 -0.090572864
-0.09889805 -0.06071666 -0.082423046 0.02558285 0.068127364 0.03882049 0.020423546 -0.024568737
0.01800324 -0.08077851 0.032281086 -0.043333486 -0.056107208 0.08781052 0.07993136 -0.014566332
0.0893549 -0.10009432 0.044329926 0.085404575 0.059023216 0.040669337 0.063948154 0.03972839
0.059242487 0.057309434 -0.1197619 0.11437054 0.07044831 0.053117514 -0.045853436 0.059559897
0.0642758 -0.11154175 -0.04584664 0.09828605 -0.021316022 -0.106831014 -0.05869253 0.06944041
-0.032699823 0.064709246 -0.076415405 -0.032527477 -0.050455555 -0.052835464 0.0414619 -0.024002165
-0.019216716 0.009769082 -0.0029791743 -0.06541851 0.09684178 -0.10368933 0.03498788 -0.024555176
0.016394272 0.11045894 -0.07737611 0.023799807 -0.036986127 0.09326351 -0.1076757 0.06546539
-0.024038762 0.10404946 -0.07016981 -0.12421708 0.09944418 0.013725832 -0.051491946 0.06620662
0.11177772 0.121684104 -0.009631887 -0.10500534 -0.019810915 -0.05989158 0.056762785 -0.07076308
-0.124537066 -0.06256916 -0.08246145 0.0117984265 0.050991684 0.0664577 0.07240808 0.006929174
-0.11112876 0.09065732 0.07134122 0.016089067 0.07772569 0.059410274 0.0136974305 -0.036748424
-0.017022148 -0.04611355 -0.012813345 -0.058866605 -0.122716665 0.059749767 0.12119575 0.10176836
-0.002191618 -0.112659335 0.026083961 0.060990945 -0.030914694 0.030283198 0.02120541 -0.061592862
0.08704932 -0.11526275 -0.008957237 0.113887265 -0.11852507 -0.109057546 0.07982361 0.10102734
0.058373526 0.10191505 -0.018930167 0.058498457 -0.032332838 -0.059011593 0.03574626 -0.043110758
-0.096713156 -0.010108113 0.04044549 0.11213514 0.07005273 0.0961981 0.04990807 0.096000105

bias_ih_l1 f4 [256]
00000000: a2b9 85be 0a43 07be 7539 25be caf8 9fbd
00000010: 81d1 86be f084 2bbe eb4c 4fbd 6d51 913c
00000020: 5a32 06be 9b9d 89bc 101c cabd 117a 9ebd
00000030: 17b8 95be ce44 92be 32e8 193d 6972 24be
00000040: 8185 143d 5529 67be c655 64be dfb6 34be
00000050: 847f 813d 75f0 4ebe 3ed2 5cbd 83e7 a4bd
00000060: eae7 0fbe 8503 09be b072 83bd 57a0 84be
00000070: d4cd 8cbe 9de5 c2bd 5180 ddbd e1be 97bd
00000080: 01a4 19be 852b 33be b92b 4fbe 5bc1 00be
00000090: 3c53 5dbe 6db7 84be 01d9 32be 8319 393a
000000a0: 1b91 b9bd ea1a 98be 24ad 7bbc 3148 32bc
000000b0: 44fb 86be d85f 71bd 9f67 46be 2e57 1fbd
000000c0: 7c8c afbe a4d6 0e3d 1e35 9d3c ee8e 33be
000000d0: 699d 82be 2dab 96be 4a62 a2bd d32a dcbd
000000e0: 600a 8dbe 70c0 80be c7e0 10be 7b48 c6bd
000000f0: b750 fdbd 8dab 18be c557 29be 10f4 bdbc
00000100: 70d8 3fbd b030 afbc 5452 933d c4de b7bd
00000110: eaff a33d 123b c4bd ccf4 adbd 7cad 673d
00000120: f018 d8bd e6d9 d13d 74a7 dd3d fc55 fc3d
00000130: 2e79 c1bd 181c dbbd b6f9 be3d 00c9 4e3b
00000140: c883 8fbd eca5 ec3d 1075 44bd c46b 45bd
00000150: f0ae e4bc 8079 0ebd 705e 6d3d b06a 6cbd
00000160: 00aa fcbd 6852 3f3d 88e6 20bd 107b c6bd
00000170: b034 73bd 44ce 113d f0da 683c 849f d23d
00000180: 70c1 f6bd 7005 243c d201 bb3d 00f6 933d
00000190: 9005 b33c 84fb 933d e472 22bd a0a5 af3c
000001a0: dc37 b63d 60c1 98bb 5e82 9d3d 203c 56bd
000001b0: c0cd 59bd e062 563c b02b f3bc 184e 6e3d
000001c0: 508f 9f3d a06f c23b 6e6b e9bd f676 94bd
000001d0: ecb8 e03d de71 963d 1867 fabd 3a89 85bd
000001e0: 20b8 90bc 14fb ac3d 829d a6bd 7693 ff3d
000001f0: 60ef 03bc 485e ddbc 0243 983d d0e7 13bc
00000200: edc5 553d 03d3 163d 0f79 b03d 584f 693d
00000210: 2b51 543d 3858 633c 7c9d d6bd e98a 8c3d
00000220: 34c0 01bd 1a54 82bd 3931 533d 2e61 34be
00000230: f5a1 d33c e497 d93c decc 2dbd 9b95 fd3d
00000240: f87c 91bd da34 223e 171f c33d 1f5b e13c
00000250: e503 fd3c 1bf6 4bbe 229b c9bc f109 22bd
00000260: f09e 1c3c b6ea 823d 79e6 bebd 0532 37be
00000270: cfc2 4c3e f079 f4bc 70fd b9bd f876 053e
00000280: b3bd 033d 0e03 b0bd 2752 a0bc b904 053e
00000290: d9b6 ca3c 730c 21bd 1323 78bd 4f6a 8abb
000002a0: 0002 7bbd 589e bd3b 7e3b 05be ddeb 91bd
000002b0: db76 573d 773b 143d dbf6 ec3d 2272 0abe
000002c0: 29bb 82bd df96 8d3d 40f1 493c 37ee 83bd
000002d0: 400f e03d 8163 34be cf3c 1cbd ddfa 80bd
000002e0: e0cd b5bd 8dbd 4f3e fb43 9b3d 9128 ec3d
000002f0: 348c 1e3e 862e 72bc 5d42 68bb 5b21 51bd
00000300: 1d72 0dbe f942 a4bd 5dbd 89be 0d74 fdbb
00000310: b8aa 18be 0536 1bbe 1989 67be 19f2 cdbd
00000320: 8cfd 00be e243 f53c 4480 26be 86ef 25be
00000330: 22ca 38be c766 78be b0c8 03be dbc3 62be
00000340: 6547 10be b640 f4bd 13d0 8ebe ec89 3dbe
00000350: 101b f5bc f9dd 48be 822f 48bd f55b 11be
00000360: 6d53 3abe d485 ffbc b305 6fbe 30f7 44be
00000370: 220c 90be ad1c 1ebd 8016 413b d00d a5bd
00000380: 328d 32be 4cca 07be 1129 5bbe 303d 45be
00000390: e40e be3b 3df5 bfbd 1dd6 30be 9447 0ebe
000003a0: 3354 44be 52c6 11be 610a 903c f9b3 c6bd
000003b0: b6ba 87be 0133 08bd 5cd2 3fbe a0db 4fbe
000003c0: 6557 cabe 2e7d 76bd 4bb5 25be 2e5b 75be
000003d0: 3142 77bd 75a0 a0be c3cc 033d baa2 14bc
000003e0: f507 17be 448e c0be 1fa4 6dbe b678 b1bd
000003f0: 26ce f5bd a0f8 283d 7c4f 88bd 8e27 b6bd
-0.2611819 -0.13209167 -0.161352 -0.078111246 -0.26331714 -0.1674993 -0.050610464 0.017739022
-0.13105145 -0.016798785 -0.09868634 -0.07738126 -0.29242012 -0.2856812 0.037574954 -0.16059269
0.03626013 -0.2257436 -0.22298345 -0.17647885 0.0632315 -0.20208915 -0.05391144 -0.0805197
-0.14053312 -0.13380249 -0.06418359 -0.2590358 -0.27500784 -0.095164515 -0.1081549 -0.07409454
-0.15003969 -0.1749707 -0.20231523 -0.1257376 -0.21613783 -0.25921193 -0.17465593 0.00070609915
-0.0906088 -0.29708034 -0.015361104 -0.01088147 -0.26363575 -0.058929294 -0.19375466 -0.0389015
-0.3428687 0.034872666 0.019190367 -0.17534992 -0.2551072 -0.29427472 -0.079289034 -0.107503556
-0.27546978 -0.25146818 -0.14148246 -0.09681793 -0.12368911 -0.14909191 -0.16537388 -0.023187667
-0.04683727 -0.02138552 0.07193437 -0.08978036 0.08007796 -0.09581579 -0.08493957 0.056561932
-0.105516315 0.10246639 0.10822955 0.12321088 -0.09446941 -0.10698718 0.09324972 0.003155291
-0.07007557 0.115550846 -0.047963202 -0.048198476 -0.027915448 -0.03478384 0.05795139 -0.057718933
-0.123371124 0.046709448 -0.03928235 -0.09691441 -0.05937642 0.0355971 0.014212355 0.102843314
-0.12048614 0.010011062 0.091312066 0.07224655 0.021853238 0.07225707 -0.03966035 0.02144128
0.08897373 -0.004661724 0.07690881 -0.052303433 -0.053174734 0.013085097 -0.029683918 0.058179945
0.077910066 0.005933717 -0.11397444 -0.072492525 0.10972771 0.07345937 -0.12226695 -0.065203145
-0.017665923 0.08446327 -0.08135511 0.12479298 -0.008052677 -0.027022496 0.07434656 -0.009027436
0.05219071 0.03682233 0.0861684 0.056960434 0.05183522 0.013876013 -0.104792565 0.068624325
-0.03167744 -0.06363697 0.051560614 -0.17615196 0.025834063 0.026561685 -0.042431705 0.123820506
-0.07103914 0.15840474 0.09527414 0.02750927 0.030885646 -0.199181 -0.024610106 -0.039560262
0.009559378 0.06392424 -0.09321303 -0.17890175 0.19996189 -0.0298433 -0.090815425 0.13033664
0.032163333 -0.08594333 -0.019570423 0.12990083 0.024745392 -0.039318513 -0.060580324 -0.0042240988
-0.061281204 0.0057866983 -0.13010976 -0.071250655 0.052603584 0.036189523 0.115705214 -0.135201
-0.06383354 0.06913542 0.012325585 -0.0644192 0.10940409 -0.17616083 -0.03814393 -0.062978484
-0.08877158 0.20287152 0.075813256 0.11531175 0.15483171 -0.0147816 -0.0035439946 -0.0510572
-0.13813062 -0.080205865 -0.26902285 -0.0077347816 -0.14908874 -0.15157326 -0.22610892 -0.10055942
-0.1259672 0.029939596 -0.16259867 -0.16204652 -0.18045858 -0.24257956 -0.12869525 -0.22145025
-0.14089735 -0.11926405 -0.27893123 -0.18509644 -0.029920131 -0.19615926 -0.048873432 -0.14195235
-0.18195887 -0.031191744 -0.23342018 -0.1923492 -0.28134257 -0.038601566 0.0029462874 -0.08059275
-0.17436674 -0.13260764 -0.21402384 -0.19261622 0.005800115 -0.09372947 -0.17269178 -0.13894492
-0.19172744 -0.1423581 0.017583074 -0.09702296 -0.26509637 -0.033251766 -0.1873259 -0.20298624
-0.39519802 -0.060177974 -0.16182439 -0.23960564 -0.06036586 -0.3137242 0.032177698 -0.009072
-0.14749129 -0.3760854 -0.23207138 -0.08665602 -0.1200221 0.041252732 -0.066557854 -0.08894263

bias_hh_l1 f4 [256]
00000000: 1551 15be 1c22 91bc 955a 94be 49a0 0abe
00000010: 4498 b7bd 8ac3 4ebe 6335 93bd 9c4d aebd
00000020: 7636 34be 9ed8 083d 4cc6 2bbe 4762 b2bd
00000030: 1ba8 93be eb23 ecbd 7643 023d 8353 41be
00000040: 3151 d7bd b1f1 4fbe d01a 84be 6d0e a638
00000050: 2dc4 2d39 15f5 d4bd d62b c3bd f98d 5abe
00000060: a53a 0dbe 486d dabb a7ab 2dbe 561e 4bbe
00000070: b0e0 e1bd 628c 57be 6b3d 5fbd 776f 77bc
00000080: 3eb8 5bbd 3685 1fbe 8661 a6be c7a0 83be
00000090: 6ef2 06bc 7d78 a3be 1993 11be a6a9 2fbe
000000a0: cfdb 50be c8c9 7cbe 0f29 253d 65ed 13be
000000b0: 58e6 d2bd 001c 4fbe 842a 25be ec81 aebd
000000c0: 742a 9dbe 4c85 4cbc 6f6e 6f3d fd7b fdbd
000000d0: ce35 dcbd 2611 0bbe 9206 3abd d7b3 bbbd
000000e0: 86fb 1abe a17d 56be d952 60be ed21 bb3c
000000f0: 4d0f dbbd faf0 c9ba 14cf 25be daec 0dbd
00000100: c8d7 9cbd 88f9 a33d 3c20 a0bd 84d8 36bd
00000110: 58b0 f9bc d41d 6e3d 980f c63c 00f9 003c
00000120: b064 f7bd 801d 2abc ac70 fcbd 6c4a f43d
00000130: 2070 cb3b 201b 993b c8cc 82bd f06c 413d
00000140: c869 f03d b050 e63c f0de 7ebd d0e2 343d
00000150: ecf8 193d ba2d c2bd 56ef c1bd f051 f33c
00000160: 0634 e93d d01c d5bc e82d cabd 34ef 133d
00000170: 9a98 dabd 467e c9bd bc98 d03d 406a d53b
00000180: 840c a73d e0dd 13bc b2f7 8f3d fae0 cabd
00000190: bcb6 a73d 3eb1 a53d 8847 b73c c0cf fbbc
000001a0: 46ca 88bd 80ab 97ba 08bb debc 1047 3dbd
000001b0: ec9d 603d f45f 04bd b28b e8bd 28c7 dc3c
000001c0: 90ef 693c 806b 4bbc 9289 ffbd ec68 a83d
000001d0: 907c 0abc 584d 873c 841f 4d3d 3c95 343d
000001e0: 9c30 613d cc9d e23d 80bf 993a 48d0 c33c
000001f0: e440 7ebd c016 b93d ead3 833d d07e 263c
00000200: e96b 9dbb 3c50 9ebd 0343 fb3d 3f6a d2bc
00000210: 85b5 55bd 7e09 303e 73ae 12bb a56c 56bd
00000220: 69ed 593d 50ee d3bd 7375 0cbe 6d58 85be
00000230: 1931 ac3c b97e f33d 8c93 143d 395b 313e
00000240: 6f3e 123e 72c8 d93d dcdd d93d 40a1 b53c
00000250: c39d 0d3d 15f5 33bb 328f a5bc 4d17 123e
00000260: fc48 dabc 11ae df3c 6141 c43d 81ed 62be
00000270: 67a7 7f3e 368e 1cbe e1e1 fd3d b3b6 b0bd
00000280: 57c3 26be 8ebd 7d3d a026 873b f745 c83d
00000290: 4fdd dbbd f792 303e ca75 4ebe ac4d 50bc
000002a0: 8b2f 9bbd 18f5 733e 1aae 8ebc 718d af3d
000002b0: 2d12 103e 6583 38bb f39b 8f3d 8e38 90bd
000002c0: fd1f 1dbe eb03 2abe 1461 9c3d 3946 2f3d
000002d0: 54bf 1f3d 4352 0abe f4cb 283e a352 8bbd
000002e0: 5a99 a23d f66c ee3d d87a 213d 7961 a73c
000002f0: 8926 073d 256b b6bd 379a f33d bae3 c0bd
00000300: b846 a7be f3c9 25be 6c94 61be 2fba 033d
00000310: a507 ecbd 4ba2 83be 2565 35be 75a5 51bd
00000320: c5fc 11bd e8f6 153d 56a3 8dbd 9f03 89be
00000330: 0d82 25be 483f cfbd d995 29be 5433 8dbe
00000340: 0851 11be 2ba3 61be 1b1c a6be 4443 0f3d
00000350: d65f 1cbe dc53 22be 6aae 23bd b226 d03c
00000360: f84e 37be 71c3 2c3d 698d 7cbe 6c6e 1bbe
00000370: d613 f9bd 84c8 4bbe f5e0 80bd ba87 a4bd
00000380: 47ec 9bbe 80a0 41bd a5bf 08be 7987 75be
00000390: d877 1b3c 43d8 2abe 6573 12be 2b40 0ebe
000003a0: f552 6fbe abae 84be 441e f23c 0186 ddbd
000003b0: 904e 94bd 67b5 70be b639 18be 7c5e 57be
000003c0: 8f88 73be 5ec1 10be 637f 86bd 52c7 8fbe
000003d0: 6672 6dbe a184 a9be e8ae 37be e686 b5bd
000003e0: 0c2f a0be 7ab0 59be a951 4bbd edfc 2ebd
000003f0: 4960 4ebd 4096 2bbe e26a a0bd 1e15 f0bd
-0.14581712 -0.01771646 -0.2897536 -0.13537706 -0.08964589 -0.2019178 -0.07187917 -0.085108966
-0.175989 0.033409707 -0.16774863 -0.08710151 -0.28839192 -0.11530288 0.031802617 -0.18879513
-0.10513533 -0.20307042 -0.25801706 7.918184e-05 0.00016571647 -0.10398308 -0.095298454 -0.21343221
-0.13791902 -0.0066658594 -0.16960011 -0.19835791 -0.11029184 -0.21049646 -0.054501932 -0.015102259
-0.053642504 -0.1557816 -0.3249628 -0.257086 -0.008236511 -0.31927863 -0.1421627 -0.1715456
-0.2039635 -0.24686348 0.04032236 -0.14446028 -0.10297841 -0.20225525 -0.161295 -0.085208744
-0.30696452 -0.012482952 0.058454927 -0.123771645 -0.1075245 -0.1358076 -0.045416422 -0.09165161
-0.15135011 -0.20946361 -0.21906604 0.022843326 -0.10696278 -0.00154069 -0.16192275 -0.034649707
-0.076583445 0.08006579 -0.07818648 -0.04464008 -0.030479595 0.058133915 0.024177358 0.007871866
-0.120797515 -0.01038301 -0.12326178 0.11928257 0.0062084347 0.004672423 -0.06386715 0.04722303
0.11738926 0.028114647 -0.06222433 0.044161618 0.037590906 -0.09481378 -0.09469478 0.029702157
0.11386876 -0.026014715 -0.09872037 0.036116794 -0.10673638 -0.09838538 0.10185382 0.00651291
0.08156684 -0.009025067 0.07029666 -0.09906192 0.08189151 0.08090447 0.022372976 -0.030738711
-0.066792056 -0.0011571497 -0.027188793 -0.04621035 0.054838106 -0.03231807 -0.1135477 0.026950434
0.014278308 -0.012415767 -0.12477411 0.08223137 -0.00845255 0.016516373 0.050078884 0.044087633
0.054978 0.110652536 0.0011730045 0.023903027 -0.062073603 0.09037542 0.06436904 0.01016207
-0.0048041237 -0.07730147 0.12268641 -0.025685428 -0.052175064 0.17191121 -0.0022381812 -0.052349705
0.053204928 -0.10348189 -0.13716678 -0.26044026 0.021019505 0.11889405 0.036273524 0.17319955
0.14281629 0.10633935 0.106380194 0.022171617 0.03457428 -0.0027459313 -0.020209882 0.14266701
-0.02664613 0.027304681 0.095827825 -0.22160913 0.24966203 -0.15288624 0.123965986 -0.08628597
-0.16285454 0.06194835 0.0041244775 0.0977897 -0.10735571 0.17243563 -0.2016212 -0.012713831
-0.075774275 0.23823965 -0.017417002 0.085719 0.14069434 -0.002815449 0.07012167 -0.07042037
-0.15344234 -0.16603057 0.07635704 0.04279158 0.039000824 -0.13507943 0.16484052 -0.06802871
0.07939406 0.116418764 0.039423794 0.02043222 0.032995734 -0.08907155 0.118946485 -0.094184354
-0.32671142 -0.16190319 -0.22029275 0.03215998 -0.115248956 -0.25709757 -0.17714365 -0.051183183
-0.03564145 0.03661242 -0.069159195 -0.26760575 -0.16162892 -0.10119492 -0.16561069 -0.27578223
-0.14191067 -0.220349 -0.32443318 0.03497626 -0.15270934 -0.15852302 -0.039961256 0.025409076
-0.17901218 0.042178575 -0.24663319 -0.15178841 -0.121619865 -0.1990071 -0.06292907 -0.080337
-0.30453703 -0.047272205 -0.13354357 -0.2397746 0.009489022 -0.1668406 -0.14301832 -0.13891666
-0.2337149 -0.2591451 0.029555447 -0.10816575 -0.07241547 -0.235067 -0.14865765 -0.21032137
-0.23782562 -0.14136264 -0.06567266 -0.28081757 -0.23188171 -0.33109 -0.17937815 -0.088636205
-0.31285894 -0.21258727 -0.049638424 -0.042721678 -0.050384793 -0.16756535 -0.07832886 -0.11722778
